results.bk/general/ppo/seed_1_step_50_ms_alpha_rank_minp2_maxp_3_mina_2_maxa_4_tn_100.pt (torch, 120490 bytes, 21 tensors)

weight f4 [64, 40]
0	0xbdf858ef	-0.12126338
1	0xbdc10524	-0.094248086
2	0xbd87ab62	-0.066244856
3	0x3e0a8e14	0.13530761
4	0xbe07fec6	-0.13280782
5	0xbe07a2be	-0.13245675
6	0x3db2db23	0.08733203
7	0x3d6714ea	0.05641643
8	0xbd9d4b30	-0.076803565
9	0xbd4e7c2e	-0.050411396
10	0x3e7783e0	0.241714
11	0x3e067a4d	0.13132592
12	0xbd136b1d	-0.035990823
13	0xbd2e3d6a	-0.042539038
14	0xbd84246f	-0.06452262
15	0xbda473cc	-0.08029899
16	0x3d35add7	0.04435524
17	0xbe7fe6c3	-0.24990372
18	0x3d4fb08e	0.050705485
19	0xbdbda1ad	-0.09259353
20	0xbd9638a3	-0.07335021
21	0xbda96a0c	-0.0827218
22	0x3e3ae778	0.18252361
23	0x3d848b94	0.06471935
24	0x3e822854	0.25421393
25	0x3e6a0826	0.22854671
26	0xbe58c8ef	-0.211704
27	0x3d4c17ed	0.049827505
28	0x3de23f19	0.11047191
29	0x3e97d607	0.29655477
30	0x3e1f7588	0.15572178
31	0x3d5a838c	0.05334811
32	0xbe3a2f26	-0.18182048
33	0xbe6e020a	-0.23242965
34	0xbf27143e	-0.6526526
35	0xbe50c898	-0.2038902
36	0xbe8da6e6	-0.27666396
37	0x3ce0b94d	0.027432108
38	0x3e70f22f	0.23529886
39	0x3ededa8b	0.4352611
40	0xbe1e0ef9	-0.15435399
41	0x3d432987	0.047647025
42	0xbd53005b	-0.05151401
43	0x3e8f138a	0.27944595
44	0x3e36c453	0.17848329
45	0xbea4a364	-0.32155907
46	0x3cee3d2a	0.0290819
47	0xbca4fa21	-0.020138802
48	0x3e9a82bb	0.30177864
49	0x3dd7259d	0.10505221
50	0xbd4e3390	-0.050342143
51	0xbe5f9d7b	-0.21837418
52	0x3de7a6b2	0.113110915
53	0x3cb33d38	0.021879777
54	0x3ebe75cf	0.37199256
55	0x3c924f07	0.017859949
56	0x3cd0fd3f	0.025511382
57	0x3e3e9aee	0.18613788
58	0xbe94f75f	-0.2909498
59	0x3e36a9c9	0.17838205
60	0x3e631e7b	0.22179596
61	0x3c0f1870	0.008733854
62	0xbeb808ca	-0.35944206
63	0x3e1db6fb	0.15401833
64	0xbceeb684	-0.029139765
65	0xbedf0a9f	-0.4356279
66	0xbe3ad222	-0.18244222
67	0xbd5a4511	-0.053288523
68	0xbcb7631e	-0.02238613
69	0x3d3b8799	0.045783613
70	0xbe73fb4e	-0.23826334
71	0xbca8e5ec	-0.020617448
72	0xbeb9bbff	-0.36276242
73	0x3e066f95	0.13128503
74	0x3cb2ab7e	0.02181029
75	0x3e00fdaf	0.12596773
76	0x3cdfefa7	0.027335955
77	0x3e7357fe	0.23764035
78	0xbd601280	-0.054705143
79	0x3e7481c0	0.2387762
80	0xbba76633	-0.0051086186
81	0x3dbffd32	0.09374465
82	0x3e3cc285	0.18433578
83	0x3cdef537	0.027216537
84	0x3e799d06	0.24376306
85	0x3e68f898	0.22751081
86	0x3c8fda3f	0.017560123
87	0x3e9a3583	0.3011895
88	0x3ef4d285	0.47816864
89	0x3e142aca	0.14469448
90	0xbe7cf7ef	-0.24703954
91	0x3e3e2a19	0.18570746
92	0xbee9d5f1	-0.45671037
93	0xbe08f55e	-0.1337485
94	0x3ea2ed0c	0.31821477
95	0x3f58fa55	0.84756976
96	0xbe573ac1	-0.21018507
97	0xbe533f0a	-0.20629516
98	0xbde1a273	-0.11017313
99	0x3e58109e	0.21100089
100	0x3eca92fa	0.3956526
101	0x3d86950c	0.06571397
102	0xbdee6d95	-0.11641995
103	0x3dbb084c	0.09132442
104	0x3dfaf1b2	0.12253131
105	0xbcddb46e	-0.027063575
106	0xbe6db6f5	-0.23214324
107	0x3ebed616	0.3727271
108	0x3db95f86	0.09051423
109	0x3ec8bd8f	0.39207122
110	0xbd703e7c	-0.05865334
111	0x3d11d195	0.035600264
112	0xbdb42994	-0.08796993
113	0xbe0366af	-0.1283214
114	0xbcf428d2	-0.02980462
115	0x3e852788	0.26006722
116	0x3e5e6e28	0.21721709
117	0xbe4b25c6	-0.19838628
118	0xbcff7871	-0.03118536
119	0x3c346eb2	0.01101272
120	0xbdc1759b	-0.094462596
121	0x3e58530a	0.21125427
122	0xbe38b654	-0.18038303
123	0x3eea3258	0.45741534
124	0xbc9f7103	-0.019463068
125	0xbdb64543	-0.088999294
126	0x3cebd02f	0.028785793
127	0x3d59581a	0.053062536
128	0xbd5d1f1b	-0.053984743
129	0x3e822f0d	0.25426522
130	0x3cd14550	0.025545746
131	0xbe285c87	-0.16441546
132	0x3d9765c9	0.07392461
133	0xbc929bc2	-0.017896537
134	0x3dd6de1c	0.10491583
135	0xbd9371f5	-0.0719947
136	0xbc081747	-0.008306331
137	0x3e176e1a	0.14788094
138	0xbdf8f24e	-0.12155591
139	0x3abb1ccf	0.0014275553
140	0xbed23e86	-0.41063327
141	0x3e6c828f	0.23096679
142	0xbcd0e874	-0.025501467
143	0x3e52e95a	0.20596829
144	0xbee46354	-0.4460703
145	0x3ec8cd80	0.39219284
146	0x3e1c2823	0.15249686
147	0xbd62d2fe	-0.055377
148	0x3e22ed7a	0.15910903
149	0x3eceae23	0.4036723
150	0xbe44cde7	-0.1921917
151	0x3cf605f1	0.03003213
152	0xbdf3a31f	-0.11896347
153	0xbe371ef8	-0.17882907
154	0xbeb4d795	-0.35320726
155	0x3cada643	0.021197444
156	0x3d2b32be	0.04179644
157	0xbe146efa	-0.14495459
158	0xbe00f25f	-0.12592457
159	0xbdd81dce	-0.1055256
160	0x3cab8e4c	0.020941876
161	0xbdbd93bd	-0.092566945
162	0xbd0085a3	-0.031377446
163	0x3ec2346b	0.37930617
164	0xbc21f2a0	-0.009884506
165	0x3ea809e5	0.3282005
166	0x3e5c6844	0.21524149
167	0x3ea6168a	0.3243907
168	0xbdfa6d8a	-0.12227924
169	0xbe15f4fc	-0.14644235
170	0x3d7131c7	0.058885362
171	0xbd62b022	-0.055343755
172	0xbe048a69	-0.12943424
173	0xbe64f6da	-0.22359791
174	0xbde1a4b3	-0.11017742
175	0x3ef0d669	0.47038582
176	0xbe2a2d39	-0.16618814
177	0x3d311c1a	0.04323969
178	0x3e0a35fd	0.13497157
179	0x3eab5b50	0.33468103
180	0x3e883b60	0.266078
181	0x3e779f4a	0.24181858
182	0xbcc3d2a4	-0.023904152
183	0xbb1d1657	-0.0023969614
184	0xbde2f228	-0.11081344
185	0xbf2013d9	-0.62530285
186	0x3dbf9046	0.0935369
187	0xbed6c6e3	-0.41948614
188	0x3dfd5411	0.1236955
189	0xbe005ce3	-0.12535433
190	0x3e4e5d1c	0.20152706
191	0xbe3d73b1	-0.18501164
192	0x3e6f456c	0.23366326
193	0x3e366460	0.17811728
194	0x3ee8daf7	0.45479557
195	0x3d39108b	0.045181792
196	0xbebf9633	-0.3741928
197	0xbe577e8b	-0.21044366
198	0xbd7a2b8f	-0.061076697
199	0x3d83e045	0.064392604
200	0x3db8c3e1	0.09021736
201	0xbda97d32	-0.08275832
202	0x3edff662	0.43742663
203	0xbd47b9b1	-0.048761073
204	0x3e98437c	0.29738986
205	0x3e6e9cce	0.23302004
206	0x3e7d6f51	0.24749495
207	0xbcdd8476	-0.027040701
208	0xbdc744ba	-0.097299054
209	0x3dbb53ac	0.091468185
210	0x3eb1f27a	0.34755307
211	0x3cf27812	0.02959827
212	0xbd2cf5b3	-0.042226505
213	0x3e28b074	0.16473562
214	0xbd3f6dc6	-0.046735547
215	0x3d6dbcd8	0.058041424
216	0xbdc138be	-0.09434651
217	0xbdd9e988	-0.10640246
218	0x3e3d9908	0.18515408
219	0x3e0ba6a8	0.13637793
220	0xbe18ab1e	-0.14909026
221	0xbe7d0684	-0.24709517
222	0xbdf8ed1b	-0.12154599
223	0x3df5ae19	0.11996097
224	0xbd82110b	-0.06350907
225	0xbe9d2a22	-0.30696207
226	0xbe2c0c81	-0.16801645
227	0xbd998a9d	-0.074971415
228	0x3e607f42	0.21923545
229	0x3e575da2	0.21031812
230	0xbe8bae9c	-0.27281654
231	0x3e63abf3	0.22233562
232	0xbe6a31ca	-0.22870556
233	0x3d2e470e	0.04254823
234	0x3ecbd25c	0.3980893
235	0xbdba0087	-0.09082132
236	0xbdc45411	-0.09586347
237	0x3e0b12f9	0.13581456
238	0x3d79f8d5	0.06102832
239	0xbd0eed51	-0.03489429
240	0x3e3eaa1d	0.1861958
241	0x3db455ab	0.08805402
242	0x3de9fb5b	0.114248954
243	0x3e0edf5d	0.13952394
244	0xbe05b4a9	-0.13057198
245	0x3dfe077d	0.12403772
246	0xbde83227	-0.11337691
247	0x3e961dc5	0.29319587
248	0xbce74ef5	-0.028235892
249	0x3d96b260	0.07358241
250	0xbe9f2d23	-0.31089124
251	0xbd85ee1f	-0.065395586
252	0x3e08e3f9	0.13368215
253	0x3e0ae174	0.13562566
254	0xbec776f4	-0.38957942
255	0xbeee29d3	-0.46516284

bias f4 [64]
0	0x39d0001c	0.00039672933
1	0xbd321b0d	-0.04348283
2	0xbf13d65a	-0.5774895
3	0x3e0a98b6	0.13534817
4	0xbd37d159	-0.044877384
5	0x3ea7f408	0.3280337
6	0x3e67fde4	0.22655445
7	0x3eed0264	0.46290886
8	0xbf380082	-0.71875775
9	0xbc538e0f	-0.012912287
10	0xbc863a4e	-0.016385224
11	0xbf205762	-0.62633336
12	0xbd9857b9	-0.07438607
13	0x3d812d83	0.06307509
14	0xbede5918	-0.43427348
15	0xbe5eb8b0	-0.2175014
16	0x3e7f26d6	0.24917158
17	0xbde88c0a	-0.11354835
18	0xbe0a9125	-0.1353193
19	0x3e092963	0.13394694
20	0x3eb18d0e	0.3467793
21	0x3f2df7d8	0.67956305
22	0x3dbbf45a	0.09177466
23	0xbe4cf6e9	-0.20016064
24	0x3dc4efa0	0.09616017
25	0x3ed30486	0.4121439
26	0xbce7ce11	-0.028296502
27	0x3d20b395	0.039233763
28	0xbeb5b6dc	-0.35491073
29	0x3dd41ae2	0.1035669
30	0xbbf3c676	-0.00743943
31	0x3dcc5382	0.09976865
32	0xbdaae3da	-0.083442405
33	0x3e009194	0.12555534
34	0x3da4c05b	0.080445014
35	0x3d7053e2	0.058673747
36	0xbe22d184	-0.15900236
37	0x3edf3c3d	0.43600646
38	0xbf18b284	-0.59647393
39	0x3bdedff5	0.0068016
40	0x3cbe1653	0.023204004
41	0xbf1cd6a5	-0.6126502
42	0x3ec70f61	0.3887892
43	0xbebde529	-0.37088898
44	0x3d50d07d	0.05098008
45	0x3df78fa3	0.120879434
46	0xbdb68c74	-0.08913508
47	0x3ebc3a93	0.3676344
48	0x3d32a80c	0.043617293
49	0xbd995972	-0.074877635
50	0xbc29cc4c	-0.01036365
51	0x3dcd88a5	0.100358285
52	0xbf06cd29	-0.526568
53	0xbc79b724	-0.015241418
54	0x3f09b66e	0.5379399
55	0xbe53c4c3	-0.20680527
56	0x3d0e7809	0.034782443
57	0x3e06b817	0.13156162
58	0x3d450674	0.048101857
59	0x3d428a7c	0.04749535
60	0xbce068c3	-0.027393704
61	0xbe181bf6	-0.14854416
62	0xbd2759b4	-0.040857032
63	0xbe8b7525	-0.27237812

weight f4 [64, 64]
0	0x3a81a3af	0.00098907
1	0x3d54351c	0.05180846
2	0x3dad1ac1	0.084523685
3	0xbbeaa219	-0.007160437
4	0xbe8e16bd	-0.27751723
5	0x3de2f5bc	0.11082026
6	0xbe8044f9	-0.25052622
7	0x3d5aff72	0.053466268
8	0xbe5a4e62	-0.21318963
9	0x3d728f3e	0.059218638
10	0x3bec04fc	0.0072027426
11	0x3ea9decd	0.33177796
12	0xbd14e74c	-0.036353394
13	0x3c4bce68	0.012439348
14	0xbe881056	-0.26574963
15	0x3e8116b6	0.2521264
16	0x3d846655	0.06464831
17	0x3d011f83	0.031524193
18	0x3d10d9b9	0.035363887
19	0xbe44f9d6	-0.1923593
20	0x3e1300a4	0.14355713
21	0x3e878069	0.26465157
22	0x3d473f80	0.048644543
23	0xbe89fa88	-0.26948953
24	0x3e2af3ab	0.16694514
25	0xbf1543dc	-0.5830667
26	0x3e2d7024	0.1693731
27	0xba1061de	-0.00055077474
28	0xbe16c26b	-0.14722602
29	0xbd84f263	-0.06491544
30	0x3d1fb6f8	0.038992852
31	0x3ce3f9f5	0.02782915
32	0xbe220f84	-0.15826231
33	0xbd81c7dc	-0.06336948
34	0x3d1ff9cc	0.039056584
35	0xbcbff141	-0.023430469
36	0x3ccefc6e	0.025266852
37	0x3e8a928b	0.27064928
38	0xbda4b038	-0.080414236
39	0x3c943261	0.018090429
40	0x3cb4b015	0.022056619
41	0xbeb9622c	-0.36207712
42	0x3db06b29	0.08614189
43	0x3da0dfec	0.0785521
44	0x3c9439c5	0.018093953
45	0x3e633469	0.22187962
46	0xbd2bfbd6	-0.041988216
47	0x3ef16d69	0.47153786
48	0xbb597006	-0.0033178343
49	0xbd5d6247	-0.054048803
50	0x3d175dac	0.036954567
51	0x3cb27f7e	0.021789309
52	0xbe76648a	-0.2406179
53	0xbcec9682	-0.028880361
54	0x3d437726	0.04772105
55	0xbdb2e8b3	-0.0873579
56	0xbd1c5ae8	-0.038172632
57	0x3ee0ade9	0.43882683
58	0x3d65725c	0.056017265
59	0x3d8479bc	0.064685315
60	0x3e75e78a	0.24014106
61	0x3d646296	0.05575808
62	0x3db8b596	0.0901901
63	0xbdb4325a	-0.08798666
64	0x3d8f9dcf	0.070125215
65	0x3d4706a2	0.04859031
66	0x3e856805	0.26055923
67	0xbd97f704	-0.07420161
68	0xbd8cb5a7	-0.06870585
69	0xbda2e133	-0.079531096
70	0x3c4db25e	0.012554733
71	0x3cd1ee52	0.025626335
72	0x3eb45c1b	0.3522652
73	0x3d371dd5	0.044706184
74	0xb904a94e	-0.00012651572
75	0x3e47161d	0.1944203
76	0xbc87ffad	-0.016601408
77	0xbd14c899	-0.036324117
78	0xbd14e98c	-0.03635554
79	0x3d2cacf6	0.042157136
80	0x3c08bab6	0.008345297
81	0x3d8ccf85	0.06875519
82	0x3dd9e924	0.10640171
83	0xbde4acef	-0.11165797
84	0xbe37fd8d	-0.17967816
85	0x3e8ed27d	0.27894965
86	0xbdc2b39b	-0.09506913
87	0xbe3aeaea	-0.18253675
88	0xbe333b50	-0.17503095
89	0x3f0813eb	0.5315539
90	0x3e76a702	0.24087146
91	0x3bdfa71a	0.00682534
92	0x3dfee9ab	0.124469124
93	0xbcffe0d0	-0.031235129
94	0xbdc57984	-0.09642318
95	0xbd6d7e57	-0.057981815
96	0x3de334be	0.11094044
97	0x3dc33195	0.095309414
98	0x3dc7820c	0.09741601
99	0xbb210db7	-0.0024574825
100	0x3d5e989f	0.05434477
101	0xbd846ccd	-0.064660646
102	0xbe117c98	-0.14207685
103	0xbca87871	-0.020565243
104	0xbb368e01	-0.0027855637
105	0x3f13d913	0.57753104
106	0x3da97741	0.08274699
107	0x3e4ca079	0.1998309
108	0x3bbdebc1	0.0057959263
109	0xbd978733	-0.07398834
110	0x3c80e2bc	0.015733115
111	0xbe7b7f66	-0.24560317
112	0x3d8913fb	0.06693264
113	0xbce7024d	-0.02819934
114	0x3c818c12	0.015813861
115	0xbdc9bd66	-0.09850578
116	0x3ec2d54c	0.38053358
117	0x3c8f5ee7	0.017501308
118	0x3e95ec36	0.29281777
119	0x3e5c1885	0.21493728
120	0xbe0eb668	-0.1393677
121	0xbe9922a6	-0.29909247
122	0x3c865266	0.016396713
123	0x3dfcf0e5	0.123506345
124	0xbe20ff5f	-0.15722416
125	0x3cb3fed0	0.02197209
126	0x3d81efcb	0.06344565
127	0x3d05a4a8	0.03262773
128	0xbd262f80	-0.040572643
129	0x3cad9ca5	0.021192858
130	0xbd8750a7	-0.0660718
131	0xbdd03cec	-0.1016787
132	0xbdd6dfdb	-0.10491916
133	0x3c6c9501	0.014439822
134	0xbd928a91	-0.07155336
135	0xbc804cd7	-0.01566164
136	0xbe7b29b3	-0.24527626
137	0xbd86bd85	-0.06579117
138	0xbdbec4cf	-0.09314882
139	0xbe282262	-0.16419366
140	0xbc73d90d	-0.014883292
141	0xbd93fbdf	-0.07225775
142	0xbd391805	-0.045188922
143	0xbdaf2494	-0.085518986
144	0xbda13939	-0.078722425
145	0x3d0c91c1	0.03431869
146	0x3cf7c618	0.030245826
147	0x3efbb5ce	0.49162143
148	0x3c59e639	0.013299518
149	0x3dcffbe4	0.10155466
150	0xbd3e2639	-0.04642317
151	0x3d5e95b8	0.054342
152	0xbe1134e3	-0.14180331
153	0xbf8bd2be	-1.0923688
154	0xbe181f23	-0.14855628
155	0xbd5af08a	-0.053452052
156	0xbe028586	-0.12746248
157	0x3d9473ec	0.07248673
158	0x3c91d885	0.01780344
159	0xbc41ee85	-0.011836653
160	0xbd2e21be	-0.042512648
161	0x3d4c39ff	0.049859997
162	0xbed1d6d2	-0.40984207
163	0xbd448831	-0.047981445
164	0xb8f44b61	-0.00011648867
165	0xbd881461	-0.06644512
166	0x3e793eea	0.24340406
167	0xbd4ab405	-0.049488086
168	0xbe23ca07	-0.15995036
169	0x3da53be1	0.080680616
170	0xbe53f11b	-0.20697443
171	0x3dfa32ff	0.12216758
172	0xbcaa110a	-0.020760078
173	0xbe2ef9bc	-0.17087454
174	0x3d8c9034	0.06863442
175	0x3da26641	0.0792966
176	0x3e03357f	0.12813376
177	0xbbbae51f	-0.005703583
178	0x3d2dd287	0.042437103
179	0x3cfcb6ab	0.030848822
180	0x3e0e32ae	0.1388652
181	0xbcb2629e	-0.02177554
182	0xbe2a6e88	-0.16643727
183	0x3d83c5a4	0.06434181
184	0xbe511853	-0.20419435
185	0xbead0dd8	-0.33799624
186	0xbd894db5	-0.067042746
187	0x3d5f6dbc	0.05454801
188	0x3e2b8906	0.16751489
189	0x3e221ee1	0.15832092
190	0x3d4f38c4	0.050591245
191	0x3d798f6e	0.0609278
192	0xbc0e9ba9	-0.008704104
193	0xbc8dcc4e	-0.017309334
194	0xbe6baa7f	-0.23014258
195	0x3c45d685	0.012075071
196	0x3e299534	0.16560823
197	0xbe2d9433	-0.16951065
198	0x3e15096a	0.14554372
199	0xbd6a70b4	-0.05723639
200	0xbdb9641d	-0.09052298
201	0x3e2f7481	0.17134286
202	0x3cd42027	0.025894238
203	0xbe05f480	-0.1308155
204	0xbd3ad0fc	-0.04560946
205	0xbca117e0	-0.019664705
206	0xbe748ddc	-0.2388224
207	0x3e963ce7	0.2934334
208	0xbcc240cb	-0.023712536
209	0xbcbc9284	-0.023019083
210	0xbd94f113	-0.07272544
211	0xbe2e8a9b	-0.17045061
212	0xbe27cc43	-0.16386513
213	0xbd9d35c7	-0.07676273
214	0x3e433fa8	0.19067252
215	0x3d3931fa	0.045213677
216	0x3de9bbbb	0.1141276
217	0x3f070db8	0.5275531
218	0xbe0ae033	-0.13562088
219	0xbe0a7b32	-0.13523558
220	0x3ccb036b	0.024781903
221	0xbed2e0a5	-0.41187015
222	0xbe3dc9d1	-0.18534018
223	0x3c136413	0.0089960275
224	0xbe21f0dd	-0.15814538
225	0xbd50fd17	-0.051022615
226	0x3df588af	0.11988961
227	0xbd8dc4c4	-0.06922296
228	0x3bff88e6	0.007798302
229	0xbe2ddea6	-0.16979465
230	0xbd473f02	-0.048644073
231	0x3e6a3c9a	0.2287468
232	0xbdafbdf1	-0.0858115
233	0x3dadc5f8	0.08485025
234	0xbf087d02	-0.53315747
235	0xbcd395e7	-0.025828315
236	0xbe153ccc	-0.14573973
237	0x3db0dd73	0.08635988
238	0x3b187631	0.0023263807
239	0xbe7cc18c	-0.24683207
240	0x3da075ec	0.07834992
241	0xbd0e62fc	-0.034762368
242	0x3c68a446	0.014199322
243	0x3c72cde9	0.014819601
244	0x3ea02fff	0.31286618
245	0xbe33c7e4	-0.17556721
246	0x3bee1799	0.0072659967
247	0x3c0a0c7c	0.008425828
248	0x3e8208c7	0.25397322
249	0x3dba8e09	0.09109122
250	0xbc92fac2	-0.017941836
251	0xbdb17a22	-0.08665873
252	0xbc689d16	-0.014197608
253	0xbdaec509	-0.08533675
254	0xbdc8e484	-0.09809211
255	0xbe8ce981	-0.275219

bias f4 [64]
0	0xbdd9c314	-0.10632911
1	0x3d2dadd8	0.04240212
2	0xbda3ce55	-0.07998339
3	0x3e3b7f1a	0.18310204
4	0x3e184e5b	0.1487364
5	0xbdfcbf33	-0.12341156
6	0x3dfa5d26	0.12224798
7	0xbf037939	-0.51356846
8	0xbe108484	-0.1411305
9	0x3e420534	0.18947297
10	0xbe3c03b7	-0.18360792
11	0x3e5c9365	0.21540602
12	0x3eb19a18	0.34687877
13	0xbe2c9607	-0.16854106
14	0x3e05e0cc	0.13074034
15	0xbe1ecf83	-0.15508847
16	0xbd91239e	-0.070868716
17	0x3d89a4a0	0.06720853
18	0xbd40668d	-0.0469728
19	0x3b8383db	0.004013521
20	0x3dca8aec	0.098897785
21	0x3d7d29b5	0.061807353
22	0x3e17cbf7	0.148239
23	0x3e9e2130	0.30884695
24	0xbe009ead	-0.1256053
25	0x3e2fce41	0.17168523
26	0xbeb31117	-0.34973976
27	0xbd2f7297	-0.04283389
28	0x3e149f50	0.14513898
29	0xbe09cc7a	-0.13456908
30	0xbcb9259b	-0.02260094
31	0xbd60c061	-0.054870967
32	0xbda83926	-0.08214025
33	0x3e923c58	0.28561664
34	0x3c75e5ad	0.015008372
35	0x3e20cf09	0.15703978
36	0x3e085e35	0.13317187
37	0xbdf61404	-0.120155364
38	0x3cd18252	0.025574837
39	0x3ca13732	0.01967964
40	0xbe88c8f2	-0.2671581
41	0xbe88d449	-0.2672446
42	0x3e12f061	0.1434951
43	0x3ea46333	0.32106933
44	0x3e12c4fa	0.14332953
45	0x3e450a74	0.19242269
46	0xbec73436	-0.3890702
47	0x3da888f6	0.08229248
48	0x3e8cfeb9	0.27538088
49	0x3d4a5716	0.049399458
50	0xbdc5e1d1	-0.09662212
51	0x3f07e733	0.53087157
52	0x3e3d295a	0.18472806
53	0x3d96b697	0.07359045
54	0x3e9c902e	0.3057875
55	0x3e2b357d	0.16719623
56	0x3e91b1b0	0.28455877
57	0xbe0f1a7e	-0.1397495
58	0xbcfcf2c7	-0.030877484
59	0xbe2145eb	-0.15749328
60	0xbe62b418	-0.22139013
61	0xbda5c6b2	-0.08094539
62	0xbe580897	-0.21097027
63	0x3da53479	0.08066649

weight f4 [64, 64]
0	0xbe90bcae	-0.2826895
1	0x3f4bf875	0.7967599
2	0xbf2ed86f	-0.68299
3	0x3dfe1e82	0.12408163
4	0x3d890c86	0.06691842
5	0x3d389ac7	0.045069482
6	0x3e6f2ab6	0.23356137
7	0x3fbf20f0	1.4931927
8	0xbe7cf6e7	-0.24703561
9	0xbe674f2a	-0.22588792
10	0x3f2690ee	0.65064895
11	0xbf704c9f	-0.93866915
12	0xbd7c65c4	-0.06162049
13	0x3fdad21f	1.7095374
14	0xbf4453fc	-0.7669065
15	0xbe72c29f	-0.23707055
16	0xbeb44f4e	-0.35216755
17	0xbd846c18	-0.0646593
18	0x3ba386fa	0.0049904557
19	0xbc87cd9e	-0.016577538
20	0x3e4fa5e8	0.20278132
21	0x3e52c50f	0.20582984
22	0x3eac4a43	0.33650407
23	0x3c50dbfe	0.012747763
24	0x3ec86d9f	0.39146134
25	0x3e3e2ec1	0.18572523
26	0x3f55d4dc	0.8352792
27	0x3d879203	0.066196464
28	0xbdeaab05	-0.11458401
29	0x3d1e02b1	0.038576785
30	0xbe75e306	-0.24012384
31	0x3f53d5d7	0.8274817
32	0xbe91fbe7	-0.285125
33	0xbd88e2e7	-0.06683903
34	0x3f2f0d3f	0.68379587
35	0x3eb506db	0.35356793
36	0xbdcd3f45	-0.10021833
37	0xbdfe6633	-0.12421837
38	0x3e8e15e8	0.27751088
39	0xbdf556ab	-0.11979421
40	0xbedb8156	-0.42872113
41	0xbedf2a3d	-0.43586913
42	0x3f11002e	0.566409
43	0x3f35edcc	0.71065974
44	0xbe9d13af	-0.3067908
45	0x3da6dc08	0.081474364
46	0xbf98156c	-1.1881537
47	0x3e03041d	0.12794538
48	0xbea31093	-0.31848583
49	0xbe26ff1a	-0.16308251
50	0xbe529032	-0.20562819
51	0xbf2a8244	-0.6660502
52	0x3f537909	0.8260656
53	0x3efd8fa4	0.49523652
54	0xbeb1e77a	-0.34746915
55	0xbea5c4af	-0.3237662
56	0x3b85006c	0.004058888
57	0xbdb9f408	-0.090797484
58	0x3f3a6096	0.7280363
59	0x3f105b65	0.56389457
60	0xbeed57f3	-0.46356162
61	0xbe69b891	-0.22824313
62	0x3d550488	0.052006274
63	0x3e692114	0.22766525
64	0x3f5eb095	0.8698819
65	0x3d87d1c2	0.06631805
66	0x3ea1dabd	0.31612197
67	0xbdbf6675	-0.09345714
68	0x3e244dc9	0.16045298
69	0xbe2f6e0e	-0.17131826
70	0xbc35a263	-0.011086079
71	0xbeb9d6c8	-0.36296678
72	0x3e0c56b1	0.13704945
73	0x3e896def	0.26841685
74	0xbf122c37	-0.57098716
75	0xbedc39fd	-0.43012992
76	0xbf38f80a	-0.7225348
77	0x3e932d7c	0.2874564
78	0xbdc8749d	-0.09787867
79	0x3fa1dbc2	1.264519
80	0x3f29b520	0.66292
81	0xbe8ed6dd	-0.27898303
82	0x3e02c446	0.12770185
83	0x3f12e919	0.5738693
84	0xbe9ca403	-0.3059388
85	0xbe1f2295	-0.15540536
86	0xbe35fe8f	-0.17772888
87	0xbe8e4c6a	-0.27792674
88	0xbce0c88a	-0.027439374
89	0x3af96579	0.0019027434
90	0xbd0e3c93	-0.034725737
91	0xbe1c6afc	-0.15275186
92	0xbf01653f	-0.50545114
93	0x3e4e425a	0.20142499
94	0x3ecf8ba2	0.4053622
95	0xbf0cc222	-0.54983723
96	0x3dcd51e7	0.10025387
97	0x3ce3a01e	0.02778631
98	0xbf842930	-1.032507
99	0xbf97153d	-1.1803356
100	0xbe39810f	-0.18115638
101	0x3e801f12	0.25023705
102	0xbeb8fc3f	-0.36129948
103	0x3eaaefd6	0.33386105
104	0x3ed6a946	0.4192602
105	0xbf2a06d8	-0.6641669
106	0xbe91fbc5	-0.28512397
107	0x3f1c7e5f	0.61130327
108	0xbe96a0fb	-0.29419693
109	0x3e830c21	0.2559519
110	0xbe970fe4	-0.2950431
111	0xbe17eb02	-0.14835742
112	0xbe836191	-0.25660375
113	0xbd3756aa	-0.044760384
114	0xbf1f9766	-0.6234039
115	0x3f502ac9	0.81315285
116	0xbf12dd27	-0.573687
117	0xbe213c60	-0.15745687
118	0xbf13481d	-0.5753191
119	0xbe7c8d22	-0.24663213
120	0xbe05bfc3	-0.13061433
121	0x3bd34046	0.006446871
122	0xbe06ae76	-0.13152489
123	0x3f24cfca	0.6437956
124	0xbf39d41a	-0.72589266
125	0xbe88c13b	-0.26709923
126	0x3f109e52	0.5649158
127	0xbebf9f76	-0.37426347
128	0x3e3c8954	0.18411762
129	0xbd7ef6ac	-0.062246963
130	0xbe833afe	-0.25630945
131	0x3df6e96d	0.12056241
132	0x3e7fdd84	0.24986845
133	0xbe658575	-0.22414191
134	0x3e4250c3	0.1897612
135	0xbeca27cc	-0.39483488
136	0xbe3e4928	-0.18582594
137	0x3cc90a6e	0.024541106
138	0x3e08454b	0.13307683
139	0xbe7fe194	-0.24988395
140	0x3d2a8ead	0.041639972
141	0x3e9e2e35	0.30894628
142	0x3d74c16c	0.059754774
143	0x3de68591	0.112559445
144	0x3e604b97	0.21903835
145	0x3decb11d	0.11557219
146	0xbe20dbaa	-0.15708795
147	0xbe3d575d	-0.18490358
148	0xbe330267	-0.17481385
149	0x3e2ac013	0.16674833
150	0x3e7a8e4d	0.24468346
151	0x3e055461	0.13020469
152	0x3dba2f5d	0.09091065
153	0x3d475b38	0.048670977
154	0x3e604e5e	0.21904895
155	0x3d70c1a9	0.05877844
156	0x3d165d21	0.03670991
157	0xbe2008ca	-0.15628353
158	0x3d6d7300	0.057971
159	0x3c8d070b	0.017215272
160	0xbc04ce9d	-0.008105901
161	0xbe0f6d70	-0.14006591
162	0xbebabd71	-0.36472657
163	0x3efdb7a9	0.49554184
164	0x3eb35114	0.35022795
165	0xbdde937a	-0.10867973
166	0xbdb76839	-0.08955426
167	0xbe20c22f	-0.15699075
168	0xbc96c4d7	-0.018404407
169	0x3e0ae1ca	0.13562694
170	0xbe424526	-0.1897169
171	0x3e22c3fb	0.15895073
172	0xbd82dea0	-0.063901186
173	0xbdd9f16c	-0.10641751
174	0x3e8fe8aa	0.28107196
175	0x3dbc03a0	0.09180379
176	0xbe6f214e	-0.23352548
177	0x3e0e986e	0.13925335
178	0x3f354ee7	0.7082352
179	0x3dea0eb8	0.11428589
180	0xbd30deb6	-0.043181144
181	0xbda8f443	-0.08249714
182	0x3e464f21	0.19366123
183	0x3e48b6ab	0.19600932
184	0x3d271db1	0.0407998
185	0x3de54124	0.11194065
186	0x3cc23add	0.023709709
187	0xbd8fc6c3	-0.07020333
188	0x3e710747	0.23537932
189	0xbcd06be7	-0.025442077
190	0xbd9e0d56	-0.077173874
191	0x3dfdec18	0.12398547
192	0x3e104a75	0.14090903
193	0xbeea93a1	-0.45815757
194	0xbe1228c8	-0.1427337
195	0xbe085169	-0.13312306
196	0xbd1e7c3f	-0.03869271
197	0x3e8bc197	0.27296135
198	0x3d8957dc	0.06706211
199	0x3f204e82	0.62619793
200	0xbcbfe8a6	-0.023426365
201	0x3d07c52a	0.033147015
202	0xbeca8a7d	-0.39558783
203	0x3d37c744	0.04486777
204	0xbe8206a8	-0.25395703
205	0xbde42a62	-0.111408964
206	0x3ea5d25c	0.32387054
207	0x3ea3f5f2	0.3202358
208	0x3e1510f7	0.14557253
209	0x3ef67b50	0.48140955
210	0x3d900716	0.070326015
211	0xbe527d9d	-0.2055573
212	0x3ce1732e	0.027520742
213	0x3db3ad36	0.08773272
214	0xbd77f698	-0.060537905
215	0xbe001792	-0.12508991
216	0x3d6b2675	0.057409722
217	0x3ca7a76f	0.02046558
218	0xbe9a63bb	-0.30154213
219	0x3d7067d0	0.058692753
220	0xbe0ba661	-0.13637687
221	0x3c3a8e79	0.011386507
222	0xbd87cc77	-0.066307954
223	0xbe047ba2	-0.12937787
224	0x3e85d91f	0.26142213
225	0xbc870500	-0.016481876
226	0xbe121d21	-0.14268924
227	0x3e0b57fa	0.13607779
228	0xbe6d6eaf	-0.23186754
229	0x3e094683	0.13405804
230	0x3d110bd1	0.03541166
231	0x3dc7a083	0.09747412
232	0xbe0dad03	-0.1383553
233	0xbd2218f9	-0.039574597
234	0xbe1b114d	-0.15143318
235	0x3e3c0069	0.18359531
236	0x3d6ffb89	0.058589492
237	0xbeadafeb	-0.33923277
238	0x3edcd393	0.43130168
239	0x3e0d4f80	0.13799858
240	0x3d9ed5e9	0.07755644
241	0x3d822521	0.06354738
242	0xbe438510	-0.19093728
243	0xbd377c96	-0.04479655
244	0xbde65e7d	-0.11248491
245	0xbe304d8b	-0.1721708
246	0x3d718420	0.058963895
247	0x3dda736f	0.106665485
248	0x3dfe1b03	0.12407496
249	0x3e5de866	0.21670684
250	0x3db20a0a	0.08693321
251	0xbe7fda86	-0.24985704
252	0x3dd15b70	0.102225184
253	0x3e297084	0.16546828
254	0x3e745bed	0.23863192
255	0xbe0e9177	-0.13922678

bias f4 [64]
0	0xbf66f21e	-0.9021319
1	0x3d95e6ac	0.07319388
2	0xbd9520a4	-0.07281616
3	0xbe11e094	-0.14245826
4	0xbf3d22f2	-0.7388145
5	0x3ddd9961	0.1082027
6	0x3e1c0b32	0.15238646
7	0xbeff2a6a	-0.49837047
8	0x3e0b3a29	0.13596405
9	0xbd321749	-0.043479238
10	0x3dbd9ec1	0.092587955
11	0x3e896cae	0.2684073
12	0x3f4ddb49	0.8041273
13	0xbe0c56ad	-0.13704939
14	0x3e9c16a9	0.30486038
15	0x3e61ab5b	0.22038023
16	0x3e6f62aa	0.23377481
17	0xbc072eb9	-0.008250886
18	0x3e1275f6	0.14302811
19	0x3f10e98b	0.5660636
20	0x3eccf173	0.4002796
21	0x3e252782	0.16128352
22	0x3c01d01e	0.007923154
23	0x3f450449	0.76959664
24	0xbf323fc5	-0.69628555
25	0x3e1791af	0.14801668
26	0xbea48a94	-0.32136977
27	0x3ecc04e2	0.39847475
28	0xbe06688f	-0.13125823
29	0x3c956403	0.018236166
30	0x3e50b439	0.2038125
31	0x3ee173f4	0.44033778
32	0x3d10f26a	0.035387434
33	0x3d2d75a7	0.04234853
34	0xbd45d1ed	-0.048295904
35	0xbdb18631	-0.08668173
36	0x3eb32f57	0.34997055
37	0xbd229992	-0.039697237
38	0x3dfdde06	0.12395863
39	0xbe98ad0c	-0.29819524
40	0x3ed3ec42	0.41391188
41	0xbd150c76	-0.036388837
42	0xbdba4134	-0.09094468
43	0xbdcd80a0	-0.10034299
44	0xbdc9f7f5	-0.09861747
45	0x3e03d0da	0.1287264
46	0x3ebd6686	0.36992282
47	0xbd9c7fb3	-0.07641544
48	0x3d487cfc	0.04894732
49	0xbf02a078	-0.51026106
50	0xbcb323b5	-0.021867612
51	0x3eb2619b	0.34840092
52	0x3ea70e32	0.32628018
53	0x3da54134	0.08069077
54	0xbe83f393	-0.2577177
55	0x3e47fc98	0.1952995
56	0x3d87f8f8	0.06639284
57	0x3e9141d3	0.28370532
58	0xbb8ce9ee	-0.0043003475
59	0xbd904253	-0.070439
60	0xbf0313fc	-0.5120237
61	0xbda173d6	-0.07883422
62	0xbef822d4	-0.48464072
63	0x3e63761b	0.22213022

weight f4 [64, 40]
0	0xbe3a2b3b	-0.18180554
1	0x3ed02cb1	0.40659097
2	0x3e305339	0.17219247
3	0x3e8e59bc	0.27802837
4	0x3dc54be8	0.096336186
5	0x3f456af1	0.77116305
6	0xbdb2eef7	-0.08736985
7	0x3e28aae8	0.16471446
8	0x3eaee5ad	0.34159604
9	0x3e4b9ffc	0.19885248
10	0x3c97d32e	0.018533316
11	0x3c9794da	0.018503595
12	0x3d82e7f8	0.06391901
13	0xbe3c970a	-0.18416992
14	0x3e8ab57b	0.27091584
15	0x3deba65b	0.11506339
16	0xbdb3f327	-0.08786612
17	0xbcf86036	-0.030319314
18	0x3c9c6cdb	0.019094875
19	0x3e2e2bcf	0.17008899
20	0x3e88fc05	0.26754776
21	0xbe20904b	-0.15680043
22	0xbe7166dc	-0.23574394
23	0x3d8ea609	0.069652624
24	0x3da5b244	0.08090642
25	0x3e3c78d6	0.1840547
26	0x3e18aa55	0.14908727
27	0x3e4245e3	0.18971972
28	0x3ed2970f	0.41130874
29	0xbddd04e3	-0.10791948
30	0x3d92c128	0.07165748
31	0x3ea43f32	0.32079464
32	0xbeb7098f	-0.3574948
33	0xbd13cbc0	-0.036082983
34	0x3e4ad80f	0.19808982
35	0x3e7f3dd1	0.24925925
36	0xbf051cc4	-0.5199702
37	0x3d07d231	0.03315944
38	0xbd2b44fd	-0.04181384
39	0xbd6d1386	-0.057879947
40	0xbe5a69c5	-0.2132941
41	0x3dde91ca	0.10867651
42	0xbe9b6459	-0.30349997
43	0x3e1b35d9	0.1515726
44	0x3dfcf84f	0.123520486
45	0xbe8afd7b	-0.27146515
46	0xbdb777ae	-0.08958374
47	0xbe88e742	-0.26738936
48	0xbf1c656a	-0.61092246
49	0xbe66e3f0	-0.22547889
50	0x3e443ca1	0.19163753
51	0x3d15fa1a	0.03661547
52	0xbe34b3e3	-0.17646746
53	0x3e5e5421	0.2171178
54	0xbe833dc3	-0.25633058
55	0xbe8833c4	-0.26601994
56	0x3bfe71e4	0.0077650417
57	0x3df0b409	0.11753089
58	0x3e133a26	0.1437765
59	0xbdb002da	-0.08594294
60	0x3e85c42a	0.26126224
61	0xbd321999	-0.043481443
62	0x3da9f0a4	0.08297852
63	0x3e424b7b	0.18974106
64	0x3ca4d50f	0.020121126
65	0xbd6c2ea5	-0.05766167
66	0xbe3f5515	-0.186848
67	0x3d5059e4	0.050866976
68	0x3df1bf08	0.118040144
69	0x3ed79977	0.42109272
70	0x3d9f943e	0.07791947
71	0xbc8a06e8	-0.016848996
72	0xbcb4da4b	-0.022076746
73	0x3d13bd72	0.03606934
74	0xbe0b7672	-0.13619402
75	0xbd87b081	-0.06625462
76	0xbe7836b9	-0.24239625
77	0xbe0b31e4	-0.1359325
78	0x3db2be1f	0.08727669
79	0x3d654aef	0.055979665
80	0x3ec719fb	0.3888701
81	0x3c170505	0.009217505
82	0xbd09a947	-0.0336087
83	0xbe1c4292	-0.1525977
84	0x3df2b3f4	0.118507296
85	0x3ebfea14	0.37483275
86	0x3e7bdbf2	0.24595621
87	0x3f274542	0.65340054
88	0x3f116cfc	0.5680692
89	0x3f21d2a5	0.63212043
90	0x3df31f47	0.118712
91	0x3e21178a	0.15731636
92	0x3e103c97	0.14085613
93	0x3dc45c7b	0.09587952
94	0x3f6858af	0.9076032
95	0x3f6a8ff4	0.91625905
96	0xbc87ca23	-0.016575878
97	0x3ebbd23e	0.3668384
98	0x3dc164d1	0.09443057
99	0xbe016bda	-0.12638798
100	0xbe19947c	-0.14998049
101	0x3dc2c9c7	0.09511142
102	0xbc24833d	-0.010041055
103	0x3e651619	0.22371711
104	0xbe04bd1f	-0.12962769
105	0xbebb3af0	-0.36568403
106	0x3e149d9a	0.14513245
107	0xbe65a59c	-0.22426456
108	0x3e6738ff	0.22580336
109	0xbd269351	-0.040667836
110	0x3d9854d6	0.07438056
111	0xbd629131	-0.055314247
112	0xbe884aee	-0.26619667
113	0x3debd540	0.115152836
114	0xbe8018ea	-0.25019008
115	0xbeaf7351	-0.34267667
116	0xbe2ca397	-0.1685928
117	0x3d8ba22f	0.068180434
118	0x3d9a0404	0.07520297
119	0xbd01bf95	-0.031676847
120	0x3e3ede0e	0.18639395
121	0xbe232151	-0.15930678
122	0x3e5d4766	0.21609268
123	0x3d9d68b5	0.07685987
124	0x3dbecf24	0.09316853
125	0xbe1ab875	-0.15109427
126	0x3ec27e25	0.37986866
127	0xbe5e1944	-0.21689326
128	0xbf110c4c	-0.5665939
129	0xbe4309d2	-0.19046715
130	0xbc603de7	-0.013686634
131	0x3d41cce5	0.047314543
132	0x3e9ea98b	0.30988726
133	0xbe014cb6	-0.12626919
134	0xbe568643	-0.20949654
135	0xbe988bef	-0.2979426
136	0x3ea9480a	0.33062774
137	0xbea0bbb8	-0.31393218
138	0x3d7f39ff	0.06231117
139	0xbd800504	-0.06250957
140	0x3e86cd09	0.26328304
141	0xbe28e59f	-0.16493843
142	0x3d896261	0.067082174
143	0xbdbf93fd	-0.093543984
144	0xbe10002e	-0.14062569
145	0xbdc4b09e	-0.096039996
146	0xbe68ef3e	-0.22747514
147	0x3e802aba	0.25032598
148	0x3e66a6fa	0.22524634
149	0xbd31b2e1	-0.043383483
150	0xbdd09308	-0.10184294
151	0x3e77496c	0.24149102
152	0xbdd564d3	-0.10419621
153	0x3de09edc	0.109678
154	0x3e1d3603	0.15352635
155	0x3eed78e2	0.4638129
156	0xbe063fc1	-0.13110258
157	0xbe2d6195	-0.16931756
158	0xbe217b1b	-0.15769617
159	0x3ebe51e5	0.37171856
160	0xbe66af6e	-0.22527859
161	0x3e57f9fd	0.21091457
162	0x3e55d538	0.20882118
163	0xbd308b1e	-0.043101422
164	0xbe58e342	-0.21180442
165	0x3cfeb895	0.031093875
166	0x3e689484	0.22712904
167	0xbebfa829	-0.37432984
168	0xbb3fcfd7	-0.002926817
169	0x3d9dcc39	0.07704968
170	0xbe8f62aa	-0.28004962
171	0x3ea00098	0.31250453
172	0xbe014d83	-0.12627225
173	0xbdcb2c9b	-0.09920617
174	0xbd3768cf	-0.044777688
175	0xbeb93be5	-0.36178508
176	0x3eac035c	0.33596313
177	0xbd3feee6	-0.04685869
178	0xbe427ea3	-0.1899362
179	0xbd534c8f	-0.051586684
180	0xbd8fc2a9	-0.0701955
181	0xbe6a7b43	-0.22898583
182	0x3e9581dc	0.29200637
183	0x3d06bd29	0.03289524
184	0x3d7d667b	0.06186531
185	0xbdd33b9b	-0.10314103
186	0xbe790b12	-0.24320629
187	0x3eeb962c	0.4601301
188	0xbf1d69bf	-0.6148948
189	0x3ebd35c6	0.36955088
190	0x3e95d815	0.2926642
191	0x3e56bbe9	0.2097012
192	0x3de23689	0.11045558
193	0xbe4991aa	-0.19684473
194	0xbed8623d	-0.4226245
195	0xbd8202cc	-0.0634819
196	0xbc342103	-0.010994199
197	0x3b84a38d	0.004047817
198	0x3e977436	0.2958085
199	0x3c33a1bb	0.0109638525
200	0xbd1d4118	-0.038392156
201	0xbb4e3139	-0.0031462444
202	0xbe14a659	-0.14516582
203	0xbd8576db	-0.065168105
204	0x3e5394b6	0.20662197
205	0x3d1b007b	0.037842255
206	0xbdc52318	-0.09625834
207	0x3db8f057	0.09030216
208	0x3dca2cb0	0.09871805
209	0x3e53b699	0.20675124
210	0xbe942bd8	-0.289397
211	0xbe29c57f	-0.16579245
212	0x3d81ab09	0.063314505
213	0xbd9277cd	-0.071517564
214	0x3e543dfb	0.20726769
215	0x3e08bcae	0.13353226
216	0xbe7457a8	-0.23861563
217	0xbe21964f	-0.15779994
218	0x3d993c93	0.07482257
219	0xbd6d7108	-0.057969123
220	0x3d5ffde8	0.054685503
221	0x3c7c6338	0.015404515
222	0xbc36a5aa	-0.011147896
223	0x3e959444	0.2921468
224	0xbe66ac7a	-0.22526732
225	0x3d9159f2	0.07097234
226	0xbf27f4ca	-0.65607893
227	0xbdf03408	-0.11728674
228	0xbeafdb58	-0.34347034
229	0xbd3dd41a	-0.046344854
230	0xbd82a7a3	-0.063796304
231	0x3dbd39ad	0.092395164
232	0xbebd3c9d	-0.36960307
233	0xbc66bbef	-0.014082893
234	0xbf06201c	-0.52392745
235	0xbef22954	-0.47297156
236	0x3ea4ec5d	0.3221158
237	0xbb888181	-0.0041658287
238	0xbe1d1540	-0.15340137
239	0x3e15662f	0.14589761
240	0xbd5a4122	-0.05328477
241	0x3e187a0b	0.14890306
242	0xbda6a3e6	-0.0813673
243	0xbd7ef0d7	-0.0622414
244	0x3e091923	0.13388495
245	0x3f199c51	0.60004145
246	0xbd69bb9e	-0.05706369
247	0x3ee8204b	0.45337138
248	0x3f1e68a2	0.61878407
249	0x3e5fba79	0.21848477
250	0x3de5dcb8	0.112237394
251	0xbea24b10	-0.31697893
252	0x3e1ceadb	0.15323965
253	0x3cc5b74c	0.024135254
254	0x3f21c9e6	0.631987
255	0x3f193e37	0.5986056

bias f4 [64]
0	0xbe92aae1	-0.28645995
1	0x3f06a0e9	0.5258928
2	0xbccbdb63	-0.024884885
3	0xbeffd50f	-0.49967238
4	0x3d709972	0.058740087
5	0x3ef6348a	0.4808696
6	0xbf0b5b6c	-0.54436374
7	0xbe96bfad	-0.29443112
8	0xbe4c46f5	-0.19948943
9	0xbe4a791b	-0.1977276
10	0xbebb9152	-0.36634308
11	0x3ee928c6	0.4553892
12	0xbf22b44c	-0.6355636
13	0x3f06f90b	0.5272376
14	0x3eae0c11	0.3399358
15	0xbf2e1dd7	-0.6801428
16	0x3f054d21	0.52070814
17	0xbdcb5321	-0.09927965
18	0x3ece0066	0.4023468
19	0x3eaa5610	0.33268785
20	0xbe136dc7	-0.14397345
21	0x3eea99ff	0.45820615
22	0x3f3a95f0	0.72885036
23	0xbece3b6e	-0.40279716
24	0x3ddfd95d	0.10930131
25	0xbeb3d5d0	-0.35124063
26	0xbe25b454	-0.16182071
27	0xbf204266	-0.62601316
28	0xbf4f2906	-0.8092197
29	0x3ea67db9	0.32517794
30	0x3e0c8820	0.13723803
31	0xbf22da53	-0.63614386
32	0x3cfa07e9	0.03052135
33	0xbe89442e	-0.2680983
34	0xbf498cc1	-0.787304
35	0xbe363b3b	-0.17796032
36	0xbde89401	-0.113563545
37	0xbdeb950a	-0.11503036
38	0xbe5bb8f8	-0.21457279
39	0xbb90c3b2	-0.00441786
40	0x3ed67e66	0.4189331
41	0x3de559fa	0.11198802
42	0x3f824930	1.0178585
43	0xbe8c93df	-0.27456567
44	0x3eaacc89	0.33359173
45	0xbe39c772	-0.18142489
46	0xbeb2f28c	-0.34950674
47	0xbec97217	-0.39344856
48	0xbe943ec1	-0.28954127
49	0xbe0aa914	-0.1354106
50	0x3e01e244	0.1268397
51	0x3e5e8488	0.21730244
52	0x3f302bfb	0.6881711
53	0xbcc5f278	-0.02416347
54	0x3ea16365	0.31521145
55	0x3dd88fd6	0.105743095
56	0xbf260c9f	-0.6486301
57	0xbe99b98e	-0.3002438
58	0xbf6a6951	-0.9156695
59	0xbeb219c5	-0.34785286
60	0x3e8aaf06	0.27086657
61	0xbf47c857	-0.7804007
62	0x3f3fc242	0.7490579
63	0xbd170c48	-0.036876947

weight f4 [64, 64]
0	0xbdbdc32b	-0.09265741
1	0xbf4a1198	-0.78933096
2	0xbd90b374	-0.07065478
3	0x3dd7c7ba	0.10536142
4	0xbe8255fb	-0.25456223
5	0xbe607d39	-0.21922769
6	0x3d0df205	0.034654636
7	0x3f1a2a0b	0.602204
8	0x3f3e63ca	0.74371016
9	0x3e509250	0.20368314
10	0x3eab198a	0.33417922
11	0xbf885649	-1.0651332
12	0xbd274779	-0.040839646
13	0xbeb6d01b	-0.35705647
14	0xbfa7d9a4	-1.3113294
15	0x3f2bb1e3	0.6706831
16	0xbf0beb6b	-0.54656094
17	0x3e97e493	0.29666576
18	0xbf858070	-1.0429821
19	0xbf011721	-0.50425917
20	0x3eb2c784	0.34917843
21	0xbe9e3cac	-0.30905664
22	0xbf022f2f	-0.50853246
23	0xbeaa0ba9	-0.3321202
24	0x3ef31ddd	0.4748372
25	0xbeb330d1	-0.3499818
26	0x3eba92dd	0.36440173
27	0x3e1f0b33	0.15531616
28	0x3eea3b33	0.4574829
29	0x3df5919b	0.11990663
30	0xbf3b4f3f	-0.73167795
31	0x3e6db548	0.23213685
32	0xbe124d23	-0.14287238
33	0x3f59766a	0.8494631
34	0x3ef19bea	0.47189265
35	0x3dbf4099	0.09338493
36	0x3f686ad7	0.90788025
37	0x3f08facd	0.5350769
38	0xbeb0652c	-0.34452188
39	0xbd4bde11	-0.049772326
40	0xbea9da5b	-0.33174405
41	0x3d1688c2	0.036751516
42	0xbf40a2ca	-0.75248396
43	0x3e650cfa	0.22368231
44	0xbd4e939d	-0.050433744
45	0xbe0acfe0	-0.1355586
46	0x3f695a34	0.91153264
47	0x3f10badd	0.5653513
48	0xbca62419	-0.020280885
49	0x3d91ab2d	0.07112727
50	0xbe66bf42	-0.22533897
51	0xbe98be16	-0.29832524
52	0xbe2346e4	-0.15945011
53	0xbca733f1	-0.02041051
54	0xbf61f3f5	-0.88262874
55	0xbdc6ff11	-0.09716619
56	0x3f613e85	0.8798602
57	0x3dd4c6d9	0.1038949
58	0x3f1da3b4	0.61577916
59	0x3d879787	0.066206984
60	0x3d91c81d	0.07118247
61	0x3dfe8170	0.12427032
62	0xbea06626	-0.31327933
63	0x3e5d7ae2	0.21628907
64	0xbe7f7da6	-0.24950275
65	0x3d0a905c	0.033829078
66	0xbebcda2e	-0.36885208
67	0x3e7c64d1	0.24647833
68	0xbedcdff0	-0.431396
69	0xbf0fd8c1	-0.56190115
70	0xbe56d551	-0.20979811
71	0x3e972d5a	0.29526788
72	0x3ef2330b	0.47304568
73	0xbee8395e	-0.45356268
74	0x3ee5e0a1	0.4489794
75	0xbf3d4694	-0.7393582
76	0x3e8289ae	0.25495666
77	0xbf8bf2fc	-1.0933528
78	0xbf1b8983	-0.607567
79	0xbef2d4e9	-0.47428063
80	0x3ece8dd5	0.40342584
81	0x3db887dd	0.09010289
82	0xbebbeff9	-0.36706522
83	0xbf059c95	-0.5219205
84	0x3ee9f0fc	0.4569167
85	0xbeff1247	-0.49818632
86	0xbf150694	-0.5821316
87	0xbf0a237e	-0.53960407
88	0xbea54d2c	-0.3228544
89	0x3ee3856f	0.4443774
90	0x3ea9c3f1	0.33157304
91	0x3f4a59b3	0.7904312
92	0x3f4fbf06	0.81150854
93	0xbe9942c5	-0.29933754
94	0x3e3107fb	0.172882
95	0x3e575729	0.21029343
96	0xbe530ef1	-0.20611168
97	0x3e19b330	0.15009761
98	0x3f5845a6	0.84481275
99	0xbf134b85	-0.5753711
100	0x3e8f8791	0.28033116
101	0x3d0b50a0	0.034012437
102	0xbed9d3c0	-0.42544365
103	0x3e14a9e2	0.1451793
104	0xbdf54c44	-0.11977437
105	0x3e5f4c72	0.21806505
106	0xbf38a2b2	-0.72123253
107	0x3f0ac39f	0.54204744
108	0x3ebadfac	0.36498773
109	0x3e387e76	0.18016991
110	0x3e8f7a2a	0.2802289
111	0x3c20c61c	0.009812858
112	0x3eb46410	0.35232592
113	0xbec7f392	-0.39053017
114	0x3a3a5b24	0.0007108918
115	0x3d8579cb	0.06517371
116	0xbe98b9a9	-0.29829147
117	0x3d9cb9f1	0.07652653
118	0xbeabb3cb	-0.3353561
119	0xbeb2683f	-0.34845158
120	0x3e5d4db1	0.21611668
121	0x3b9448dc	0.004525287
122	0x3eca9d6c	0.39573228
123	0xbe9903fa	-0.29885846
124	0xbee8959f	-0.45426652
125	0x3f617d00	0.8808136
126	0xbf65fb25	-0.8983634
127	0x3f27379e	0.6531924
128	0xbe2678ec	-0.16257066
129	0x3f0a09ec	0.5392139
130	0xbf2e1d14	-0.6801312
131	0x3e2d9d18	0.16954458
132	0x3f2b06c7	0.66807216
133	0x3da734ea	0.081643894
134	0xbf03a5a1	-0.51424605
135	0xbf79b77b	-0.97545594
136	0x3f1c13ff	0.6096801
137	0xbf1818e4	-0.5941298
138	0x3dcda71f	0.100416414
139	0x3f79d0b2	0.9758407
140	0xbe32d606	-0.17464456
141	0xbed2ff17	-0.41210243
142	0x3fb9bea8	1.4511309
143	0xbf3b9f65	-0.7329009
144	0xbf44ab39	-0.76823765
145	0xbf4a3c5c	-0.7899835
146	0x3f6385c8	0.8887601
147	0x3d600d43	0.054700147
148	0xbefaeec0	-0.49010277
149	0x3f1d4d08	0.61445665
150	0x3de1eee4	0.11031893
151	0xbe93ecb9	-0.28891543
152	0xbf078876	-0.529426
153	0x3f38743f	0.7205238
154	0xbe1c086b	-0.15237586
155	0x3e0d1625	0.13777979
156	0x3e0b4be9	0.13603176
157	0xbe24a6f0	-0.16079307
158	0x3f6411f1	0.89089876
159	0x3e85d694	0.26140273
160	0x3d746308	0.059664756
161	0xbfa3ddd7	-1.2802075
162	0x3e263948	0.16232789
163	0xbcdb51f2	-0.026772473
164	0xbfbd77e1	-1.4802209
165	0xbef78258	-0.48341632
166	0xbea5b632	-0.32365566
167	0x3e52cda6	0.20586261
168	0x3f344f81	0.70433813
169	0xbf6688c9	-0.9005247
170	0xbe333208	-0.17499554
171	0xbf9ea4a3	-1.2393993
172	0x3eb9e434	0.36306918
173	0x3db63056	0.08895938
174	0xbf3043dc	-0.68853545
175	0xbf433b7d	-0.76262647
176	0xbc797336	-0.015225222
177	0xbeec7406	-0.4618227
178	0x3d8e8301	0.06958581
179	0x3f8bb507	1.091462
180	0x3ec107b7	0.37701198
181	0x3ef8cfb2	0.4859596
182	0x3e657bc6	0.22410497
183	0x3fab39ed	1.3377053
184	0xbe9c9da7	-0.3058903
185	0x3f4de8f4	0.80433583
186	0xbdc08e63	-0.09402158
187	0xbf266912	-0.65004075
188	0xbe070688	-0.13186085
189	0xbe7dba40	-0.2477808
190	0xbd083f46	-0.033263467
191	0x3f46ea40	0.7770119
192	0x3e156e8b	0.1459295
193	0x3e364da6	0.17803058
194	0x3f00f0da	0.5036751
195	0xbf43f5cd	-0.7654694
196	0xbe18d872	-0.14926317
197	0x3f64a2ad	0.89310724
198	0x3df3621a	0.11883946
199	0x3e1374d0	0.14400029
200	0x3e03a8a0	0.12857294
201	0xbe248745	-0.16067226
202	0xbe98e5b1	-0.2986274
203	0x3dafd4d2	0.08585514
204	0xbe00e470	-0.12587142
205	0x3f760f4e	0.96117103
206	0xbecce7a3	-0.40020475
207	0x3e331cea	0.17491499
208	0xbe7f726f	-0.24945997
209	0x3e8206fd	0.25395957
210	0xbe81cd46	-0.25351924
211	0x3f405439	0.75128514
212	0x3d1721c5	0.03689744
213	0x3dc71a2a	0.09721787
214	0x3d403d5a	0.04693351
215	0xbedb041f	-0.42776582
216	0x3f32fa8b	0.6991355
217	0xbf938985	-1.1526343
218	0x3e70b40c	0.23506182
219	0xbf2ea664	-0.6822264
220	0xbef086f8	-0.46977973
221	0x3f8ea680	1.1144562
222	0xbed2c493	-0.411656
223	0xbe09500b	-0.1340944
224	0xbecddd62	-0.40207964
225	0x3ea63570	0.32462645
226	0xbf132526	-0.5747856
227	0x3e9839a8	0.29731488
228	0x3effa409	0.49929836
229	0x3ef4d37f	0.4781761
230	0x3db61964	0.088915616
231	0xbf7d711f	-0.99000734
232	0xbe36ed33	-0.17863922
233	0x3f5bda7d	0.8588026
234	0x3e75e700	0.24013901
235	0xbd9e1bda	-0.07720156
236	0x3dfb57db	0.122726165
237	0xbd893095	-0.066987194
238	0x3ea545b4	0.32279742
239	0xbe4dd514	-0.20100814
240	0xbf893342	-1.0718768
241	0x3dbb93ba	0.09159036
242	0xbe997e95	-0.29979387
243	0xbe8caf9b	-0.27477726
244	0x3c805d36	0.015669446
245	0xbf70ab49	-0.9401136
246	0xbe4338b7	-0.19064604
247	0xbdb5385a	-0.08848639
248	0x3b90d1d5	0.004419545
249	0xbe8c9299	-0.27455595
250	0xbeb95538	-0.3619783
251	0x3e8461fc	0.25856006
252	0x3f0e7d6a	0.55660117
253	0xbe9221d7	-0.28541443
254	0x3f2ca0f4	0.67433095
255	0xbf091b80	-0.53557587

bias f4 [64]
0	0xbe9f7d5c	-0.3115033
1	0xbf36fece	-0.7148255
2	0xbdd6070e	-0.10450564
3	0x3e17c2e4	0.14820439
4	0xbed695b6	-0.41911095
5	0xbdb8588e	-0.090012655
6	0xbe92db97	-0.2868316
7	0x3f3a1e2c	0.7270229
8	0x3e9a033a	0.30080587
9	0x3f061a96	0.52384317
10	0xbe3790b9	-0.17926301
11	0x3f2e7d0f	0.68159574
12	0xbce4268b	-0.02785041
13	0xbebad1a9	-0.36488083
14	0x3d2637ed	0.04058068
15	0xbea5d836	-0.32391518
16	0x3ec3f365	0.38271633
17	0xbf465f1d	-0.7748888
18	0xbdbcc581	-0.092173584
19	0x3f0fd3b4	0.5618241
20	0x3e80b3fb	0.25137314
21	0x3ea1e75f	0.31621835
22	0x3e433e9e	0.19066855
23	0xbf00a8ab	-0.50257367
24	0x3e0e9ed1	0.13927771
25	0xbbfe40db	-0.007759196
26	0xbe95e874	-0.2927891
27	0xbe8cfc23	-0.27536115
28	0xbec6bc23	-0.38815412
29	0xbeb491e9	-0.3526757
30	0x3f1019bf	0.56289285
31	0xbd8ed246	-0.069737
32	0x3ca6a8fa	0.020344246
33	0xbe629732	-0.22127989
34	0x3efead7b	0.4974173
35	0xbf19dce4	-0.6010268
36	0xbf0c22a8	-0.5474038
37	0xbe96eaf5	-0.29476133
38	0x3e1a0f15	0.15044816
39	0xbe65d6f7	-0.22445284
40	0xbd61b7d4	-0.055106953
41	0xbecda660	-0.40165997
42	0x3f10e7f4	0.5660393
43	0x3df1137e	0.11771296
44	0x3f17f3d3	0.5935642
45	0xbed0815a	-0.40723687
46	0xbe21597d	-0.15756793
47	0xbe827a96	-0.2548415
48	0x3e8af9f6	0.2714383
49	0x3eaf1ef2	0.34203297
50	0x3e8d9815	0.27655092
51	0x3d6017d9	0.054710243
52	0x3e837df9	0.25682047
53	0x3df59bc4	0.119926006
54	0xbd81b2d0	-0.06332934
55	0x3e639b92	0.22227314
56	0x3e5c154c	0.21492499
57	0xbf55c613	-0.8350536
58	0xbe9efc66	-0.3105194
59	0xbd8b61c9	-0.068057604
60	0xbea23f2b	-0.31688818
61	0xbe9f70dd	-0.31140795
62	0x3dfcaa72	0.12337197
63	0x3dce99ba	0.10087915

weight f4 [64, 64]
0	0x3e3bffc5	0.18359287
1	0xbd13cc36	-0.036083423
2	0x3f1c512a	0.61061347
3	0xbd320635	-0.04346295
4	0xbd3c6359	-0.045993183
5	0xbecdb883	-0.40179834
6	0xbf110bbf	-0.5665855
7	0xbe6f551d	-0.23372312
8	0xbd9f784a	-0.07786615
9	0xbeee44ab	-0.46536765
10	0xbec987cf	-0.39361426
11	0x3e23771b	0.15963404
12	0xbe3a74b5	-0.18208583
13	0xbf77370c	-0.9656837
14	0xbd06222a	-0.032747425
15	0xbf5a30c8	-0.85230684
16	0x3eb877c4	0.36028874
17	0xbcfccb8c	-0.030858777
18	0xbe701622	-0.23445943
19	0x3cec9df8	0.02888392
20	0x3edb6d4c	0.42856824
21	0x3e1635f8	0.14669025
22	0x3f204beb	0.6261584
23	0xbec6d2c3	-0.38832673
24	0xbdd7d419	-0.10538501
25	0xbe6fa869	-0.23404087
26	0x3e851d0f	0.25998732
27	0xbf312ffc	-0.69213843
28	0x3d5dc492	0.054142542
29	0xbe4dcfb0	-0.20098758
30	0xbdd3ce6e	-0.10342108
31	0x3c27754f	0.01022084
32	0x3e6930ad	0.22772475
33	0xbf3c67ee	-0.73596084
34	0x3e7ad846	0.24496564
35	0x3e0eee59	0.1395811
36	0x3df1990f	0.11796772
37	0xbe3e7608	-0.18599713
38	0x3e12e3c7	0.14344703
39	0x3eb56fa9	0.35436752
40	0xbd884288	-0.06653315
41	0xbe86698a	-0.26252395
42	0xbdc9cfac	-0.098540634
43	0xbb84a586	-0.0040480522
44	0x3dcaba4d	0.09898815
45	0xbf084fe4	-0.53246903
46	0x3e166a80	0.14689064
47	0xbe48ece8	-0.19621623
48	0x3cc48116	0.023987334
49	0x3e7a551d	0.2444653
50	0xbd6b434d	-0.05743723
51	0x3f27fb1a	0.65617526
52	0xbed52bde	-0.4163503
53	0x3d7e792f	0.06212729
54	0xbe9a343f	-0.30117986
55	0xbcb60d68	-0.02222319
56	0xbe2333ec	-0.15937775
57	0xbe7be6f4	-0.2459982
58	0x3e9c78ca	0.30560905
59	0xbeb3a531	-0.3508697
60	0xbe23258b	-0.1593229
61	0xbefba4c1	-0.49149135
62	0x3c2b95ea	0.010472754
63	0xbeb8ba26	-0.3607952
64	0xbf279984	-0.6546862
65	0x3d3fe1fc	0.046846375
66	0x3f63ce0e	0.8898629
67	0xbee6ef01	-0.4510422
68	0xbe716d4a	-0.23576847
69	0xbe83c4ac	-0.25735986
70	0xbea0b461	-0.31387618
71	0xbed55119	-0.41663435
72	0x3f21f32e	0.6326169
73	0x3e738fb4	0.23785287
74	0xbe1d4f7c	-0.15362352
75	0xbecaf190	-0.39637423
76	0xbe5b9f92	-0.2144759
77	0x3ea56c00	0.3230896
78	0xbed47535	-0.41495672
79	0xbf406f2a	-0.7516962
80	0xbef2c0c1	-0.47412685
81	0xbee4338c	-0.44570577
82	0xbc83207d	-0.016006703
83	0x3d8ffc2a	0.07030518
84	0x3e99f6ee	0.30071205
85	0xbe550e78	-0.208063
86	0x3c894c76	0.016760092
87	0xbeb9b3ba	-0.36269933
88	0xbe1d4fb1	-0.15362431
89	0x3f060ad3	0.52360266
90	0xbdb6112b	-0.08889993
91	0xbf1b3f0c	-0.60643077
92	0xbe8dfc17	-0.27731392
93	0x3e357fb5	0.17724498
94	0xbe800d32	-0.25010067
95	0xbd997864	-0.07493666
96	0x3e8526b5	0.26006094
97	0xbf03e117	-0.51515335
98	0x3d747387	0.059680488
99	0xbebf5389	-0.3736842
100	0x3e8e18f8	0.27753425
101	0xbd15b36a	-0.036548056
102	0xbf3d93c8	-0.7405362
103	0x3f795c4d	0.97406465
104	0x3e2ef513	0.17085676
105	0xbebca745	-0.36846367
106	0x3ce11464	0.027475543
107	0xbdc9ac76	-0.098473474
108	0x3ebc02b7	0.3672082
109	0x3e383124	0.17987496
110	0x3e9be01f	0.30444428
111	0xbe9ee91b	-0.3103722
112	0x3e39b667	0.18135987
113	0x3c854519	0.0162683
114	0x3f57c310	0.84282017
115	0x3f22b9cb	0.6356475
116	0xbefb4667	-0.4907715
117	0x3efa89e0	0.48933315
118	0xbd1afb0c	-0.037837073
119	0xbda89760	-0.082319975
120	0x3e465315	0.19367631
121	0x3da994aa	0.082803085
122	0xbf041f4c	-0.51610255
123	0xbf0c1325	-0.5471671
124	0xbedba868	-0.4290192
125	0xbf3d8cf7	-0.7404322
126	0x3e80a5da	0.25126535
127	0xbee89aaa	-0.454305
128	0x3e823c35	0.2543656
129	0xbe87bc41	-0.26510814
130	0x3dfde93a	0.12398
131	0xbd584450	-0.052799523
132	0x3daedfb6	0.08538763
133	0xbe3f18e7	-0.18661843
134	0xbdf51a5e	-0.1196792
135	0xbc5367d3	-0.012903172
136	0x3e04b58a	0.12959877
137	0xbed2b7ac	-0.41155756
138	0x3ea861f6	0.32887238
139	0x3daf9c06	0.08574681
140	0x3e18aa21	0.14908649
141	0x3eaf2edb	0.34215435
142	0xbd87d416	-0.06632249
143	0x3ea19c50	0.3156457
144	0x3dfd806b	0.123780094
145	0xbc582ee8	-0.013194777
146	0xbeb643cd	-0.35598603
147	0x3ce4ae27	0.027915074
148	0xbe46e472	-0.19423082
149	0xbeb4811c	-0.35254753
150	0xbe394174	-0.18091375
151	0x3e00e247	0.12586318
152	0x3e18aa9b	0.14908831
153	0x3e3446b2	0.17605093
154	0x3c8f7e4b	0.017516276
155	0x3e76eb36	0.24113163
156	0xbec17d67	-0.37790987
157	0xbe8b928d	-0.27260247
158	0xbe0ca6fc	-0.13735574
159	0x3e933bb1	0.28756478
160	0x3ea4e9bd	0.32209578
161	0xbe3ac2ac	-0.18238324
162	0xbda3d71c	-0.08000013
163	0x3dc4f04e	0.09616147
164	0xbdfb29f7	-0.122638635
165	0x3e8a4276	0.2700383
166	0xbddb1a9a	-0.10698433
167	0x3e7c86d2	0.24660805
168	0xbeac6cfd	-0.336769
169	0x3e9c220e	0.30494732
170	0xbee85de5	-0.45384136
171	0xbe061797	-0.13094936
172	0x3d5e14ca	0.054219045
173	0xbc861cee	-0.016371217
174	0x3e85ea4a	0.2615531
175	0x3e389de3	0.18028979
176	0x3e30add1	0.17253806
177	0x3dc36e1f	0.09542488
178	0xbe1733fb	-0.14765923
179	0x3e3427d0	0.17593312
180	0xbd22459b	-0.039617162
181	0xbd1dfe8f	-0.038572844
182	0xbe195fda	-0.1497797
183	0xbd2917ef	-0.04128259
184	0xbe7d9884	-0.24765211
185	0xbebf6240	-0.37379646
186	0xbe3074ed	-0.17232104
187	0x3cac91c0	0.021065593
188	0x3e1a6c2b	0.15080325
189	0x3e6b94b4	0.23005944
190	0xbea02d4d	-0.31284562
191	0x3c4ec6e6	0.012620663
192	0x3dc45d5f	0.095881216
193	0x3e00b615	0.12569459
194	0x3d11d151	0.03560001
195	0x3e226d37	0.15861975
196	0xbc88a428	-0.016679838
197	0x3d9d36cc	0.07676467
198	0x3e93671d	0.28789607
199	0x3e9401ca	0.28907615
200	0xbce2467e	-0.027621504
201	0x3e0ba625	0.13637598
202	0xbe8bed64	-0.27329552
203	0x3e093c01	0.13401796
204	0x3c08b4c0	0.008343875
205	0xbe379624	-0.17928368
206	0x3d1570a7	0.036484387
207	0xbe73a7a2	-0.23794416
208	0x3e23016f	0.15918516
209	0xbe3718d7	-0.1788057
210	0x3d78f495	0.060780127
211	0x3e05ad36	0.13054356
212	0x3bec1b4c	0.0072054025
213	0xbe20c534	-0.15700227
214	0x3daf4f59	0.08560056
215	0x3d83ff52	0.06445183
216	0x3c6f9209	0.01462222
217	0xbe1d18ed	-0.1534154
218	0xbe2faae8	-0.1715504
219	0x3e65d58a	0.2244474
220	0x3ee79b03	0.45235452
221	0xbe8003a1	-0.2500277
222	0xbca679a5	-0.020321677
223	0x3e31b3b9	0.17353715
224	0xbe0b86c8	-0.13625634
225	0x3e1e64b5	0.15468104
226	0xbd669442	-0.056293733
227	0xbe95d28c	-0.29262197
228	0xbca8a52c	-0.020586573
229	0x3e8c95c1	0.27458003
230	0x3e7922f9	0.24329747
231	0xbe3eedb0	-0.18645358
232	0xbf0d8eeb	-0.552962
233	0xbd0560ad	-0.0325629
234	0xbd094fc4	-0.033523336
235	0x3f298c33	0.6622955
236	0xbe4dc725	-0.20095499
237	0x3cf171af	0.029473154
238	0xbe8f8499	-0.2803085
239	0x3c9d33f6	0.019189816
240	0x3efb7614	0.49113524
241	0xbe6edc3c	-0.233262
242	0xbe52694e	-0.20547983
243	0x3e75ed42	0.24016288
244	0x3daa5c2e	0.08318363
245	0xbbd8183d	-0.0065946863
246	0x3e7119bc	0.23544973
247	0xbe7c35ad	-0.2462985
248	0x3e1496c9	0.14510645
249	0xbd70cef8	-0.05879113
250	0x3e714bba	0.23564044
251	0x3cb6125a	0.022225548
252	0xbe64ee91	-0.22356631
253	0xbd96a321	-0.07355333
254	0xbe2f0c07	-0.17094432
255	0x3e6b8e91	0.23003604

bias f4 [64]
0	0xbe2d03e3	-0.16896014
1	0x3db46ff7	0.08810418
2	0xbe472d16	-0.19450793
3	0xbe91e31d	-0.28493586
4	0x3e75022a	0.23926607
5	0x3ceacc8c	0.028661989
6	0x3e41def7	0.1893271
7	0x3db4aee2	0.08822419
8	0xbe30d0ff	-0.17267226
9	0xbdd72397	-0.10504835
10	0x3e6182a9	0.22022499
11	0x3c62d0d3	0.013843733
12	0xbdda2a9c	-0.10652658
13	0xbd13b723	-0.036063325
14	0xbeb0a1ef	-0.34498546
15	0x3e555410	0.20832849
16	0xbe7ebf92	-0.24877766
17	0xbe0a837e	-0.13526723
18	0x3e72486c	0.23660439
19	0xbdb2d2dc	-0.087316245
20	0x3e862b1e	0.2620477
21	0xbe0388b3	-0.12845115
22	0xbdac1d71	-0.08404053
23	0xbe6b9da8	-0.2300936
24	0x3ea530e5	0.32263866
25	0xbe275b9c	-0.1634354
26	0x3df124a4	0.11774567
27	0x3ea8f842	0.33001906
28	0xbe82cf06	-0.2554857
29	0xbd8fd75e	-0.070235
30	0x3da5aafc	0.08089253
31	0x3cc8ef3f	0.024528144
32	0xbdc293a1	-0.09500814
33	0x3e803001	0.25036624
34	0xbedcb55c	-0.43107116
35	0x3eb3d01b	0.3511971
36	0xbc97f449	-0.018549101
37	0xbe431f0e	-0.19054815
38	0x3db0ad93	0.08626857
39	0x3d816783	0.063185714
40	0x3e24c436	0.16090474
41	0x3e0e8733	0.13918762
42	0x3db97aa0	0.09056592
43	0xbf11430a	-0.5674292
44	0xbe3c120e	-0.18366262
45	0x3e1e3847	0.15451156
46	0x3e676d31	0.22600247
47	0xbf13f0b4	-0.5778916
48	0x3e1202ce	0.14258882
49	0xbeb08fc2	-0.34484679
50	0xbd8a953d	-0.06766746
51	0x3d5eacb0	0.054363906
52	0xbeece581	-0.46268848
53	0x3daf4e69	0.085598774
54	0xbd681366	-0.056659125
55	0xbe8e8987	-0.278393
56	0xbe951612	-0.291184
57	0x3e2e327d	0.17011447
58	0x3eb82e18	0.35972667
59	0xbe2f0e5e	-0.17095324
60	0x3e4e9c7a	0.20176879
61	0xbe8c2c8d	-0.2737774
62	0x3f11e971	0.5699683
63	0xbd72b6aa	-0.059256233
