results.bk/general/ppo/seed_1_step_50_ms_alpha_rank_minp2_maxp_3_mina_2_maxa_4_tn_3000.pt (torch, 120516 bytes, 21 tensors)

weight f4 [64, 40]
000000 9b ba 1d be 24 05 c1 bd 3e ec b0 bd 14 8e 0a 3e
       -0.15403216 -0.094248086 -0.086388096 0.13530761
000010 40 b0 3d be f3 94 4e be 23 db b2 3d cf 6e c9 3d
       -0.18524265 -0.20174007 0.08733203 0.09835588
000020 6f 12 82 bd 1b fa b2 bd 8e 22 82 3e 9f 79 06 3e
       -0.06351172 -0.0873911 0.25416988 0.13132332
000030 1d 6b 13 bd ef b6 24 bd bf 16 03 bb be 1b c1 3c
       -0.035990823 -0.04021352 -0.0020002571 0.023572799
000040 ea aa 3f 3d c3 e6 7f be 64 6e cc 39 62 97 23 be
       0.046793856 -0.24990372 0.0003899216 -0.15975717
000050 ec 20 b6 bd 0c 6a a9 bd 08 c5 31 3e 94 8b 84 3d
       -0.08892998 -0.0827218 0.17360318 0.06471935
000060 b8 32 55 3e c3 65 52 3d ef c8 58 be 44 87 bd 3c
       0.20820129 0.05136658 -0.211704 0.023135789
000070 67 4b 26 3f d8 30 87 3e 80 37 31 3e 7b 82 5a 3d
       0.64958805 0.26404452 0.17306328 0.053347092
000080 02 2f 3a be 92 d4 70 be 2c e7 ae be 55 4d 21 3d
       -0.18181995 -0.23518589 -0.34160745 0.03938039
000090 ec ca 8b be 04 df e0 3c 17 54 6e 3e 13 ba dc 3e
       -0.27303255 0.027450092 0.23274265 0.43110713
0000a0 3e cc 33 be 87 29 43 3d 52 ab 74 bd 8a 13 8f 3e
       -0.17558381 0.047647025 -0.059733696 0.27944595
0000b0 2a cd 14 3e e7 07 3e be 2a 3d ee 3c 98 9c 85 bd
       0.14531389 -0.18557702 0.0290819 -0.065240085
0000c0 b6 4c c7 3e 50 8a a4 3d 08 ee 3d bd 9d 9e 5f be
       0.38925713 0.080341935 -0.046369582 -0.2183785
0000d0 b2 a6 e7 3d 8a cf 20 3b f3 6e 5a 3e 96 ea 13 be
       0.113110915 0.0024537765 0.21331386 -0.14444956
0000e0 30 39 d7 3c ee 9a 3e 3e 93 9b a2 be 9a 6f 20 3e
       0.026272386 0.18613788 -0.3175932 0.15667573
0000f0 4b 1e 58 3e 70 18 0f 3c 82 b8 b6 be fb b6 1d 3e
       0.21105306 0.008733854 -0.35687643 0.15401833
000100 c4 5d 39 bd a8 41 4f be 22 d2 3a be c5 79 0c be
       -0.045255437 -0.2023989 -0.18244222 -0.13718326
000110 c8 e7 3a bd db 64 cf 3c 13 ce 6b be d0 e4 a8 bc
       -0.0456312 0.025316646 -0.2302783 -0.020616919
000120 ff bb b9 be b9 a6 eb 3d 9d 2b 86 3d 65 3e b1 3d
       -0.36276242 0.11506409 0.06551287 0.08654479
000130 6a b2 f3 3c d4 59 73 3e 68 d7 63 bd dd 45 5b 3e
       0.02974816 0.23764735 -0.05562535 0.2141337
000140 0b 3c 46 3d 32 fd bf 3d f4 1d 3b 3e 37 f5 de 3c
       0.048397105 0.09374465 0.18273145 0.027216537
000150 1c 8d 3d 3e 34 cb a5 3d 3f da 8f 3c 18 41 b9 bd
       0.1851086 0.080953985 0.017560123 -0.09045619
000160 3d 23 c4 3e 9c 55 30 3e 15 75 83 be af 78 3e 3e
       0.38308135 0.17220157 -0.25675264 0.18600725
000170 f1 d5 e9 be ee 4e 22 be 56 20 12 3e ab a6 cf 3e
       -0.45671037 -0.15850422 0.14270148 0.40556845
000180 4c c1 50 be 0a 3f 53 be a3 6c 00 be 87 4f d6 3d
       -0.20386237 -0.20629516 -0.12541442 0.104643874
000190 2d 1e ef 3e 0c 95 86 3d a7 d6 d8 bd 4c 08 bb 3d
       0.4670271 0.06571397 -0.10587817 0.09132442
0001a0 db e4 f7 3d a5 00 3f bd f5 b6 6d be 60 f0 88 3e
       0.121041976 -0.046631474 -0.23214324 0.26745892
0001b0 c1 b3 09 3f 11 6a ea 3e ef 23 b7 bd 6c cc 11 3d
       0.5378991 0.45784047 -0.08942401 0.035595343
0001c0 c5 27 b4 bd 17 63 29 be aa 95 02 3f f8 6b 23 3f
       -0.08796648 -0.16541706 0.5100962 0.6383662
0001d0 d2 e4 6b 3e b4 24 4b be 53 d2 bd bc 98 f7 95 3d
       0.23036507 -0.1983822 -0.02317158 0.073226154
0001e0 1d af 66 be 0a 53 58 3e 71 f3 45 be 58 32 ea 3e
       -0.22527738 0.21125427 -0.19331147 0.45741534
0001f0 c2 3a 10 bd 97 38 53 be 2f d0 eb 3c 00 95 8b bd
       -0.035212286 -0.20627056 0.028785793 -0.06815529
000200 4f a3 d2 be ec b6 a1 3d 3f d3 ab 3c c0 5b 28 be
       -0.4114022 0.07896218 0.020974753 -0.1644125
000210 c9 65 97 3d 0f 41 3a bc dc d6 46 be 1b de 97 be
       0.07392461 -0.01136805 -0.194179 -0.2966164
000220 92 d6 08 bc 1a 6e 17 3e f7 a8 78 be 27 68 05 be
       -0.008351939 0.14788094 -0.24283205 -0.13028012
000230 89 04 c0 be 8f 82 6c 3e d0 b3 37 bd 5a e9 52 3e
       -0.3750346 0.23096679 -0.044849217 0.20596829
000240 cb 29 f1 be b3 cb 82 3e 23 28 1c 3e 2e 69 85 3c
       -0.47102198 0.25546035 0.15249686 0.016285505
000250 73 37 29 3e fd e5 d3 3e 78 26 47 be 5c 06 f6 3c
       0.16525058 0.41386405 -0.19448268 0.03003233
000260 fd a2 f3 bd 55 e9 39 be 47 b3 50 be 8f 56 1f 3e
       -0.11896322 -0.18155415 -0.20380889 0.15560363
000270 92 0f 2f 3d f0 6f 14 be 94 76 e5 bd 33 a2 f2 bd
       0.04273946 -0.14495826 -0.112042576 -0.11847343
000280 52 b4 51 be bd 93 bd bd e3 b4 6d bd 6b 34 c2 3e
       -0.20478943 -0.092566945 -0.058033835 0.37930617
000290 dc 0b 1f bd 95 6c 1f 3c 44 68 5c 3e 76 9f a9 be
       -0.03882967 0.009730478 0.21524149 -0.33129472
0002a0 27 43 4d bf 03 b9 c6 be f2 06 3b 3d 5f a8 62 bd
       -0.8018059 -0.38813028 0.04566092 -0.055336352
0002b0 69 8a 04 be 4a d1 74 be a7 fb 21 bf 6e 02 1b be
       -0.12943424 -0.23907962 -0.63274616 -0.15137646
0002c0 b3 c2 2f be 1a 1c 31 3d ef 7a 1b bd 53 4b 4f 3e
       -0.17164116 0.04323969 -0.037959035 0.20243578
0002d0 5d a8 59 3e 4a 9f 77 3e 4d fb e1 bc 57 16 1d bb
       0.21255632 0.24181858 -0.02758565 -0.0023969614
0002e0 a9 34 b4 bd af a4 5b bc 46 90 bf 3d cb ed c8 bd
       -0.08799107 -0.013405963 0.0935369 -0.098109804
0002f0 33 31 7f be 36 b5 49 be 00 aa 42 3e d3 73 3d be
       -0.24921112 -0.19698033 0.19010162 -0.18501215
000300 6d 45 6f 3e 32 84 43 3e 36 11 14 3e a1 20 90 bd
       0.23366328 0.19093397 0.1445969 -0.070374735
000310 61 cf c4 be b5 8a 57 be d0 2d b5 bd d8 fd a4 bc
       -0.38439468 -0.21049006 -0.08846629 -0.020140573
000320 11 40 c7 3d 32 7d a9 bd 48 59 de 3e b1 b9 47 bd
       0.097290166 -0.08275832 0.4342749 -0.048761073
000330 03 a0 98 3e 03 ac 50 3e 51 6f 7d 3e 18 13 e3 bd
       0.2980958 0.20378117 0.24749495 -0.11087626
000340 d3 1d 37 be c4 25 b6 3d b0 e2 af 3e d1 66 f2 3c
       -0.17882471 0.08893922 0.34352636 0.029590042
000350 b3 f5 2c bd 6f 2b 16 3e 08 a9 91 bd b8 e2 06 3d
       -0.042226505 0.14665006 -0.07112318 0.03293106
000360 98 e9 c5 bd 88 e9 d9 bd 2b f7 64 3e aa 73 03 3e
       -0.09663695 -0.10640246 0.22359912 0.12837091
000370 37 46 1b be 84 06 7d be 63 3c 09 be 19 ae f5 3d
       -0.15163504 -0.24709517 -0.13401942 0.11996097
000380 34 20 91 bd eb 76 8c bd 81 0c 2c be 61 cf a6 3b
       -0.070862204 -0.06858619 -0.16801645 0.0050906395
000390 75 cc 92 3e 2f 72 57 3e 3e d4 8d be f3 ab 63 3e
       0.28671613 0.21039651 -0.2770099 0.22233562
0003a0 dd 31 6a be ca 87 c7 3c 25 e8 08 3e 42 e6 97 be
       -0.22870584 0.024356741 0.13369806 -0.2966786
0003b0 6d a9 cf bd 73 0c 0b 3e 39 f6 58 3d 6a 25 08 bd
       -0.10139737 0.13578968 0.05296919 -0.033238806
0003c0 63 85 3f 3e ab 55 b4 3d 1f 88 cc 3d 5d df 0e 3e
       0.18703227 0.08805402 0.099869005 0.13952394
0003d0 d7 14 14 be d6 f8 fa 3b 27 32 e8 bd cb ad 8b 3e
       -0.14461075 0.007659058 -0.11337691 0.2728103
0003e0 c3 75 bf 3d 87 1e c0 3d de 0c a3 be 30 f0 85 bd
       0.09348633 0.09380823 -0.31845754 -0.06539953
0003f0 f9 e3 08 3e 92 af 01 3e f8 3b 71 be 8a b6 84 be
       0.13368215 0.12664631 -0.23558033 -0.25920516

bias f4 [64]
000000 80 f2 63 be 29 74 4d be da fb 2a bf 9b ba 71 3e
       -0.22260475 -0.20063843 -0.66790545 0.2360634
000010 16 13 51 3e d7 11 63 3e 97 3f dd bc b2 bf 10 3e
       0.20417437 0.22174774 -0.027007861 0.14135626
000020 8a 68 3c be f8 dd a2 3e 6e 57 f1 bd e4 9a 1c be
       -0.18399253 0.31809974 -0.11784254 -0.15293461
000030 0f a0 10 3e aa 9e 87 3d da 44 6b be 6b 9f 75 bd
       0.14123558 0.0662206 -0.22975484 -0.059966486
000040 c3 a9 03 3e c2 66 6f be 26 c1 ee bd ec fa 80 3e
       0.12857728 -0.23379043 -0.11657934 0.25191438
000050 f7 14 da bc 12 69 89 3e ad 77 3c 3d 4f 25 3d be
       -0.026621325 0.26837975 0.04601257 -0.18471263
000060 e3 03 01 3f 8e 9a cb 3e 2b d6 19 bd e7 50 ee 3d
       0.50396556 0.39766353 -0.037557762 0.11636525
000070 67 92 7b be d2 9e ad 3e 2f ae f8 3d ae 1a 22 3e
       -0.24567567 0.33910233 0.12142598 0.1583049
000080 0e 91 8b bd 5c 48 32 bd f0 08 fc 3b 81 78 1a bc
       -0.06814776 -0.04352604 0.007691495 -0.009428144
000090 6c b7 7e 3e 9b 01 8b be f9 2d aa bd 74 2f 8d 3e
       0.24874657 -0.27149662 -0.0830955 0.27575266
0000a0 bb d7 f2 bd 5c b9 ae bc ef cb d8 3d f9 c1 8a be
       -0.118575536 -0.02132862 0.10585772 -0.27101114
0000b0 0f c9 33 3e 40 f7 6a be dc df 13 3e 80 6e d2 3d
       0.17557167 -0.22945881 0.14440864 0.102749825
0000c0 e0 a5 be 3e 6c a8 97 be 85 9d 9e 3e 01 d0 6d be
       0.37235928 -0.29620683 0.30979553 -0.23223878
0000d0 02 af 3c be 4d cd 8e be a4 0a 1a 3d 2c d0 25 3e
       -0.18426135 -0.27891007 0.037607804 0.16192693
0000e0 ea 53 8c 3b 34 6e a1 3e 8f f0 dd 3d 04 91 83 be
       0.0042824643 0.3152939 0.108368985 -0.25696576
0000f0 98 2c 58 3e 05 16 0e bd 04 52 6f 3e a2 a1 83 bd
       0.21110761 -0.03468897 0.2337113 -0.064273134

weight f4 [64, 64]
000000 28 6c 4a bd 49 42 24 bd bf 05 9e be 5f 6b 91 bd
       -0.049419552 -0.040102277 -0.3086376 -0.071005575
000010 d3 43 6f be 22 5e 91 bd d8 b0 f0 bd 91 3f 4f be
       -0.23365717 -0.070980325 -0.1175248 -0.20239092
000020 db ac 4c bd 19 13 6e bd 79 2d 9d bd 32 ef 65 3e
       -0.049969535 -0.05812368 -0.07674689 0.22454527
000030 f2 84 8d bc 46 a1 57 3e 17 81 0b 3e 4f 92 13 3f
       -0.017275307 0.21057615 0.13623463 0.57645124
000040 6b 00 a0 bd cf 6a b9 3e f7 8d 62 3c f9 af 0b be
       -0.0781258 0.362143 0.013827792 -0.13641347
000050 62 ba 7a bd 25 ee 5b 3f 3f 2e 85 be 17 7d da 3c
       -0.061212905 0.85910255 -0.26011845 0.026670976
000060 d1 67 0b 3f 26 c7 c1 be 88 0a 51 3e 69 6d 63 3c
       0.54455286 -0.3784725 0.20414174 0.013881066
000070 ae 56 de 3b 36 c6 4d bd 04 c7 b5 bd 69 d6 c0 3c
       0.0067852354 -0.050237857 -0.0887585 0.023539739
000080 70 f4 0d bc fd a0 b6 bd 2a 32 a2 bb 19 eb 5c bd
       -0.0086642355 -0.08917425 -0.0049498277 -0.053935144
000090 ad ed bf be f4 df 66 3b 45 fb 7b 3e b2 2c bb 3d
       -0.3748602 0.0035228701 0.2460757 0.09139384
0000a0 92 b4 14 3c c2 3f e8 3d 2b 3f 35 bd 03 63 a6 3e
       0.009076254 0.11340286 -0.044249695 0.32497415
0000b0 94 5a 89 3d de 39 83 3e 20 55 b8 ba f2 f7 81 3e
       0.067067295 0.25630087 -0.0014063455 0.2538448
0000c0 61 32 11 3e 9d e5 1a 3e a8 1c 06 be 47 b4 4f 3d
       0.14179374 0.15126653 -0.13096869 0.050709035
0000d0 4b b9 2f 3e 2c 8e ba bd 63 9b aa bd 1b 8c 80 bc
       0.17160527 -0.091091484 -0.08330419 -0.015691807
0000e0 d2 b1 73 3d 9f a1 be 3e 86 88 fb bb f4 51 3c be
       0.059495755 0.37232682 -0.007676187 -0.18390638
0000f0 7f 22 53 3d ef 75 1a bc 1f 51 1d 3d 74 92 7b 3d
       0.05154657 -0.009427532 0.03840744 0.061418965
000100 60 7d d7 bd 7c 94 4a 3c 43 f7 bd 3e 65 d5 d9 3d
       -0.1052196 0.012364503 0.37102708 0.10636405
000110 5e 8b 92 be 5b 8b 27 be 53 dc bd bc 30 75 72 3d
       -0.28621954 -0.16361754 -0.023176348 0.05919379
000120 1b f1 bc bc c1 a8 15 be 58 94 6e 3c ef 0a 61 3e
       -0.023064187 -0.14615156 0.014561735 0.21976827
000130 d8 f1 08 3e 9e e6 28 be 41 d1 a6 3e 49 56 98 bc
       0.13373506 -0.16494223 0.32581523 -0.018595831
000140 32 7f 3e 3e f3 ba da bd e6 15 a5 3c 9e 6c 01 bd
       0.18603209 -0.10680189 0.020152044 -0.031597726
000150 cd 0d f2 be fd ca 0a 3f 52 6f 29 be 8f ff eb bd
       -0.47276154 0.54215986 -0.16546372 -0.11523353
000160 4f d1 b9 be 27 39 cd 3e 27 d3 9c 3e a9 81 8e bd
       -0.36292502 0.40082666 0.30629846 -0.069583245
000170 28 a0 1b be 1d e9 eb be 9a 20 66 be b0 0a d5 3d
       -0.15197814 -0.4607629 -0.22473374 0.10402429
000180 3f 85 36 3e 72 bf e9 3d d8 77 11 3d e7 d1 34 3e
       0.17824267 0.114134684 0.035514683 0.17658196
000190 99 0c eb 3d 55 cb 7a bd a4 77 86 3d bc 9a 1a bb
       0.11477012 -0.06122907 0.065657884 -0.0023590764
0001a0 7d e2 d5 bc e7 35 2e 3e 9a 0e 96 3e 7d ac 51 3e
       -0.026108975 0.1701275 0.29308015 0.20475955
0001b0 41 fa 43 bd 7a c0 3c be ba c1 2c 3d e3 e0 49 be
       -0.047846083 -0.18432799 0.04217694 -0.19714694
0001c0 a0 8c 17 3e 2e 24 de 3d 8f 3c 99 bd af e1 ad bc
       0.14799738 0.108467445 -0.07482254 -0.021225778
0001d0 80 67 35 bd 38 ed 9b be 4c c9 c3 bd 12 c2 17 3c
       -0.04428816 -0.3045442 -0.09559879 0.009262579
0001e0 33 91 22 3e b8 20 40 bd e5 69 a8 bd 70 ce ff 3e
       0.15875702 -0.046906203 -0.08223323 0.49962187
0001f0 ca c6 e2 3c e0 20 98 3e 3e aa 16 bd 5b cd 8d be
       0.02768268 0.29712582 -0.03678345 -0.27695736
000200 1c c4 01 3e 64 ff 8e 3d b0 5b f5 3c 2d 28 3f bf
       0.12672466 0.06982306 0.029950947 -0.7467068
000210 f0 11 cc 3d 19 47 a7 bd 2e b4 b0 be 5c 9e 4a 3e
       0.09964359 -0.08167858 -0.34512466 0.19786972
000220 9e 87 1b be fe c7 88 bd b8 d0 13 3e 54 a4 14 3d
       -0.15188453 -0.066787705 0.14435089 0.036289528
000230 47 be f4 bd 47 52 34 be 7c 59 c8 be 58 28 a3 be
       -0.11950355 -0.17609511 -0.3913077 -0.31866717
000240 d4 e5 e7 be c4 d8 d7 bb 94 16 1d 3d d3 ed 57 3e
       -0.45292532 -0.00658712 0.03835161 0.21086816
000250 e4 0f b6 3e c1 5d b0 3d 78 2d 90 3e 30 b5 e2 3d
       0.35559 0.08611632 0.2815969 0.11069715
000260 0d 05 12 bd 0c 87 36 bf 03 54 1d bf b8 44 ad bc
       -0.035649348 -0.71299815 -0.61456317 -0.021150932
000270 13 6d 01 3e 19 b7 6e 3e d9 44 bf bd 63 32 2a bd
       0.12639265 0.23312034 -0.093393035 -0.04155196
000280 7c 1e 03 bf b3 d4 e1 3e fd 80 ee bc 67 70 91 bd
       -0.5121839 0.4410759 -0.02911424 -0.07101517
000290 9e 1b 61 bd 79 ed 4b 3d 76 52 93 be 3a b7 84 bd
       -0.05495798 0.04978702 -0.2877385 -0.0648026
0002a0 b7 6a 0f bf 47 a5 69 3d cc 26 2f be 69 54 00 ba
       -0.5602221 0.057042386 -0.17104644 -0.00048953906
0002b0 cc 17 9b bc 7c a9 a9 3d 8e ec 9b bd 71 56 89 3e
       -0.018932246 0.0828428 -0.076134786 0.26823762
0002c0 d6 48 37 be 20 04 5a be 3a b7 e9 bd cb 6d eb 3e
       -0.17898878 -0.21290636 -0.11411901 0.45982203
0002d0 ff f7 73 3e c0 c8 8d 3e f0 62 02 3c 39 05 a0 bd
       0.23825072 0.27692223 0.007958159 -0.07813496
0002e0 46 0a 40 bd 73 8d 0d bf ab ed 01 bd 11 49 17 be
       -0.046884798 -0.5529396 -0.0317208 -0.14773966
0002f0 54 4f dc bd bd 23 ef bd 11 a7 f2 bd 6a f8 ad 3d
       -0.10757318 -0.116767384 -0.11848272 0.08494647
000300 8a 94 14 be 0f cc 03 be f2 3e b9 be 78 4c 0a 3d
       -0.14509788 -0.12870811 -0.36180836 0.033764333
000310 43 e1 ab bd dc ae cb 3d d4 6e df 3e 29 e9 85 be
       -0.08392575 0.09945461 0.43639243 -0.2615445
000320 ef 4e 19 be aa c6 45 3e 23 b0 ab bd c8 2b 80 be
       -0.14971517 0.19314066 -0.08383205 -0.25033402
000330 88 3c 83 3d 7e ab 06 3e fc 7d 3b 3e db 97 e4 3d
       0.0640803 0.13151357 0.18309778 0.11161777
000340 73 67 67 3e f6 a9 c6 3c de 13 64 be aa e1 bd bd
       0.22598056 0.024250966 -0.22273204 -0.09271558
000350 f7 94 9a bc 03 f3 31 3e 7b 97 f3 bd 3f f1 0b be
       -0.01886986 0.17377858 -0.11894127 -0.13666247
000360 fd 6f 68 3d b3 52 98 3e 97 82 e0 3e ea b1 ec 3d
       0.056747425 0.29750594 0.43849632 0.11557372
000370 cf 43 c3 bd 6f ee e5 be 82 d9 66 3d 01 ba fb 3d
       -0.09534418 -0.44908473 0.056359775 0.12291337
000380 f6 bb a9 3e f6 c9 d7 be fc 2d 6c bd 7f bb 48 be
       0.33151215 -0.4214627 -0.05766104 -0.19602774
000390 cd f2 94 bd 2b 21 43 be 8f 5a 9b 3e 33 7d 6b 3e
       -0.07272873 -0.19055621 0.30342528 0.22996978
0003a0 2c 1f c8 3e 9e 8d 9f bd e4 ef 39 bf 41 37 eb 3e
       0.39086282 -0.07790683 -0.7263167 0.45940593
0003b0 71 59 2b 3e e0 53 96 be 50 a7 e2 3d 90 dd 53 be
       0.16733338 -0.29360867 0.110670686 -0.20689988
0003c0 5e 71 56 3e 90 83 62 3e 59 ae 57 3d 7f 0a 48 be
       0.20941684 0.221205 0.052656505 -0.19535254
0003d0 10 ed af 3e e9 35 a5 be 62 61 bd 3d 2c de 2d 3e
       0.34360552 -0.32267693 0.0924709 0.16979283
0003e0 2a 82 4e be 06 7d c6 3e 72 41 ca 3d 14 86 87 3b
       -0.20166841 0.3876726 0.09875764 0.0041358564
0003f0 40 aa 54 3e 67 00 eb 3c 59 b7 34 3e e0 ef f4 3d
       0.2076807 0.028686715 0.17648067 0.11959815

bias f4 [64]
000000 27 e0 44 3e f7 ea d6 bc 50 93 8c be ca 19 8c 3e
       0.19226132 -0.026235087 -0.2745614 0.27363425
000010 db 26 07 3d 53 75 9e bd d6 7b f8 3d 04 4a 7d be
       0.03299604 -0.077372216 0.12132995 -0.24735266
000020 43 dc f2 bd 71 e6 09 be f8 4e ed 3c 02 42 5f 3d
       -0.11858418 -0.13466813 0.02896832 0.05450631
000030 e0 04 cf 3e c9 71 cb 3d 94 da b6 3d b1 30 6d 3e
       0.40433407 0.09933812 0.08928409 0.23163106
000040 bb f3 8f be 5e 03 1d 3d c3 16 58 be c0 f2 ad bd
       -0.2811564 0.03833329 -0.21102433 -0.084935665
000050 d5 d9 7c 3c ef 14 51 3e 7e fa eb bd c2 3b 2e be
       0.015432795 0.20418142 -0.11522387 -0.17014983
000060 10 93 7a 3e b5 d8 ed 3e e0 02 43 3d 42 75 f0 bd
       0.24470162 0.46454397 0.047610164 -0.11741115
000070 86 95 d2 3d e7 a3 48 3e 50 39 02 3e 1e f9 2c 3c
       0.102824256 0.19593774 0.12717175 0.010557441
000080 98 48 d5 bd 8f 36 a5 bc 6e 6e 3f bc ec 46 a5 be
       -0.10414237 -0.020167617 -0.011684043 -0.32280672
000090 e9 79 9c 3e 88 2a d9 be 52 3d 08 3d 4e 3c 2e be
       0.3056176 -0.4241526 0.033261605 -0.17015192
0000a0 c4 72 89 be 01 65 af 3d 53 25 d6 3c c8 6f 92 be
       -0.26845372 0.08564187 0.026140844 -0.28600907
0000b0 29 cf 94 bd f4 28 f4 be 3b 69 ad 3e 62 5a 9e 3e
       -0.07266075 -0.47687495 0.33869347 0.30928332
0000c0 18 2e 3a 3e b4 be a5 3e 3b 50 89 bc c3 83 8b bd
       0.18181646 0.32372057 -0.01676189 -0.06812241
0000d0 95 4b c7 3e 37 87 96 3d 19 1a 7a 3e ba 69 06 be
       0.38924852 0.07350009 0.24424018 -0.13126269
0000e0 50 53 42 be be 72 40 3e 05 60 1e 3e 24 15 c5 bd
       -0.18977094 0.1879377 0.15466316 -0.09623173
0000f0 59 a5 11 be e6 f6 00 be 1b ea db bd d2 85 9d be
       -0.14223231 -0.12594184 -0.107380114 -0.3076616

weight f4 [64, 64]
000000 7f 75 f5 be d9 c4 d8 be 27 bc 9a 3e 18 63 de 3c
       -0.47941205 -0.42337683 0.30221674 0.027146861
000010 0e b2 91 3e 3a 64 4e 3d 81 78 04 3f e6 8c 88 3f
       0.28456157 0.050388552 0.51746374 1.0667999
000020 ad 03 8a bf ff 19 1f bf a2 7c 52 be 7c fa 1d 3f
       -1.0782372 -0.6214904 -0.20555356 0.61710334
000030 50 9d 0d bf 39 f4 f5 3d 4f 53 26 3f 7c 1b cf bd
       -0.55318165 0.120094724 0.6497087 -0.10112664
000040 e7 24 5e bd 64 3d 2c be e5 1a 8f 3a 40 b6 d4 3d
       -0.05423441 -0.16820294 0.0010918049 0.10386324
000050 57 95 c7 3e 0f eb 86 be ab fc d4 bd 37 ae 9f 3e
       0.38981125 -0.2635121 -0.10399755 0.31187603
000060 fc 5b 68 bd 89 2d 3f 3e 7b 12 a0 3d cd d2 0e 3e
       -0.056728348 0.18669714 0.07816025 0.13947602
000070 3d 64 45 bd f3 b8 6d be c5 a6 ff 3d 16 89 93 be
       -0.048191298 -0.23215084 0.12482981 -0.28815526
000080 2d 32 25 3f 97 44 ab 3d 6b 9d 12 bd 1f 36 8d be
       0.6452969 0.08362692 -0.035794657 -0.27580354
000090 00 72 8b 3e 66 d9 69 3e 24 39 bb be c4 cc f6 3e
       0.27235413 0.22836837 -0.36567032 0.482031
0000a0 62 ed 86 be e8 ee 97 3e c3 c8 6c bf 1b be 63 bd
       -0.26352984 0.29674459 -0.9249384 -0.05560122
0000b0 ee 3e 58 3e dc 56 90 3d 28 c7 4c be 1c 8d a2 be
       0.21117756 0.07047817 -0.19997847 -0.31748283
0000c0 50 0a 5b bf 21 b0 fc bd c6 f1 24 3f 2c 70 06 bf
       -0.8556261 -0.123382814 0.64431417 -0.5251491
0000d0 47 9f 26 bf d0 e3 63 3e 42 4a a9 3e 97 ec 09 3e
       -0.6508679 0.22254872 0.33064467 0.13469158
0000e0 fb a2 12 bf b9 be 28 be 06 76 1a 3c b5 2f 93 3e
       -0.5727994 -0.16479005 0.009427553 0.28747335
0000f0 77 6f fc be b2 d7 14 be 2e d3 8d be b1 4b c1 3e
       -0.4930379 -0.14535406 -0.2770018 0.3775306
000100 99 0b 19 3e 0f 85 44 be cf 58 56 3e 6d e7 85 be
       0.1494583 -0.19191383 0.20932315 -0.26153126
000110 8a ba 4c bd 8d 10 47 be 55 fb 4e bd a4 e6 15 3e
       -0.049982585 -0.19439907 -0.050532658 0.14638764
000120 4f d7 d5 bb 78 55 b0 bd ff 4c 22 3d 5f 05 26 3e
       -0.006525911 -0.08610052 0.03962421 0.16212986
000130 d8 6b 13 3e 45 88 b0 3d b5 c1 33 3e dd 04 0c 3f
       0.14396608 0.08619741 0.17554362 0.5469492
000140 51 54 fc 3d ca c4 18 3e 36 88 42 be b5 0b 0b bd
       0.123207696 0.14918819 -0.18997273 -0.03394671
000150 75 6b 2e be 78 f2 71 3e b9 70 cc bd 57 a7 1f be
       -0.17033179 0.2362765 -0.09982438 -0.15591179
000160 cb 07 df bd ca 3d ab 3d e8 70 07 be 94 c8 a8 bd
       -0.10890158 0.08361395 -0.13226664 -0.08241382
000170 df c3 5a 3b bc ae 09 3e 8a 7a 86 bd 48 6e 9b 3d
       0.0033380908 0.13445562 -0.06566341 0.07589394
000180 0e 2b 94 be 11 62 a2 bb 91 2d a3 bd 13 0f 58 be
       -0.28939098 -0.004955538 -0.079676755 -0.210995
000190 02 30 84 be ca 4f bf 3e bc 30 d6 3e 8c 83 b4 be
       -0.25817877 0.37365562 0.41834056 -0.35256612
0001a0 92 08 16 3f 2c 84 cb 3c 1f 20 a5 be 47 5a cf 3e
       0.5860683 0.024843298 -0.3225107 0.40498564
0001b0 13 dd 13 bc 91 13 70 3e 4a b9 ca be 42 67 65 3d
       -0.009024876 0.23444964 -0.3959449 0.056006677
0001c0 cc fb ae bd 36 d4 b8 bc a2 d1 0e 3f 52 d2 f8 bc
       -0.0854412 -0.022562128 0.55788624 -0.030373726
0001d0 26 22 14 be fc 99 ba 3e ff 61 4e 3e cb 55 9e 3e
       -0.14466152 0.36445606 0.2015457 0.3092483
0001e0 04 96 ff be fa 49 98 bd 05 f5 91 be 57 94 ac bd
       -0.4991914 -0.07435985 -0.28507248 -0.08426731
0001f0 ba 67 88 be cf 03 bc be 65 20 a1 be 47 16 d2 3d
       -0.26641637 -0.36721656 -0.31470028 0.10258155
000200 dc 93 bd bd e6 b9 ee bc 87 b0 bf bd e9 35 8e 3d
       -0.092567176 -0.029141378 -0.09359842 0.06943876
000210 bd 9d 2d 3c 6a 62 69 be 56 cf 4a 3e e4 51 f8 be
       0.01059669 -0.22791448 0.19805655 -0.48499978
000220 40 db b4 be 23 46 3b 3c 75 d3 75 3d e6 f3 98 be
       -0.35323524 0.011430296 0.060016114 -0.2987358
000230 19 8b 86 3d e4 3d 16 3e c0 ab da 3d 39 84 2c 3d
       0.065694995 0.14672047 0.1067729 0.042118285
000240 ae a0 1f 3e f4 3d e1 3c 3a 95 e6 bc 3d b3 44 be
       0.15588638 0.027495362 -0.028147329 -0.19208999
000250 c3 7d dd 3d be 1c 8b 3d 19 88 60 3e 55 4c 21 3f
       0.10815003 0.067925915 0.21926917 0.630071
000260 b9 fa 80 bc 5e a7 2e 3e 1d f9 56 3e 08 a6 ac 3c
       -0.015744554 0.17056033 0.20993467 0.021075264
000270 50 6a e3 bd f2 12 26 3e b8 8b 24 3d d3 9a 30 3e
       -0.11104262 0.16218165 0.04017231 0.17246561
000280 6b 1c e1 3d 07 fe 13 3d a4 a7 77 be 3a 09 36 3f
       0.109917484 0.03613093 -0.24185044 0.7110783
000290 57 85 93 3e f2 2d b7 3d d6 be 3f be f7 2c 44 3d
       0.28812668 0.0894431 -0.18725142 0.047894444
0002a0 db 58 bd bd cf 5a 27 3e a8 b0 9e bd 97 d1 5c 3e
       -0.092454635 0.16343234 -0.07748538 0.21564327
0002b0 83 5c bf 3c ec fc 0f be df 03 c4 3e 77 3f 6d 3e
       0.023359543 -0.14061326 0.38284203 0.23168741
0002c0 bf c9 2e bd 6e 79 d2 3d 2d ba 98 bd c1 28 85 3e
       -0.04267287 0.10277067 -0.07457385 0.26007655
0002d0 b3 e3 ad bc c4 67 3b 3e a1 ca 6a 3e 7d a4 a1 3d
       -0.02122674 0.18301302 0.2292886 0.07892702
0002e0 dd 62 8b bd f6 ab 8f bb 94 29 cd 3c e3 c6 5d be
       -0.06805966 -0.004384513 0.02504424 -0.216579
0002f0 0a 29 3a 3d 71 1c 51 bb 8e 2d 73 3e 38 37 ed bd
       0.045449294 -0.0031907822 0.23747846 -0.11582798
000300 2e f4 5b 3e 4b b2 65 3c c7 ef a3 be 26 6b 89 3c
       0.21479866 0.014019559 -0.32018873 0.016774725
000310 08 28 e0 3c af 96 17 3d fc 1f 79 be 37 48 78 3e
       0.027362838 0.037008937 -0.24328607 0.24246298
000320 71 e2 cf 3e 62 32 8e 3e 4c 88 84 be 31 6a b4 be
       0.4060245 0.27772814 -0.25885236 -0.35237268
000330 1c 23 3b bd 15 f4 4f bb 5a ee 6f be 70 7b 95 3e
       -0.04568778 -0.0031731178 -0.23430768 0.29195738
000340 ac 52 97 bd 54 5e 8c 3d 16 0c 93 bc 78 8b 9d be
       -0.07388815 0.06853929 -0.017950099 -0.3077047
000350 04 be 21 3d 08 9c 24 3e 9d f9 70 bb 00 0f 66 3b
       0.039487854 0.16075146 -0.0036769875 0.0035104156
000360 a8 3c c8 bd 52 0c 95 bd 97 f7 0a 3e 83 fa 8a 3c
       -0.09777194 -0.072777405 0.1357101 0.016965156
000370 cf 88 08 3e cc ee f8 3d f2 55 14 3e 5f 9a 65 3e
       0.13333438 0.12154922 0.1448591 0.22422169
000380 1d bf 05 3d 1b c1 0d 3d 52 0b 21 3e 89 03 4b be
       0.032652963 0.034607988 0.15726975 -0.19825567
000390 02 1e bc 3d 64 71 08 bf 5a b7 9e 3e db f0 4e be
       0.09185411 -0.5329802 0.3099926 -0.20209067
0003a0 58 53 81 3e ba 7d 97 bc 96 ac 26 3f e6 7e 73 3e
       0.252589 -0.018492568 0.65107095 0.23778877
0003b0 39 c9 35 3e df b8 49 be fc 94 62 3e 23 5e ef 3c
       0.17752542 -0.19699429 0.22127146 0.029219693
0003c0 5c 7b fa 3e 4f e8 81 3e 48 e0 86 be 9b aa 5f 3e
       0.4892224 0.2537255 -0.26342988 0.21842425
0003d0 16 37 26 3f 5e 53 de be e9 7d 33 be 68 79 a1 bc
       0.64927804 -0.4342298 -0.175285 -0.019711211
0003e0 7f 72 30 3f a6 c3 90 bb d8 f6 f1 bd 83 df 3d be
       0.6892471 -0.0044178544 -0.1181466 -0.18542294
0003f0 83 a8 6e 3e c7 95 27 3e 25 65 2c 3e 2e 45 35 be
       0.2330647 0.1636573 0.16835459 -0.17702171

bias f4 [64]
000000 b8 a2 40 bf bb 33 e4 bd 58 2b 81 3c 41 57 c6 3d
       -0.7524829 -0.11142679 0.015767738 0.09684611
000010 1f dd 07 3e 16 96 80 3d 7b 37 d5 bd 16 1b 5a bd
       0.13267945 0.062786266 -0.10410973 -0.053248487
000020 8a a1 da be ee 94 5b 3e 3c 8f e8 3e 99 95 88 3d
       -0.4270137 0.21443531 0.4542178 0.066691585
000030 0c f3 19 bd b1 ab 8a 3c 99 9b d9 3e 72 cb 69 be
       -0.037585303 0.016927572 0.42501524 -0.22831514
000040 18 a1 38 be f7 27 67 3e b0 d5 f8 3e 3b 91 38 3e
       -0.18030202 0.22573839 0.4860053 0.18024151
000050 ce b8 ca bd ce 67 37 bd 14 23 1b 3c d9 2f 75 3f
       -0.0989853 -0.04477673 0.0094688125 0.95776135
000060 2b e5 26 be 2a 7e 5c 3e 65 53 49 bd a7 9c a7 3e
       -0.16298358 0.21532503 -0.049151797 0.32736704
000070 f9 5a b3 3c c2 07 2c 3d 5d 24 80 be 13 d5 b1 3e
       0.021893965 0.041999586 -0.25027743 0.34732875
000080 35 9e ef bd f2 86 95 be 8a af 4a be 12 bd 08 be
       -0.117000975 -0.29204518 -0.19793525 -0.13353375
000090 67 34 08 3e 81 c3 b9 be 5c 64 56 3d 19 06 22 3e
       0.1330124 -0.3628197 0.052341804 0.15822639
0000a0 cd 08 d3 bd 1a 2b 73 bd b0 e7 77 be 03 15 18 3c
       -0.10304413 -0.059367277 -0.24209476 0.009282353
0000b0 b8 88 83 be bd 78 fe bc 15 08 87 be 33 f4 c0 3d
       -0.25690246 -0.031063432 -0.26373354 0.09421577
0000c0 b8 02 8f be 90 1b 5d 3d 29 df f9 3d 9b 8b da be
       -0.27931762 0.053981364 0.122007675 -0.42684636
0000d0 d2 39 3c 3e 08 1b 4e 3e 2a 45 91 3e 59 5c 8e 3d
       0.18381432 0.20127499 0.2837308 0.06951208
0000e0 78 e2 9b bd f8 d4 5b bd a3 a0 49 3e 07 75 00 3e
       -0.07611555 -0.0536699 0.19690184 0.12544642
0000f0 25 4c 39 3d 7e 03 fc 3d 7d 1e 93 3c 7f 0b 60 be
       0.045238633 0.123053536 0.017958874 -0.21879385

weight f4 [64, 40]
000000 a2 86 37 be b1 2c d0 3e dc 08 1c 3e bc 59 8e 3e
       -0.17922452 0.40659097 0.15237755 0.27802837
000010 0a e1 c0 3d ae f9 09 3f f7 ee b2 bd ee 77 5e bd
       0.09417923 0.53896606 -0.08736985 -0.054313593
000020 54 56 a8 3f d0 85 61 3e da 2b 88 3c 9e 3e 9a 3c
       1.3151345 0.22023702 0.016622473 0.018828686
000030 f8 e7 82 3d f1 d6 30 be b8 da 9c 3f 15 e3 80 3f
       0.06391901 -0.17269494 1.2254248 1.00693
000040 77 cc ac bd 36 60 f8 bc 85 9a d4 bc 1e 8c cc 3e
       -0.08437436 -0.030319314 -0.025952587 0.3995065
000050 f8 23 a8 3d 4b 90 20 be ca cd 83 be 09 a6 8e 3d
       0.082099855 -0.15680043 -0.25742942 0.069652624
000060 c8 7c 92 3d 7b 65 5a bd 55 aa 18 3e 6b 5b 8e bd
       0.071527064 -0.053319436 0.14908727 -0.0695103
000070 ad 8d f9 3e f7 ef 95 be 74 7c a9 3d 0e 3f a4 3e
       0.48740903 -0.2928464 0.08275691 0.32079357
000080 86 09 b7 be c0 9a 0f bd 90 29 bc 3b e8 3d 3b b9
       -0.35749453 -0.03505969 0.0057422593 -0.00017856772
000090 37 72 04 bf 31 d2 07 3d 03 6e 1f be 0a 99 44 bd
       -0.5173678 0.03315944 -0.1556931 -0.047997512
0000a0 23 2f 8b be ca 91 de 3d 87 1d 97 be d9 35 1b 3e
       -0.271844 0.10867651 -0.29514715 0.1515726
0000b0 03 53 05 3e 4b 73 fd be ae 77 b7 bd 1c e9 fb bd
       0.13019948 -0.49502024 -0.08958374 -0.123003215
0000c0 b1 a6 a4 bf fe 18 a3 be 1a e4 26 3e ae a9 16 3d
       -1.286337 -0.31855005 0.16297951 0.036782913
0000d0 e3 b3 34 be 05 fe 7a 3e 4d b3 72 bf b9 b4 54 bf
       -0.17646746 0.24510963 -0.9480484 -0.8308826
0000e0 de 63 2f b8 09 b4 f0 3d 3f 1d c4 3d 82 26 60 be
       -4.181626e-05 0.11753089 0.09575891 -0.2188969
0000f0 49 13 96 3e 99 19 32 bd cb 62 a1 3d 7b 4b 42 3e
       0.29311588 -0.043481443 0.078801714 0.18974106
000100 6c 96 83 bc 53 0d 22 3c 15 55 3f be cb 09 03 3d
       -0.016062938 0.009890872 -0.186848 0.03199176
000110 1c f3 7f 3d 5d 84 eb 3e 39 d8 15 3d c4 0c 8a bc
       0.062487707 0.45999423 0.03658316 -0.01685179
000120 ca d8 b4 bc c1 0d 5d 3d 28 ca 83 3d 7d 0b 50 3e
       -0.02207603 0.053968195 0.064350426 0.20316882
000130 b4 45 80 be e4 31 0b be af cb 06 bc a1 be fa 3c
       -0.2505318 -0.1359325 -0.008227273 0.030608477
000140 ca f3 1b 3e 05 05 17 3c 59 87 7e bd 92 42 1c be
       0.15229717 0.009217505 -0.062140796 -0.1525977
000150 0f e4 5b 3d 4c 7c 98 bd f2 db 7b 3e de ac 2e be
       0.05368429 -0.07445583 0.24595621 -0.17058131
000160 7f f8 ef 3d 8d 1f b3 3e 24 76 f3 3d 9c de 20 3e
       0.11717319 0.3498501 0.11887768 0.15709919
000170 97 3c 10 3e 3f 6b 7e 3d 9e dd ee 3e 08 a5 ab 3e
       0.14085613 0.062113997 0.46653455 0.33524346
000180 f7 d3 90 bc 3e d2 bb 3e 19 d3 ef bd d3 ab a0 be
       -0.017679198 0.3668384 -0.117101856 -0.3138109
000190 b3 28 55 be c7 c9 c2 3d ae 09 7c bb 19 16 65 3e
       -0.20816307 0.09511142 -0.0038457918 0.22371711
0001a0 a6 1d 05 be d5 92 9f be 9a 9d 14 3e 61 2f f9 bd
       -0.12999591 -0.3116671 0.14513245 -0.1216724
0001b0 b6 5a 38 3e 01 1e d4 bd 88 ca a2 3d 32 8f 62 bd
       0.18003353 -0.10357285 0.07948786 -0.055312343
0001c0 c8 4a 88 be 89 bf bf 3d 2b 69 9d be 69 bd dc be
       -0.26619554 0.09362704 -0.307443 -0.43113258
0001d0 22 33 27 be 2f a2 8b 3d 9f 61 a3 3d b9 09 be bd
       -0.163281 0.068180434 0.07977604 -0.09279198
0001e0 2f 2d 28 3e 51 21 23 be ca ad 61 3e b5 68 9d 3d
       0.16423486 -0.15930678 0.22038952 0.07685987
0001f0 4b f6 d2 3d eb 6c b1 be 25 7e c2 3e d6 c4 06 3e
       0.10300883 -0.3465341 0.37986866 0.13161024
000200 ee 91 13 bf 5e b7 5c be 45 ec 8c bc fb 66 45 3d
       -0.57644546 -0.21554324 -0.017202506 0.048193913
000210 8b a9 9e 3e 88 10 b4 bd 5d c1 58 be 39 20 85 be
       0.30988726 -0.087922156 -0.21167512 -0.26001146
000220 b1 48 b1 3e b8 bb a0 be 99 0e b5 3d 8c 6b c9 bd
       0.34625772 -0.31393218 0.08840675 -0.09834966
000230 a7 88 8f 3e 9f e5 28 be 7b 31 75 3d fd 93 bf bd
       0.28033945 -0.16493843 0.05986164 -0.093543984
000240 e9 3f 20 be b9 dc 2b be 3e ef 68 be 63 5f dc 3d
       -0.1564938 -0.16783418 -0.22747514 0.10760381
000250 21 28 b4 3e 3c 41 d1 bc bd 46 af bd 1b 48 77 3e
       0.35186866 -0.025543801 -0.08558414 0.241486
000260 15 65 d5 bd b1 b5 0e 3e f5 f4 7d 3e 68 15 0b 3f
       -0.104196705 0.13936497 0.24800475 0.5432954
000270 09 a5 ed bd 95 61 2d be 3a 99 52 be 58 c7 0a 3f
       -0.116037436 -0.16931756 -0.20566264 0.54210424
000280 d4 59 87 be fd f9 57 3e c9 99 50 3e 1e 8b 30 bd
       -0.2643572 0.21091457 0.20371164 -0.043101422
000290 ef db 52 be 49 d0 8a bd 84 94 68 3e 2e 3c 5c bd
       -0.2059171 -0.067780085 0.22712904 -0.05376833
0002a0 68 b8 85 3e e2 9c 8b 3c 31 3a 8d be 5f 02 a0 3e
       0.26117253 0.017042581 -0.2758346 0.3125181
0002b0 83 4d 01 be 56 a7 e8 bd 06 a0 8e 3e e6 a6 25 3e
       -0.12627225 -0.11360042 0.27856463 0.16176948
0002c0 01 2d aa 3e e6 ee 3f bd 9d 50 75 be 2f 32 91 bd
       0.3323746 -0.04685869 -0.23956533 -0.0708965
0002d0 da 62 60 be 43 7b 6a be 1a 96 98 3e 29 bd 06 3d
       -0.21912709 -0.22898583 0.29802018 0.03289524
0002e0 42 9b 80 3d 89 13 e2 be 12 0b 79 be bb 40 1e 3d
       0.06279613 -0.4415553 -0.24320629 0.03863595
0002f0 ec 78 25 bf 78 31 46 3e e9 be 90 3e bb bb 56 3e
       -0.6463764 0.19354808 0.28270653 0.20970051
000300 82 36 e2 3d 85 76 57 be ea 39 67 be 64 81 20 be
       0.11045553 -0.21041305 -0.22580686 -0.15674359
000310 d4 ba 83 bb 8d a3 84 3b 05 a6 57 3e 66 68 9e be
       -0.0040200744 0.004047817 0.21059425 -0.30939025
000320 32 5f d1 3d 39 31 4e bb 2d 83 04 be db 76 85 bd
       0.10223235 -0.0031462444 -0.12940665 -0.065168105
000330 21 73 76 3e 6e fc 86 3e 18 23 c5 bd 17 30 dc 3d
       0.24067356 0.26364464 -0.09625834 0.1075136
000340 55 5a da 3d 11 8d a8 3e 83 27 90 be c0 98 2a be
       0.10661761 0.32920125 -0.28155145 -0.16659832
000350 09 ab 81 3d 51 93 c3 bd 87 ae 89 3e 22 4e bc 3e
       0.063314505 -0.09549583 0.26890966 0.3677836
000360 a3 f3 81 be 4f 96 21 be 50 7c 0c 3e 77 44 79 bc
       -0.25381193 -0.15779994 0.13719296 -0.015214077
000370 ed 6e 4f 3e 38 63 7c 3c ed 5a 1f 3c 44 94 95 3e
       0.20257159 0.015404515 0.009726268 0.2921468
000380 5e a5 09 be 1f 60 3c 3c ca f4 27 bf 6c c9 1b 3d
       -0.13441989 0.011497526 -0.65607893 0.038033888
000390 0a e5 1c bf b6 43 ba 3d 5f 28 98 bd e4 3a bd 3d
       -0.61286986 0.09094946 -0.07429575 0.09239748
0003a0 6a 3c bd be 46 a4 0c bd 03 95 26 bf a7 35 00 bf
       -0.36960155 -0.03433635 -0.65071124 -0.50081867
0003b0 e1 8f 9e 3e 81 81 88 bb eb 6f f1 bb 07 1f 41 bd
       0.30969146 -0.0041658287 -0.007368078 -0.04714873
0003c0 9e c7 d2 bd 0b 7a 18 3e ba e3 a1 bd d7 f0 7e bd
       -0.1029198 0.14890306 -0.079047635 -0.0622414
0003d0 c5 d4 ed 3d d7 16 b5 3e 9e bb 69 bd dc 1a ba bc
       0.11612848 0.35368988 -0.05706369 -0.022717886
0003e0 53 8e 9b 3f 6e 0e 3c 3e 49 1e e9 3d 16 53 a2 be
       1.2152809 0.1836488 0.113827296 -0.31704015
0003f0 db ea 1c 3e 72 30 5d 3d 6b b1 9a 3f 77 4c 78 3f
       0.15323965 0.05400128 1.2085394 0.96991676

bias f4 [64]
000000 8c 45 8b be c1 26 4f 3e 21 40 a8 3e 0c 8e 59 be
       -0.27201498 0.20229627 0.32861426 -0.21245593
000010 e0 7e e9 3e 20 dd 0e 3e 4c 9b ab be 03 eb 96 3d
       0.4560461 0.1395154 -0.3351692 0.07369044
000020 55 8e 1a 3d 67 d0 fb bc 55 b8 4d 3e 6b 94 1d 3f
       0.037733395 -0.030739022 0.20089848 0.6155459
000030 55 ba bd be 4d 04 07 3f 08 4a 30 3f e9 1a 06 3f
       -0.37056223 0.5274094 0.6886296 0.5238481
000040 c1 1f f2 3d 07 f5 36 be df 10 16 3f 09 d5 96 3d
       0.11822463 -0.17866908 0.58619493 0.07364852
000050 1e 87 26 bd 3d 80 74 3f 13 ed 50 3f 67 b9 c1 be
       -0.0406562 0.95508176 0.81611747 -0.37836763
000060 dd 2d a1 3d 3a 2a f3 be ab 91 93 bb 83 e7 40 bf
       0.07870076 -0.47493154 -0.004503449 -0.7535326
000070 e3 0a 00 3f bb c4 a3 bd 08 c3 cd bd 30 da 08 3e
       0.5001661 -0.07996508 -0.10046965 0.13364482
000080 0e 06 4d 3e 6b dd 8b be 7b 30 19 be 29 38 a6 3e
       0.20021841 -0.27317366 -0.149599 0.32464722
000090 10 07 90 be 63 57 49 3e dc 1f 91 bd e6 57 4d 3d
       -0.28130388 0.19662242 -0.07086155 0.050132655
0000a0 a4 2c 88 3e dd 28 30 3e 80 5f 4c be 1f 12 c4 3c
       0.26596558 0.17203088 -0.19958305 0.023934422
0000b0 07 91 89 3e de 2c 3a bf 45 5c f6 bd 5a 0e ea bc
       0.2686846 -0.7272471 -0.12029318 -0.028571296
0000c0 16 84 f9 3d 7b 07 35 bf a3 1a e4 3d 66 f5 9d 3e
       0.121833965 -0.7071454 0.11137893 0.30851287
0000d0 2c 85 3b 3f ab 4c ba bd 0a 27 cc 3d 66 85 a6 3e
       0.7325008 -0.090966545 0.099683836 0.3252365
0000e0 05 8f 2b bc 4a 77 ab bb 73 09 69 3e 04 b9 04 be
       -0.01047111 -0.005232726 0.22757511 -0.12961203
0000f0 99 85 e5 3d 9f b3 60 bf 64 62 5d 3e 60 16 a5 3d
       0.11207122 -0.8777408 0.21619564 0.08060908

weight f4 [64, 64]
000000 39 be 97 3e 8c 2a 07 bf 29 42 ea be 87 6e 14 3f
       0.29637316 -0.52799296 -0.457536 0.5798115
000010 47 83 e6 be b3 8c 01 bf 9f 18 60 3e 5c cd 97 3c
       -0.45022032 -0.50605315 0.21884392 0.01853054
000020 42 75 fd 3e 33 79 98 3d 76 15 0b be d0 2a 89 bf
       0.49503523 0.07444992 -0.13582405 -1.071619
000030 da 4f 1a 3f b9 d5 69 bf 06 0f 54 bf 04 a9 dd be
       0.60278094 -0.9134174 -0.82835424 -0.4329301
000040 70 e9 34 bf 57 f0 86 3e 92 ae 25 bf 59 5e da be
       -0.706687 0.2635524 -0.647195 -0.42650107
000050 2b cb 68 3e 54 df 18 bf 60 07 4b bf dc 58 95 3e
       0.22733752 -0.5971577 -0.7930813 0.29169357
000060 b9 b8 a0 3c 29 fd 19 3f 43 8d 87 3c 3a 62 dd 3e
       0.019619333 0.60151917 0.016546851 0.43239003
000070 f2 fb bc be 87 a4 07 be 2a b4 10 bd 44 10 42 bd
       -0.3691097 -0.13246356 -0.035328068 -0.047378793
000080 d2 8c 62 3e cf b5 05 3f 09 ce f2 3e a7 95 c1 be
       0.22124031 0.5223054 0.47422817 -0.37809488
000090 5a 5a 24 3f 86 24 ed be 42 fd be be eb 4c c1 3d
       0.64200366 -0.46316928 -0.37302595 0.09438499
0000a0 4e 9d 17 bf a6 eb 24 bf 3a e9 84 be ed aa 7a be
       -0.592244 -0.6442207 -0.25959188 -0.24479266
0000b0 b6 d9 95 be 00 f7 0d 3f e9 fb 2d be a0 ee 1a 3f
       -0.29267663 0.5545502 -0.16990627 0.6052036
0000c0 5d be 8c 3d 6c 79 1b 3f 9d fc c3 be 02 04 12 be
       0.068722464 0.6073215 -0.38278666 -0.14259341
0000d0 e3 85 c9 be 68 73 2c 3f be 1e ca be b8 03 a1 be
       -0.3935996 0.67363596 -0.3947658 -0.3144815
0000e0 3b 47 6d 3f 84 38 08 bf 1a 07 32 3e 03 80 93 3e
       0.92686814 -0.53211236 0.17385522 0.28808603
0000f0 2b 8b 2f bb ce cd 84 3e 7e 78 ca be 77 bd 08 3f
       -0.0026785831 0.25938267 -0.39545053 0.534141
000100 ad 2f 91 bd dc 65 ee 3e 09 05 16 bf da 98 45 3d
       -0.070891716 0.46562088 -0.58601433 0.048241474
000110 2f b7 0f bf 8b 23 94 3e 9a bb 4c be 7a 4b 5e be
       -0.5613889 0.28933367 -0.1999344 -0.2170848
000120 2d 97 29 be b2 91 f5 be ba 35 53 3e 4b 82 d7 bb
       -0.16561575 -0.4796272 0.20625964 -0.0065768114
000130 2b d5 49 3f de 17 08 3e 71 cd 48 bf 71 c2 cf be
       0.78840894 0.13290355 -0.7843848 -0.40578035
000140 7f 10 bc bd b3 ad d0 be eb 1f b3 bd 85 fa 50 3e
       -0.09182834 -0.40757522 -0.08746322 0.20408066
000150 4b 1b 94 bd 51 50 ff be c4 bc 4a bf 62 1c 59 be
       -0.07231768 -0.49865964 -0.79194283 -0.21202233
000160 cb b0 47 be e2 1f 18 3f 9a 44 f5 bd 93 87 1c 3f
       -0.19501035 0.5942365 -0.11975975 0.6114437
000170 94 60 2c bf 0b a3 33 3e da a4 22 3f bf c4 3a 3e
       -0.67334867 0.17542665 0.63532794 0.18239115
000180 c2 15 a2 be 82 7c 51 bd 89 bc bd be 08 98 35 bf
       -0.31657225 -0.05114413 -0.37057903 -0.70935106
000190 40 75 b0 bd 10 ee d6 be ad 7d d8 bc 61 ac b6 3e
       -0.08616114 -0.41978502 -0.026427114 0.3567839
0001a0 21 19 8f 3d 3f 9e 42 be e5 30 d9 3e c5 b4 91 3e
       0.06987215 -0.19005679 0.42420116 0.2845823
0001b0 b4 7e ae 3e b1 7a 1c 3f 1e c9 e7 bd 00 dd ec be
       0.34081042 0.6112471 -0.11317657 -0.4626236
0001c0 8c 4a 14 3e 18 7b 58 3c f4 27 e8 be 1f 00 3f be
       0.14481562 0.013212942 -0.45342982 -0.1865239
0001d0 12 11 b0 be 05 e2 a0 3e 0a ca f8 be 47 36 90 3e
       -0.34388024 0.3142244 -0.48591644 0.2816641
0001e0 e7 34 10 bd ff fa fb 3d 2a 7b d0 be ad 53 1b be
       -0.0352067 0.12303733 -0.40718967 -0.15168639
0001f0 05 68 da be f2 9a 74 3f 73 bd bd 3e 4e 30 b0 3e
       -0.42657486 0.9554893 0.370586 0.34411854
000200 4b bf 84 bf 47 ff 20 3f 05 ae c5 3d a8 76 01 bf
       -1.0370878 0.6288952 0.09652332 -0.5057168
000210 1c 5e 34 3e e9 f8 11 3f 1c 6a 60 bf 24 88 34 bf
       0.17614025 0.5702043 -0.8766191 -0.70520234
000220 62 d7 f5 3e 58 eb e9 3d de d1 d0 3e 6f f6 4c 3f
       0.48015887 0.114218414 0.40785116 0.8006353
000230 b3 de b2 be 14 a4 44 3e 03 f9 93 3e 3f f4 05 3f
       -0.3493553 0.19203216 0.28900918 0.52325815
000240 cd 5e 9f 3d 5b 3a 44 bd 17 f8 d0 3e b1 03 05 3f
       0.07781754 -0.047907215 0.40814278 0.5195876
000250 c4 bb 12 bf 06 e8 ee 3d b8 0b af 3e 17 7c 19 bd
       -0.5731776 0.11665349 0.34188628 -0.037471857
000260 e2 5b 98 3b 6e 17 12 bf 2a d1 0f bf aa b6 0e be
       0.004649625 -0.57067 -0.56178534 -0.13936868
000270 42 5d a8 3e 50 50 5b 3e 49 19 12 3f 98 d5 0c 3f
       0.3288365 0.21417356 0.5706983 0.5501342
000280 39 97 f7 be 8d d7 fa bd 1d d0 d0 bc 04 14 44 3e
       -0.4835756 -0.12248144 -0.025489861 0.1914826
000290 88 8d eb bc df 9a b0 3e 17 46 49 3e a2 50 4c be
       -0.02875401 0.34493157 0.19655643 -0.19952634
0002a0 96 d6 2d 3e 52 03 d6 bc c0 81 75 bd e6 a0 16 3f
       0.1697639 -0.02612463 -0.059938192 0.5883926
0002b0 dd ea 5e 3f 97 f2 8e be ec 22 b0 3e 18 d6 15 bd
       0.8707712 -0.27919456 0.34401643 -0.03658113
0002c0 1f e4 82 be 36 9b 98 be 92 45 02 3e b8 0d 34 3e
       -0.25564668 -0.29805917 0.12721851 0.17583358
0002d0 7b 7f f4 3e fb 42 43 be c6 68 b3 3e 5f 6f 87 3d
       0.4775351 -0.1906852 0.35040873 0.06613039
0002e0 ad 8a fc bd d9 31 34 3f 66 e1 89 be ed 57 99 be
       -0.12331138 0.7038856 -0.26929778 -0.29949895
0002f0 44 b7 a2 3e ba e5 94 be 73 65 d4 3e 8e 02 58 bd
       0.31780446 -0.29081517 0.4148365 -0.05273681
000300 dc e6 94 3e 22 54 35 be e1 3b 0f 3f 3e 8b 56 bf
       0.29082382 -0.17707875 0.5595074 -0.83806217
000310 2d c1 28 3e 3b 60 61 3f c5 ff 6c 3e 51 8d dc bc
       0.1647994 0.8803746 0.23144443 -0.026922854
000320 2f 56 37 3e f5 d8 b5 3f e6 eb 51 be f5 11 5c 3e
       0.1790397 1.4206835 -0.20500144 0.21491225
000330 4a 93 ef be c6 69 cb 3e b3 88 68 3d 35 61 0b 3d
       -0.4679206 0.39729136 0.05677099 0.03402825
000340 c8 83 de 3e 29 1e 04 3f 90 fd 06 bf 20 b2 ba 3e
       0.43459916 0.5160852 -0.52730656 0.36464024
000350 62 c5 01 3e 05 c9 6b be fd ae 95 3d bf 76 80 3e
       0.12672952 -0.23025902 0.07308767 0.25090596
000360 66 cb d4 3f b6 39 fb be c6 fc a2 bd c3 6f 8b be
       1.6624572 -0.49067467 -0.07958369 -0.27233705
000370 e6 88 f2 3e 2d 1c ce 3f 8e 0b 37 3d 32 79 ea 3d
       0.4737007 1.6102349 0.044688754 0.114488974
000380 49 ab b0 be 1b ed 13 3f b0 e1 d8 3e e0 85 0b 3f
       -0.3450568 0.5778367 0.42359686 0.5450115
000390 1d d1 d1 3e a6 95 25 3f 9a 9f 2b 40 e6 57 db bf
       0.40979853 0.6468147 2.6816163 -1.71362
0003a0 a2 73 84 be 16 ae 31 3f 7b 98 93 be 2d 4c e3 bd
       -0.2586947 0.6940626 -0.2882727 -0.11098514
0003b0 b0 14 0e be ea 4f 63 3b 22 42 0e 40 6d 5c aa 3c
       -0.13875079 0.0034685084 2.2227864 0.020796025
0003c0 44 56 f5 bf 2f b5 13 3d 26 26 b2 3d 7b d1 63 bd
       -1.9166951 0.036061462 0.086986825 -0.055619698
0003d0 21 d7 09 be 5f d9 b8 bf d2 24 20 3f ca 24 da be
       -0.13460971 -1.4441336 0.62556183 -0.42606193
0003e0 d1 f0 e3 ba 30 b6 18 3f e8 d5 4e be 95 8d 23 3e
       -0.0017390494 0.59652996 -0.20198786 0.15971978
0003f0 4a 8f 71 3e 04 27 a8 be 65 d4 b2 3e f0 8e b9 bf
       0.23589817 -0.32842267 0.3492767 -1.4496746

bias f4 [64]
000000 ec 5a 42 be 7e 07 ef be d0 1a e1 3d 4c a8 59 be
       -0.18979996 -0.46685404 0.10991442 -0.21255606
000010 2f a5 74 3e ac e4 ac bb cc a0 9d bd 51 85 26 be
       0.23891138 -0.0052762832 -0.07696685 -0.16261794
000020 60 ad fc bd a7 d2 ef bd a6 45 cb bc e4 47 1d bf
       -0.12337756 -0.117101006 -0.024813484 -0.6143782
000030 58 b7 e0 be 9e 24 09 bc 1f ec 89 3e 5b 9d 16 3e
       -0.4388988 -0.008370547 0.2693796 0.14708464
000040 ec 7d 80 be bf 94 ba 3e 99 97 1f bf 2c ee 4e 3f
       -0.2509607 0.3644161 -0.62340695 0.8083217
000050 4f 88 a4 3d 7b 1c 78 be 6b 00 b9 be c7 a5 17 3f
       0.08033811 -0.24229614 -0.3613313 0.5923733
000060 a4 c7 34 3f d9 27 13 be 10 bf 1e bf 6a 26 7f 3e
       0.7061713 -0.1437067 -0.6201029 0.24916998
000070 1f 8e bd be 73 6f a0 bd d8 1f 39 3f 44 b4 1a 3f
       -0.37022492 -0.07833757 0.72314215 0.60431314
000080 7b 06 66 3e 9f 2c 29 bf 90 43 11 be 0a 45 a4 3d
       0.2246341 -0.6608371 -0.1418593 0.08020981
000090 e0 a0 82 3e e2 ef 0b bf 77 c0 d0 be fb 04 3c bd
       0.25513363 -0.5466291 -0.4077184 -0.045903187
0000a0 72 1f 40 3c b6 53 29 bf 6b 4d ae 3e 1a 48 5d 3e
       0.011726247 -0.6614336 0.3404344 0.21609536
0000b0 f2 42 36 3e 46 03 12 bf b2 5a 1e be e8 c5 09 bf
       0.17798975 -0.57036245 -0.15464285 -0.53817606
0000c0 19 ad 41 bd c7 ca 3d 3e 58 af b2 3e 50 90 c1 be
       -0.04728422 0.18534385 0.34899402 -0.37805414
0000d0 41 2c ee bd 11 b8 a9 3d a1 93 c1 be be 2a 65 bf
       -0.116295345 0.08287061 -0.37807944 -0.89518344
0000e0 b4 c7 a9 3e 2c 4b cd be 14 18 92 be 35 ab ce be
       0.33160174 -0.40096414 -0.28533995 -0.40364996
0000f0 84 ad 32 3e 88 31 bc be b2 c0 c6 be 01 d1 de bc
       0.17449003 -0.3675654 -0.3881889 -0.02719927
