results.bk/general/ppo/seed_1_step_50_ms_ce_minp2_maxp_3_mina_2_maxa_4_tn_3000.pt (torch, 120244 bytes, 21 tensors)

weight f4 [64, 40]
000000 ec b7 c6 bb 24 05 c1 bd 42 39 28 bf 14 8e 0a 3e
       -0.0060644057 -0.094248086 -0.6571237 0.13530761
000010 e6 68 53 bf 8b 53 0e be 23 db b2 3d c3 db dd be
       -0.8258194 -0.13899057 0.08733203 -0.43331727
000020 72 5a a9 bd 1b 5e 8e bd 40 23 82 3e 9f 79 06 3e
       -0.08269204 -0.06951543 0.2541752 0.13132332
000030 1d 6b 13 bd e8 53 29 bd 36 48 1a 3c eb 1b 40 3d
       -0.035990823 -0.041339785 0.0094166305 0.046901625
000040 77 aa 3f 3d 03 e6 7f be c2 45 e0 3c 7b ec 55 be
       0.046793427 -0.24990086 0.027377013 -0.20890991
000050 60 13 91 be 0c 6a a9 bd 76 c3 a9 3f 94 8b 84 3d
       -0.28335094 -0.0827218 1.3262775 0.06471935
000060 4b d8 87 3f 1c 06 60 3d ef c8 58 be fb 1d 18 3f
       1.0612882 0.054693326 -0.211704 0.59420747
000070 24 5a 5e 3e 2b a3 91 3e b3 37 31 3e 7b 82 5a 3d
       0.21714073 0.284448 0.17306404 0.053347092
000080 02 2f 3a be 42 9c 6d be e0 fa ae be db 82 18 3e
       -0.18181995 -0.23204139 -0.34175777 0.14893667
000090 ec ca 8b be 04 df e0 3c 5b f5 68 3e 62 55 41 3f
       -0.27303255 0.027450092 0.22749846 0.7552091
0000a0 91 68 cb 3e 87 29 43 3d 15 67 f3 3e 8a 13 8f 3e
       0.39728215 0.047647025 0.47539583 0.27944595
0000b0 91 77 25 3f df 9e 38 be 2a 3d ee 3c fb 86 07 3f
       0.6463557 -0.18029355 0.0290819 0.5294034
0000c0 9e e7 1a 3e c7 32 fb 3d ad bb 3d bd 9d 9e 5f be
       0.15127417 0.122655444 -0.04632156 -0.2183785
0000d0 b2 a6 e7 3d 84 39 a0 3c fc a5 f0 3d c7 b9 37 be
       0.113110915 0.019558676 0.11750409 -0.17941962
0000e0 f9 3b d7 3c 1b 9a 3e 3e db 52 87 be 40 fa c3 3e
       0.026273714 0.18613474 -0.264304 0.38276863
0000f0 3d c1 b7 3c 70 18 0f 3c 05 d6 e8 bf fb b6 1d 3e
       0.02243101 0.008733854 -1.8190314 0.15401833
000100 d1 ed d5 bf 6e d3 dd bd 22 d2 3a be 58 fc 92 bf
       -1.6713201 -0.10831343 -0.18244222 -1.1483259
000110 66 bb 2f 3e 63 99 a0 3c 3a d0 6b be d0 e4 a8 bc
       0.1716133 0.01960439 -0.23028651 -0.020616919
000120 ff bb b9 be 36 e0 01 3e 29 fe 07 3e 7f 95 e3 3d
       -0.36276242 0.12683186 0.13280548 0.111124985
000130 b9 b2 f3 3c d4 59 73 3e 02 27 36 bd e8 bd ac be
       0.029748308 0.23764735 -0.044470794 -0.33738637
000140 1a cf 66 3d 32 fd bf 3d 32 b8 ac 3f 37 f5 de 3c
       0.05634985 0.09374465 1.3493712 0.027216537
000150 30 3c 94 3f 31 2e d2 3f 3f da 8f 3c 4c e5 15 3f
       1.1580868 1.6420346 0.017560123 0.58553004
000160 f5 cc d5 3f f5 06 ac 3d 14 81 83 be af 78 3e 3e
       1.6703173 0.083997644 -0.25684416 0.18600725
000170 f1 d5 e9 be 0e 62 0d be 8a 64 e3 3f 66 f3 fd 3f
       -0.45671037 -0.13806936 1.7765057 1.9839904
000180 4c c1 50 be f1 3e 53 be 91 f8 f6 bd b6 f8 00 3f
       -0.20386237 -0.20629479 -0.12059129 0.503795
000190 31 16 14 3e 0c 95 86 3d 7a 81 81 bb 4c 08 bb 3d
       0.1446159 0.06571397 -0.0039522024 0.09132442
0001a0 40 8c ce 3e 6f 5f 9a be f5 b6 6d be 84 5c 14 3f
       0.40341377 -0.30150935 -0.23214324 0.5795367
0001b0 0e 07 1e be d9 28 b0 3e cc 21 b7 bd 6c cc 11 3d
       -0.15432379 0.34406164 -0.08941993 0.035595343
0001c0 c5 27 b4 bd ed e4 04 be 03 55 fb bd 39 06 96 3d
       -0.08796648 -0.12977953 -0.12272074 0.07325406
0001d0 cf e4 6b 3e b4 24 4b be d8 90 33 bc 92 1d 8b bc
       0.23036502 -0.1983822 -0.010959826 -0.016981874
0001e0 4c 0e 8a 3c 0a 53 58 3e 3d 68 db be 58 32 ea 3e
       0.01685252 0.21125427 -0.42852965 0.45741534
0001f0 10 b3 c7 be 80 47 b1 bd 2f d0 eb 3c 7a 33 23 be
       -0.390038 -0.08656216 0.028785793 -0.15937606
000200 a0 8e 83 bd e0 5b 80 3e 1b 75 ac 3c c0 5b 28 be
       -0.06423688 0.25070095 0.021051934 -0.1644125
000210 c9 65 97 3d a0 68 4d bc 59 d7 46 3d 13 77 da bd
       0.07392461 -0.012537152 0.048545215 -0.10667243
000220 fe d5 08 bc a6 6d 17 3e cd 26 b2 bd ae 3a 77 bd
       -0.008351801 0.14787921 -0.08698807 -0.060358696
000230 bb e0 fc be 8f 82 6c 3e 11 3b ba bf 5a e9 52 3e
       -0.49390206 0.23096679 -1.4549276 0.20596829
000240 25 2e 05 c0 24 44 86 3e 23 28 1c 3e 78 83 84 bf
       -2.0809414 0.26223862 0.15249686 -1.0352621
000250 b6 d3 b0 3e a7 80 c2 3e 83 27 47 be 5c 06 f6 3c
       0.34536523 0.3798878 -0.19448666 0.03003233
000260 fd a2 f3 bd f0 06 3b be fd 63 1e be 12 b3 24 3e
       -0.11896322 -0.18264365 -0.1546783 0.16083935
000270 d5 0f 2f 3d f0 6f 14 be b5 b9 e7 bd f8 02 3d bf
       0.042739708 -0.14495826 -0.11314718 -0.73832655
000280 e1 82 17 3f bd 93 bd bd 0a 81 a2 3e 6b 34 c2 3e
       0.5918408 -0.092566945 0.31739074 0.37930617
000290 38 52 c2 3e 1d 80 21 be 44 68 5c 3e f5 bc af be
       0.37953353 -0.15771528 0.21524149 -0.3432385
0002a0 20 6d 07 bf b4 b9 4f be b2 05 3b 3d 5f a8 62 bd
       -0.52900887 -0.20285684 0.04565973 -0.055336352
0002b0 69 8a 04 be cd ea 6a be b0 bf fa be a5 da 02 bd
       -0.12943424 -0.22941132 -0.4897437 -0.031946797
0002c0 bb c2 2f be 84 1c 31 3d 7b b2 99 3d 1b 84 db 3e
       -0.17164128 0.043240085 0.075047456 0.42874226
0002d0 15 5a c5 3e 4a 9f 77 3e 02 9c 90 3f 57 16 1d bb
       0.3854529 0.24181858 1.129761 -0.0023969614
0002e0 e4 89 3a 3f 8a 7c 90 bd 46 90 bf 3d 78 d1 7d 3e
       0.72866654 -0.07055004 0.0935369 0.24786937
0002f0 fa 6e 53 be 72 18 0d be 57 a9 42 3e d3 73 3d be
       -0.20647803 -0.13778856 0.1900991 -0.18501215
000300 6d 45 6f 3e 23 07 3a 3e d8 42 1f 3e 3b 49 b2 bd
       0.23366328 0.18166785 0.15552843 -0.08705374
000310 67 cf c4 be b5 8a 57 be bd 0f d7 bd 07 28 49 3e
       -0.38439485 -0.21049006 -0.10501049 0.19644175
000320 0a fc 0f 3e 32 7d a9 bd e2 f5 c0 3f b1 b9 47 bd
       0.14060989 -0.08275832 1.5075037 -0.048761073
000330 78 26 be 3f 74 17 b2 b9 51 6f 7d 3e e5 b8 ea 3e
       1.485549 -0.0003396828 0.24749495 0.45844188
000340 aa ef a6 be a8 b2 a8 3d 9b e0 af 3e d1 66 f2 3c
       -0.32604724 0.08237201 0.34351048 0.029590042
000350 b3 f5 2c bd 27 f2 13 3e dc 8c 46 be 55 1f 90 bc
       -0.042226505 0.14447843 -0.19389671 -0.017593065
000360 f7 e8 c5 bd 43 eb d9 bd 6d 4c 3e 3e 80 ac 5d 3e
       -0.09663575 -0.10640576 0.18583842 0.21647835
000370 8b 42 4a 3d 84 06 7d be 30 e8 8d bf 19 ae f5 3d
       0.049379867 -0.24709517 -1.1086483 0.11996097
000380 af 90 92 bf 9e c7 af 3c 81 0c 2c be 44 77 c3 be
       -1.1450404 0.02145749 -0.16801645 -0.3817693
000390 7f 80 57 3e 68 c5 79 3e 2a d3 8d be f3 ab 63 3e
       0.21045111 0.24391711 -0.27700168 0.22233562
0003a0 dd 31 6a be 0a 91 82 3c d0 f7 72 3e ad 6b 08 be
       -0.22870584 0.0159383 0.23727345 -0.13322325
0003b0 86 a9 cf bd 73 0c 0b 3e 8e 1b 92 3d 76 8f 46 be
       -0.10139756 0.13578968 0.07134162 -0.19390664
0003c0 fb 8d 4f 3f ab 55 b4 3d 9e 86 3c 3f 5d df 0e 3e
       0.8107602 0.08805402 0.7364291 0.13952394
0003d0 38 ea ec 3e d6 77 86 3d 27 32 e8 bd c0 c1 ed 3e
       0.46272445 0.06565826 -0.11337691 0.46436882
0003e0 0e d3 28 3d 63 10 dc 3d d2 17 a3 be 30 f0 85 bd
       0.041216902 0.10745313 -0.3185411 -0.06539953
0003f0 f9 e3 08 3e 2d a7 ee 3d 4a c4 26 be 47 49 c7 bd
       0.13368215 0.1165298 -0.16285816 -0.097307734

bias f4 [64]
000000 c6 86 4f bf 72 ac 2f 3e 95 d0 d3 be 67 94 b5 3d
       -0.8106502 0.17155626 -0.41370073 0.08866196
000010 fd ff 81 be 16 40 4b 3e ff 27 35 bf fb 60 3a 3e
       -0.25390616 0.19848666 -0.70764154 0.18201058
000020 f2 41 73 bf 4e 8d af bd 02 e3 57 be 95 05 4d bf
       -0.950225 -0.085718736 -0.2108269 -0.8008664
000030 72 15 a0 3d 63 37 02 be c9 eb 64 3d 3b 95 8f be
       0.0781659 -0.12716441 0.055888925 -0.2804354
000040 43 bd d6 3e 4c db 84 3e 97 f1 d7 bc 35 31 24 3f
       0.4194127 0.2594856 -0.026360316 0.64137584
000050 fe 51 01 3e 63 d6 4e 3f b4 5d 5a 3f 13 25 c8 be
       0.12628934 0.8079588 0.8529923 -0.39090785
000060 44 ed 27 3f 25 d8 14 3f 64 6b 20 3d e0 e9 1c 3e
       0.65596414 0.5814231 0.039164916 0.15323591
000070 c2 4e b7 bd ce 73 4a bf a8 a2 dd be 8b f4 08 3e
       -0.08950569 -0.79082954 -0.4328816 0.13374536
000080 0f 6c d3 be fe cf 47 3d 09 3e 0c 3f d4 91 f7 bd
       -0.4129338 0.04878234 0.5478216 -0.120883614
000090 8d 62 fd 3e a6 bf 4c 3f b7 81 c0 bd 73 93 d0 bc
       0.4948925 0.7997993 -0.09399741 -0.025460934
0000a0 17 cd 99 3d 7a e2 44 bf 72 d9 4c 3f ad 4a 23 be
       0.07509821 -0.76908076 0.80019295 -0.15946455
0000b0 d3 6e 97 3e 18 1b 98 be ce 0d 15 bf 40 a5 47 3f
       0.2957674 -0.2970817 -0.5822419 0.77986526
0000c0 1c 0c a9 3e 51 ed 76 be 6d 1d 48 3e bf 4f 76 3d
       0.3301705 -0.24113967 0.19542475 0.060134646
0000d0 99 20 f4 be b4 6e 1b bf b0 f0 13 3f 25 d9 87 be
       -0.4768112 -0.60715795 0.57789135 -0.26532856
0000e0 a0 41 0b bf d9 0d c3 be 22 1a 26 3f c4 bd 05 bd
       -0.5439701 -0.38096502 0.64883626 -0.032651678
0000f0 0e 3d 92 3e 8f 92 8b bd 73 b0 c4 be 4c ce 5d bf
       0.28562206 -0.06815063 -0.3841587 -0.8664291

weight f4 [64, 64]
000000 1c 08 e7 be b2 04 ed bc cf 23 91 3e c9 51 47 be
       -0.45123374 -0.028932903 0.28347632 -0.19464792
000010 fc ba 52 3e 57 18 b0 be c5 af 2d bf 10 d3 83 3e
       0.20579141 -0.3439357 -0.6784633 0.25746965
000020 ad f6 3c bf 57 2a 82 be 34 bf 4e 3e c0 ae db 3e
       -0.738139 -0.25422928 0.20190126 0.4290676
000030 08 04 02 be 67 be e2 bd 4c 38 55 be 39 9d 88 3e
       -0.1269685 -0.110714726 -0.20822257 0.2668245
000040 5f a7 a1 3d 69 27 a6 3d c6 a5 59 3c 7b 98 01 bf
       0.07893252 0.08112986 0.013284152 -0.5062329
000050 40 fe 3d bd 9c 77 06 be b4 8b 35 3e b9 f0 51 3e
       -0.04638505 -0.13131565 0.17729074 0.20501985
000060 9d 7c 0a bc 49 5e 29 bf 46 f4 07 3e 62 b7 20 3e
       -0.008452562 -0.6615949 0.13276777 0.15694955
000070 ac da 7a bd ff 38 d6 be 2c 14 30 be 20 da ed bd
       -0.061243698 -0.4184036 -0.17195195 -0.1161387
000080 d7 58 32 be 50 07 7a bd 1e b8 b8 3e 47 02 3d be
       -0.17416702 -0.06104213 0.3607797 -0.184579
000090 c9 88 e8 be a4 83 27 3f e4 be 84 3e ca 85 5e 3c
       -0.4541686 0.6543524 0.25926888 0.0135817025
0000a0 f5 35 14 3e ba c4 22 bf ee 86 0b 3f 03 f0 85 3d
       0.14473708 -0.6358143 0.5450276 0.06539919
0000b0 79 43 1d bc 55 c0 13 be 10 2a 28 be 92 b2 38 3f
       -0.009598606 -0.14428838 -0.16422296 0.72147477
0000c0 4b d5 f9 bd 9e 62 81 be c1 3a a7 be 96 4a e4 3e
       -0.121988855 -0.2527055 -0.32662013 0.44588155
0000d0 48 4a e5 3e 53 b6 c4 be 66 c4 93 3e 2c 57 53 3e
       0.44783235 -0.38420352 0.28860778 0.20638722
0000e0 c7 bf 4a be f3 6c b7 3e d8 e8 7b 3e 0d d5 e4 be
       -0.1979972 0.3582531 0.24600542 -0.44693795
0000f0 93 74 77 3e 93 03 2d be 02 e0 a3 3e f0 38 1a bf
       0.24165563 -0.16895895 0.32006842 -0.6024313
000100 54 6e 76 3e ff 9c 08 bf 2f 4e b7 3d da f7 66 be
       0.24065524 -0.5336456 0.08950459 -0.22555485
000110 34 be 1d bf 58 3a 23 be b0 01 05 bf 80 c6 9f bd
       -0.6161835 -0.15940225 -0.519557 -0.07801533
000120 73 cf 98 be b6 f5 60 3e 08 b3 a2 bb 9d ec 98 be
       -0.2984577 0.21968731 -0.00496519 -0.29868022
000130 e6 83 22 bf 77 69 61 be de 16 bd 3e 4d de ed bd
       -0.6348251 -0.22012888 0.3693151 -0.11614666
000140 4c 7b a1 3e ef 94 9c 3e 80 ad 0e 3f 1d 32 48 3e
       0.3153938 0.30582377 0.5573349 0.19550367
000150 cc e4 d3 3d 4d e2 11 3f 53 aa ee 3d 1b c8 08 bf
       0.10346374 0.5698593 0.116535805 -0.53430337
000160 50 09 20 bd 1f 2c a6 3e f1 50 ae 3d db 7f 9e be
       -0.03907138 0.32455537 0.08511532 -0.3095692
000170 b4 4b 9e be f4 04 f2 be 30 21 87 bc 0f f1 0f 3f
       -0.30917132 -0.47269404 -0.016495317 0.562272
000180 0d b0 8e 3d 09 e0 18 3f 90 2d 1b 3f ee d5 a3 be
       0.06967173 0.5971685 0.606164 -0.31999153
000190 fe bc d3 3e b3 56 fb bd 27 7e 97 bd 26 c2 03 3e
       0.41355127 -0.12272396 -0.073971085 0.1286703
0001a0 71 50 4b be 8e f5 8f be 2c 87 2e 3e a7 fa ed 3e
       -0.19854905 -0.2811703 0.17043751 0.46480295
0001b0 ff a8 24 3e c3 69 dd 3d 00 b7 d6 be 9f a6 e6 3d
       0.16080092 0.10811188 -0.41936493 0.11262249
0001c0 b3 5f ae 3e 4d 48 4e 3e de 82 fb 3d 42 7f 0a bd
       0.34057388 0.20144768 0.1228082 -0.03381277
0001d0 0f 98 58 be b0 c9 54 3d 75 21 50 be 7c 1d 85 be
       -0.21151756 0.051950157 -0.20325263 -0.25999057
0001e0 51 14 20 bf b1 58 98 be 62 f6 98 3d e3 4f 9d bc
       -0.62531 -0.29755166 0.07468869 -0.019203132
0001f0 7c 26 de bc cc 0e 5e be d5 32 d7 be d7 0f 18 be
       -0.02711796 -0.21685332 -0.4203097 -0.14849792
000200 36 b9 02 3f cf c7 1e be 71 5f 39 bf ac 03 a2 be
       0.5106386 -0.15505908 -0.7241126 -0.31643426
000210 d1 9d 07 3e ae 1c 92 be 34 c8 9a be 5e 21 d7 3e
       0.13243796 -0.28537506 -0.30230868 0.42017645
000220 7b 41 06 bd 8d 87 fc bd a0 ae 2c 3f 44 19 3d bd
       -0.03277729 -0.12330542 0.67453957 -0.046166673
000230 29 b5 9c be e3 09 d1 3d a5 e2 fb be a9 42 bc 3e
       -0.30606964 0.10206964 -0.49196354 0.36769608
000240 eb 06 22 bf e4 33 d1 3d 25 51 14 3f 66 c4 34 3f
       -0.63291806 0.102149755 0.57936317 0.7061218
000250 81 72 f1 3d 30 19 50 bc 40 ab c8 3e 18 60 e7 3d
       0.11789418 -0.012701318 0.39193153 0.11297625
000260 05 39 f3 3d 89 ee b7 be 8f ca a3 be 29 a4 6b be
       0.1187611 -0.35924175 -0.31990477 -0.23011841
000270 74 93 ce be 13 f9 bd 3d 71 b3 ac 3e ca 81 98 bc
       -0.40346873 0.09276023 0.33730653 -0.018616576
000280 59 26 2e 3c 0e 92 29 3e 84 20 3f be 7f af 60 bf
       0.01062926 0.16559622 -0.18664747 -0.87767786
000290 71 35 4b bd 5d 05 08 be 65 e4 06 be 10 ae 10 3e
       -0.049611513 -0.13283296 -0.13173063 0.141289
0002a0 79 20 65 be 21 40 bb 3c c8 d0 93 3c 4a f6 84 be
       -0.22375669 0.022857727 0.01804389 -0.25969154
0002b0 2c 38 95 bc 5c 33 21 3f b1 79 ce 3e ab 55 e2 3d
       -0.018215261 0.62968993 0.40327218 0.11051496
0002c0 4f 10 03 3f 0f 6a e1 be 0d b3 2b 3f 98 00 4e 3f
       0.5119676 -0.4402623 0.67070085 0.80469656
0002d0 be f7 62 3e 1b 26 31 3f 0c 57 cd be 10 fe 73 3e
       0.22164819 0.6919877 -0.40105474 0.23827386
0002e0 eb 3f f1 bc 33 79 80 be 04 2f 13 bf e6 46 79 3e
       -0.029449424 -0.25092468 -0.57493615 0.24343452
0002f0 7c 2e b3 3e 93 f9 cd bd 4c 7e 6d be 4a fa b2 3e
       0.34996402 -0.10057368 -0.2319271 0.3495658
000300 98 81 31 bf 63 11 8d 3e b7 ea ac bd 03 03 4b bd
       -0.6933837 0.27552328 -0.08443206 -0.04956342
000310 46 9e 1a be dc 89 30 3e cb a9 80 be ca 8a dc 3d
       -0.15099439 0.17240089 -0.25129542 0.107686594
000320 54 9a 2d bf 1d 73 1a 3e f3 71 b5 be 50 3a 6a be
       -0.6781361 0.15082975 -0.354385 -0.22873807
000330 e0 69 c1 3d 87 d1 f9 bd 19 f3 1b be 22 62 7a be
       0.09444022 -0.12198167 -0.15229453 -0.24451497
000340 31 94 3f 3e 87 3d 85 be 0c ee d0 bd af 09 58 be
       0.18708874 -0.26023504 -0.10201654 -0.21097444
000350 d4 a7 0e bf d0 74 7f 3d 59 81 7b 3e 96 c8 ae be
       -0.55724835 0.06236726 0.24561061 -0.3413741
000360 3a 2b 97 3c 65 af e6 3d 74 a4 9f 3e dc d2 b4 bd
       0.01845323 0.112639226 0.31180155 -0.08829281
000370 c7 19 0e be 33 02 05 bf 99 05 fb be 0c 54 02 3e
       -0.13877021 -0.5195648 -0.49027708 0.12727374
000380 57 70 f2 be 9c d4 16 3e a6 80 66 3e 81 e9 98 3d
       -0.47351333 0.14729542 0.22510013 0.07466412
000390 28 41 59 3e 5f 64 92 3e ac 68 85 3e 4f 53 26 3e
       0.21216261 0.28592202 0.2605642 0.16242717
0003a0 f8 2d 10 3e 36 2e c3 be 08 40 45 be 41 7d 93 3e
       0.14080036 -0.38121194 -0.19262707 0.288065
0003b0 e3 54 b1 3d 86 67 86 be 53 2d fa be 59 39 db 3e
       0.08658769 -0.26250857 -0.48862705 0.4281719
0003c0 01 e8 92 be 2b 86 5c 3d 8b a6 e3 be 2f 70 0e 3d
       -0.2869263 0.05383889 -0.44463 0.034774955
0003d0 d3 73 50 3e 86 df 58 bf 62 98 79 3e 3d 29 bf bd
       0.20356683 -0.8471607 0.24374536 -0.093340375
0003e0 99 c9 9d be c2 c1 7c 3e 02 1c f6 3e 26 d1 ab be
       -0.3081787 0.24683288 0.48068243 -0.33558005
0003f0 d8 2b ac 3d b6 b6 00 bc 4e 90 2b 3e eb e4 1c bf
       0.084068 -0.007856062 0.16754267 -0.612868

bias f4 [64]
000000 43 fd 97 3d d5 11 71 3e 0e 2c 22 bd 8a 4a 7d 3d
       0.07421353 0.23541959 -0.039592795 0.061838664
000010 f7 9b 5f 3b b8 72 07 be ea 75 57 bd 92 2b 09 bd
       0.0034120062 -0.13227355 -0.052602686 -0.033488818
000020 ea bc 15 3f 67 fd dc 3e 8b 85 b1 be 41 9e 5f be
       0.58491385 0.4316208 -0.34672198 -0.21837713
000030 7d be 0d 3e 62 00 d1 3e 2b f2 ab 3e df f8 20 be
       0.13842197 0.40820605 0.33583197 -0.15719937
000040 09 35 06 3f ff 6c 22 bd 2a 35 0a 3e 88 47 14 be
       0.52424675 -0.039654728 0.13496843 -0.14480412
000050 67 4b 90 3e ec 09 57 be 71 65 a0 3e b1 9c 91 3d
       0.28182527 -0.20999879 0.31327394 0.07109965
000060 d7 35 d7 bd 5f bf 98 3b 83 93 d8 bd 71 3e 29 3e
       -0.10508316 0.004661485 -0.10575011 0.16527726
000070 0f 21 d5 3c 1b fd 25 3a 0c 24 0b 3f 51 c2 97 be
       0.02601674 0.0006331966 0.5435188 -0.2964044
000080 08 e1 82 3e 4e ae c9 bd d7 eb 43 3e 83 0c 63 be
       0.2556231 -0.09847699 0.19132935 -0.22172742
000090 69 75 61 bd fc 3a d5 3e f2 6d bc bd 6f a9 2a be
       -0.05504361 0.41646564 -0.09200658 -0.16666196
0000a0 8d 3f 16 be c3 10 ad 3e 95 50 2a 3d bb 0f af bd
       -0.1467268 0.3380185 0.041580755 -0.08547922
0000b0 25 f3 8b bd c2 29 39 be 87 18 28 3e cf 0e f9 3d
       -0.068334855 -0.18082336 0.16415606 0.12161028
0000c0 f9 25 80 bd aa 6b 3e be 07 11 d5 be 92 aa 7e 3e
       -0.06257243 -0.18595758 -0.41614553 0.24869755
0000d0 25 7c 99 3d db cf 2e 3d da 54 31 be c0 3c 16 3d
       0.07494382 0.042678695 -0.17317525 0.03667903
0000e0 39 78 57 3e 8d 10 b9 bd 43 f4 4e be a6 07 93 3e
       0.21041955 -0.0903636 -0.20210366 0.28716773
0000f0 f2 b8 96 3e 8b 88 2c bd 74 f3 14 bf 5b 60 2d 3d
       0.29437977 -0.042122405 -0.5818398 0.04232822

weight f4 [64, 64]
000000 fc a8 cb be 99 03 a6 3e b0 62 82 be ee 77 74 be
       -0.39777362 0.3242462 -0.25465918 -0.23873875
000010 e1 b0 8b 3e 31 ee a8 bd 9b 53 28 3e e4 c9 28 3f
       0.27283385 -0.082485564 0.16438143 0.6593306
000020 ce 78 38 be d8 3d 19 bf 42 07 1a 3f 43 63 28 3e
       -0.18014833 -0.5985999 0.60167325 0.16444115
000030 63 67 7a 3e 5a a1 ae be 2e 81 4a 3e e4 05 18 bf
       0.24453501 -0.34107476 0.1977584 -0.5938399
000040 26 af cf be 1d 5e f6 be eb fa 03 bd da c0 85 be
       -0.40563315 -0.48118678 -0.032221716 -0.26123697
000050 65 0d 09 be ff a2 cd be 91 59 fa be da 71 0c 3e
       -0.13384016 -0.4016342 -0.4889646 0.13715306
000060 ff e3 36 be f1 f0 d3 3e 01 0a 4e 3e 0c bb e1 bb
       -0.17860411 0.4139476 0.20121004 -0.006888753
000070 85 d3 9f be 33 5b 6b 3e c4 70 f3 be 96 f5 ae bd
       -0.31216064 0.22984008 -0.4754697 -0.085429356
000080 b6 c7 6d be e2 db ca bb 52 4f 1c 3f ac c4 2d be
       -0.23220715 -0.006190763 0.61058533 -0.16969556
000090 75 20 58 3e 35 01 a0 be 6a 16 d2 3e 66 16 22 be
       0.21106131 -0.3125092 0.41032726 -0.15828857
0000a0 93 cd 15 3e e6 35 fc 3d 05 cb 27 be a9 57 28 be
       0.14629202 0.12314968 -0.1638604 -0.1643969
0000b0 ff 5e d8 3d a0 a1 3f bf 1e 87 86 be 4c 12 f9 3e
       0.10564994 -0.74855995 -0.2627496 0.48646772
0000c0 17 55 6c 3c 4c 1a c4 3d 96 ac 72 3e f9 14 29 3e
       0.014424584 0.09575328 0.23698649 0.16511907
0000d0 e8 36 40 be d5 d0 8c 3e f0 19 93 bd cd 0f 2d bf
       -0.18770945 0.27503076 -0.071826816 -0.67602235
0000e0 e6 0d 2b bf 16 9b 7b be 4d c8 0a 3d a3 7c ee bd
       -0.6681808 -0.2457088 0.033882428 -0.11644866
0000f0 01 39 89 be 91 29 fe be 5f a1 b8 bd 84 60 27 3e
       -0.26801303 -0.49641088 -0.09015154 0.16345412
000100 2c dd 32 3e 79 e8 b4 3e 27 f6 e0 3e f9 e7 d2 3c
       0.17467183 0.35333613 0.439378 0.025745379
000110 d6 19 43 bf 99 55 aa 3e 6c d8 ad be c1 6b 33 3f
       -0.762113 0.3326843 -0.3395418 0.70086294
000120 77 36 ca be 79 91 a0 3d 03 e7 24 3e bf e4 94 be
       -0.39494678 0.07840247 0.16103749 -0.2908077
000130 20 5e 51 be 36 9f e2 3e f9 18 fb bd e4 5e be bd
       -0.20446062 0.44262093 -0.122606225 -0.09295443
000140 25 ab 20 3e f7 43 df bd 12 a4 c4 3c ae df 51 3c
       0.15690286 -0.10901635 0.024004016 0.012809677
000150 20 1e 3c be c3 26 59 ba f0 a0 8f be 48 db 01 3e
       -0.18370867 -0.0008283669 -0.28052473 0.12681305
000160 ae 00 94 3e 8e 02 c2 3b ab 18 dc 3e a0 73 9d be
       0.2890677 0.0059207147 0.4298757 -0.30752277
000170 3b a7 c1 3e 17 26 b1 3e 87 cb 8f be a9 55 01 be
       0.378229 0.34599373 -0.28084967 -0.12630333
000180 28 ab 87 be ec e8 74 3e 03 61 a8 be a8 3a a0 be
       -0.2649777 0.23916978 -0.32886514 -0.3129475
000190 fb d3 bd bd 09 58 14 be ac 91 90 3d 3a e6 90 be
       -0.09268948 -0.14486708 0.07059035 -0.2830065
0001a0 63 1c bc 3e bd e2 a8 be 8b a6 8f 3e c5 7f dd 3e
       0.36740407 -0.32985488 0.2805675 0.43261543
0001b0 ea 1b 75 3d 0c c9 aa 3d 5f 27 08 bf 12 0f 7a 3e
       0.059841074 0.08339128 -0.53185076 0.24419811
0001c0 35 96 a9 3d c1 3d d3 3e f1 1d 01 3f b1 be 94 3d
       0.08280603 0.41258052 0.5043631 0.07262934
0001d0 18 47 51 be c2 94 a2 bd 87 f9 d7 bd ed 00 1d 3d
       -0.20437276 -0.079385296 -0.105456404 0.03833096
0001e0 c8 06 7a bc 20 be 7d bf dc 94 1a 3e 9b 76 10 3d
       -0.015260406 -0.9911823 0.15095848 0.03526936
0001f0 d8 03 06 bf 93 43 a8 3e 10 26 f0 be 8f 30 b8 bd
       -0.52349615 0.32864055 -0.4690404 -0.08993637
000200 1f 3a ae 3c 66 a6 c1 3e 2b 99 cd 3c c5 63 3f be
       0.021267949 0.37822264 0.02509745 -0.18690403
000210 42 c4 d9 be 02 d0 21 3e 3c 7e 51 3d 7e ff 58 3e
       -0.42532545 0.15802005 0.051145777 0.21191213
000220 db 3c cb be ff 98 df be 61 f3 3b 3c e2 fd bc be
       -0.39694867 -0.43671414 0.0114716 -0.36912447
000230 8b 1b 60 3e a4 2a 6b 3e b5 51 66 be af c0 f9 3d
       0.21885507 0.22965485 -0.22492106 0.121949546
000240 f2 7f c2 3e 25 91 69 3e d6 e4 36 3e 0e ef 76 3e
       0.3798824 0.22809274 0.17860731 0.2411463
000250 83 e7 87 be b4 0a e8 3d d7 f8 c2 3d 6a 9d ff 3e
       -0.26543817 0.113301665 0.09520119 0.49924785
000260 9d 78 79 be 04 57 a4 3e f0 fd 91 3e b7 c1 53 be
       -0.24362417 0.32097638 0.2851405 -0.20679365
000270 08 aa 2b 3e c5 60 c0 3e 3c cd 8d 3e 23 36 95 3e
       0.1676408 0.3757383 0.27695644 0.29142866
000280 8c 1f 7d be f8 e9 3a 3e a9 5e 34 3e ae 0e 12 3f
       -0.24719065 0.18253314 0.17614235 0.5705365
000290 94 67 20 be 49 60 71 be be 0b 8d be 03 3b 58 be
       -0.15664512 -0.23571886 -0.2754802 -0.21116261
0002a0 48 30 c5 3e 1e 82 b7 bd 5b 3d 0a 3e a8 08 72 3e
       0.38513398 -0.08960365 0.13499968 0.23636115
0002b0 91 22 a9 3c cb 9f e1 3d ab c7 07 3f 91 a7 13 3e
       0.020646365 0.11016806 0.53039044 0.1441939
0002c0 63 45 2c 3e fe a3 b3 3e ea 1b 31 3c 66 4b 11 3e
       0.16823344 0.35086054 0.010809878 0.14188918
0002d0 ed 53 02 bf 74 64 ee bb ee d3 33 bd dd 6a 9d 3c
       -0.5090931 -0.0072751585 -0.043903284 0.019215995
0002e0 9b 26 01 bf 5d 59 f0 be d9 68 4a 3e 62 84 a0 3e
       -0.5044953 -0.4694318 0.19766559 0.31351
0002f0 07 ee 8c be 03 5a 10 bf e8 f8 21 bd 2e be ba 3e
       -0.2752535 -0.56387347 -0.039544016 0.3647322
000300 97 d6 3e be de 1b 15 bf 68 80 90 bd cc 39 cb bc
       -0.18636547 -0.58245647 -0.070557415 -0.024807833
000310 a2 04 3a 3c 47 88 75 3e 87 0d ef 3d 58 e0 01 3f
       0.011353644 0.23977767 0.11672502 0.50732946
000320 3f 70 f0 be 34 3f 23 3e c4 cd 5e bf 6e cf 5f bd
       -0.46960637 0.15942079 -0.87032723 -0.05464118
000330 cc 16 f2 3c 75 50 2f bc 4d 4f 34 3e 12 eb 19 3d
       0.029551886 -0.010700335 0.17608376 0.037577696
000340 1a b9 72 bc 1c 4e 0a 3f 46 ec 99 bd 37 b6 2f be
       -0.014814639 0.54025435 -0.07515769 -0.17159353
000350 28 52 c7 3e c5 3a 6e 3c 85 8e 00 bf 83 c0 33 3f
       0.38929868 0.014540379 -0.5021747 0.70215625
000360 b8 51 20 3e ad 14 23 3d ce 88 13 3e 50 ab 34 be
       0.15656173 0.03981464 0.14407656 -0.17643476
000370 19 ea 45 bb cc 99 14 3c 46 f7 4e 3e 3a 1d d4 3e
       -0.0030199348 0.009069871 0.20211515 0.41428548
000380 f7 bb fb 3d af 07 cd 3d 5c 9c a2 bd b7 ba 2d 3e
       0.12291711 0.10011231 -0.079399794 0.16965757
000390 83 ce 3e 3e aa cd 98 be 74 66 da 3e 9e 9c d2 3d
       0.18633465 -0.2984441 0.4265629 0.102837786
0003a0 45 45 65 3e 74 e8 82 3d a4 f6 9b 3e 18 ca 20 3e
       0.22389705 0.06391993 0.3046161 0.15702093
0003b0 f1 bd f9 3c 17 58 3d 3a 61 19 de 3e 43 01 5b be
       0.030486079 0.0007222904 0.43378738 -0.213872
0003c0 cb f8 fc 3e 24 6b 24 3d ab c8 73 bd 5f 6c 57 be
       0.49408564 0.04014124 -0.059517544 -0.21037434
0003d0 89 b3 8f bd a1 ff 45 3e d6 91 40 3e 54 45 1a bd
       -0.070166655 0.19335796 0.18805632 -0.037663773
0003e0 5d 61 ec 3e ac 37 0c bf 5b f2 95 be 4f 15 28 bf
       0.46168032 -0.5477245 -0.29286465 -0.65657514
0003f0 a8 39 47 be f9 fc ed bd 50 95 0e 3c 06 2a 31 3e
       -0.19455588 -0.11620516 0.008702591 0.17301187

bias f4 [64]
000000 a4 34 9f be a6 ea 9a be ca d4 0f bd fc c7 43 3d
       -0.3109485 -0.30257148 -0.03511504 0.04779814
000010 df 36 01 bf 19 6a 35 be 9e 83 2c bd 72 67 9b 3e
       -0.5047435 -0.17716254 -0.042117707 0.3035236
000020 4f eb a4 bc 86 7a 90 3f 08 31 11 3e b2 09 75 be
       -0.020131735 1.1287391 0.1417886 -0.2392948
000030 55 13 53 be 5b 79 9d 3e 4d 56 08 bf 68 5a 65 3e
       -0.20612843 0.3075665 -0.53256685 0.22397768
000040 44 00 38 be d7 a6 10 be 54 b5 df 3e ae 05 7c be
       -0.17968851 -0.14126144 0.4369303 -0.24611542
000050 2f 36 cf be 88 2d d9 3c c0 23 6a ba c5 c0 a3 3e
       -0.40471026 0.026510969 -0.0008931719 0.3198301
000060 03 49 44 be bb b2 e2 3d 3f f1 3a be c6 3b 55 3f
       -0.19168477 0.110692464 -0.1825609 0.8329433
000070 a4 7e 0b be be a1 bf 3d d7 8b 67 be a9 d8 b6 3d
       -0.13622528 0.09357022 -0.22611938 0.089280434
000080 fc 10 16 3e df f2 8a 3d 0e 04 67 3d 2f 98 7a bd
       0.14654917 0.06784605 0.05640035 -0.06118029
000090 22 ad 20 bd d7 e0 1f 3e 45 05 3e 3e 8b e8 66 3d
       -0.039227612 0.15613113 0.18556698 0.056374114
0000a0 57 da dc bb cd 15 c5 3d b8 8f 5f be 74 d6 55 bc
       -0.0067398953 0.09623299 -0.21832168 -0.013051618
0000b0 dd 7c 82 3e 71 58 bb 3e f7 c8 b6 be e5 85 a5 3d
       0.25485888 0.36590913 -0.357002 0.08082179
0000c0 11 e2 98 3d 1d 53 b0 be 24 ab 3d 3d b2 0a 6a 3e
       0.07464994 -0.3443841 0.04630579 0.22855642
0000d0 4a d7 ea 3e 02 b2 af be 49 af ec bd 4e 7c 25 3e
       0.45867378 -0.34315497 -0.115568705 0.161607
0000e0 a9 02 67 bd 77 f2 2f be 32 d7 9c be 89 36 20 be
       -0.05639902 -0.17182337 -0.3063293 -0.15645804
0000f0 fa 2a b8 3c c9 00 5f 3e ec b8 9e bd 20 17 a7 bd
       0.02248143 0.21777643 -0.07750115 -0.081587076

weight f4 [64, 40]
000000 7c 7b 4b bf b1 2c d0 3e 92 b0 e0 3d bc 59 8e 3e
       -0.794853 0.40659097 0.10971178 0.27802837
000010 96 c2 57 3d 9a 8f ba 3e f7 ee b2 bd 71 04 59 3e
       0.052675806 0.36437684 -0.08736985 0.211931
000020 70 1a 2a 3e 2c 50 3e 3e c5 ed 85 3c 9e 3e 9a 3c
       0.16611648 0.1858527 0.016348729 0.018828686
000030 f8 e7 82 3d a0 df 41 be 83 73 1d 3e 35 d2 be 3c
       0.06391901 -0.18932962 0.15376095 0.023293594
000040 77 cc ac bd 53 66 f8 bc 18 64 34 3c 9a b6 59 3d
       -0.08437436 -0.03032223 0.011010192 0.053152658
000050 af e5 04 3e 4b 90 20 be 64 8e f1 bd 09 a6 8e 3d
       0.12978242 -0.15680043 -0.11794737 0.069652624
000060 38 24 8c 3d 02 0f 96 bd 55 aa 18 3e e2 39 af 3e
       0.06842846 -0.07327081 0.14908727 0.3422385
000070 b3 80 29 3e cc 48 8b be 62 77 a9 3d 0e 3f a4 3e
       0.16553001 -0.27203977 0.082747236 0.32079357
000080 86 09 b7 be 7c eb 0c bd 4a 50 42 bd c2 74 d7 3d
       -0.35749453 -0.034404263 -0.04743985 0.10520317
000090 37 72 04 bf 31 d2 07 3d 13 93 24 be 88 fb ca 3d
       -0.5173678 0.03315944 -0.1607173 0.09911257
0000a0 30 40 0f 3f ca 91 de 3d 0e 87 1b be d9 35 1b 3e
       0.5595732 0.10867651 -0.15188238 0.1515726
0000b0 2e 21 82 3e cd 6a 3d bf ae 77 b7 bd 13 d4 c9 3d
       0.2541594 -0.7399109 -0.08958374 0.09854903
0000c0 62 d6 61 bf 3c ab 9d be de 28 27 3e ae a9 16 3d
       -0.8821775 -0.30794704 0.16324183 0.036782913
0000d0 e3 b3 34 be ae ac 85 3e c8 5c dd be e7 4e 8b be
       -0.17646746 0.26108307 -0.4323485 -0.27208635
0000e0 fa 65 2f b8 bc b4 f0 3d 7c 4b 93 3d 83 fc 34 3e
       -4.1818224e-05 0.11753222 0.07192132 0.1767445
0000f0 55 b5 38 3f 99 19 32 bd 49 3f 86 3f 7b 4b 42 3e
       0.7215169 -0.043481443 1.0488063 0.18974106
000100 16 ab 86 3f 47 74 af 3d 15 55 3f be e8 33 34 3e
       1.0520961 0.085671 -0.186848 0.17597926
000110 0c 63 79 3e d2 2c f0 3e 7e fb 15 3d c4 0c 8a bc
       0.2435419 0.46909195 0.036616795 -0.01685179
000120 ca d8 b4 bc 8c 11 68 3d ec be 04 3e e7 10 89 3e
       -0.02207603 0.05665736 0.12963456 0.26770708
000130 ac 45 80 be e4 31 0b be 33 44 9c 3d 58 14 43 3e
       -0.25053155 -0.1359325 0.076301955 0.1905073
000140 74 90 d5 be 05 05 17 3c ae 2c fd 3d 92 42 1c be
       -0.4171177 0.009217505 0.123620376 -0.1525977
000150 0c 98 71 3e 81 31 3f 3f f2 db 7b 3e 77 5f e9 be
       0.23593158 0.7468491 0.24595621 -0.45580646
000160 5a 98 2c 3f 91 ce 11 3f 89 be f2 3d 9c de 20 3e
       0.6741997 0.5695582 0.11852748 0.15709919
000170 97 3c 10 3e 6c eb 85 3d 9e a3 71 3f 54 85 36 3f
       0.14085613 0.06539044 0.94390285 0.7129719
000180 fd d3 90 bc fe d1 bb 3e 22 4d c7 3d a8 1b 0a bf
       -0.017679209 0.3668365 0.09731509 -0.5394845
000190 02 27 51 bf c7 c9 c2 3d 53 66 a2 be 19 16 65 3e
       -0.81700146 0.09511142 -0.31718692 0.22371711
0001a0 64 d4 62 bf a8 f3 7b 3d 9a 9d 14 3e 85 15 f8 be
       -0.8860533 0.061511666 0.14513245 -0.48453918
0001b0 02 33 fd 3e 92 17 c1 bc 03 bb a2 3d 32 8f 62 bd
       0.49452978 -0.02357081 0.07945826 -0.055312343
0001c0 c8 4a 88 be 6d cb be 3d 85 bb d3 3c 75 bd 9c bd
       -0.26619554 0.09316144 0.025846252 -0.076533236
0001d0 2b 33 27 be 2f a2 8b 3d 88 60 eb 3d c3 41 ce bd
       -0.16328113 0.068180434 0.11493021 -0.10071137
0001e0 22 e4 9c be 51 21 23 be c4 0e 31 3e b5 68 9d 3d
       -0.30642802 -0.15930678 0.17290789 0.07685987
0001f0 4e f9 93 3c 95 e2 91 3e 25 7e c2 3e 00 3e a3 3e
       0.018063214 0.2849318 0.37986866 0.3188324
000200 c4 08 27 3e 38 52 19 bd bc 64 8e bc fb 66 45 3d
       0.16311938 -0.037431926 -0.017382018 0.048193913
000210 8b a9 9e 3e 00 33 b1 bd df e5 20 3f 89 ff e3 3e
       0.30988726 -0.086523056 0.62850755 0.44530895
000220 b1 48 b1 3e c2 bb a0 be 21 47 3f 3e e8 2b 09 bc
       0.34625772 -0.31393248 0.18679477 -0.0083722845
000230 7a 6d e8 be 9f e5 28 be 05 55 a6 bd fd 93 bf bd
       -0.45396024 -0.16493843 -0.08121685 -0.093543984
000240 8b 44 f7 be 87 9d 45 be 3e ef 68 be 3f b8 86 bd
       -0.48294482 -0.19298373 -0.22747514 -0.06578111
000250 a5 6c 03 3e 97 18 19 be bb 49 af bd 1b 48 77 3e
       0.12834413 -0.14950787 -0.08558985 0.241486
000260 15 65 d5 bd bc 08 0e 3e e4 c9 71 3d 40 6f 84 3e
       -0.104196705 0.1387052 0.05903043 0.25866127
000270 d9 a4 ed bd 95 61 2d be aa b0 54 be 6e 8c 9d 3e
       -0.11603708 -0.16931756 -0.20770517 0.30771202
000280 34 ad cc bd fd f9 57 3e 0f 4a 6d 3e 1e 8b 30 bd
       -0.099939734 0.21091457 0.23172782 -0.043101422
000290 13 61 6b bd 4c 99 af be 84 94 68 3e 3c 3c 2a 3f
       -0.057465624 -0.34296644 0.22712904 0.6649816
0002a0 3a 5e 6f be 53 51 86 bd bb 49 8d be 5f 02 a0 3e
       -0.23375788 -0.0655848 -0.27595314 0.3125181
0002b0 83 4d 01 be ed d8 f5 bd 7a f5 51 be c9 49 63 be
       -0.12627225 -0.12004266 -0.20503798 -0.22196116
0002c0 01 2d aa 3e 2d f0 3f bd dc 54 6f be d8 f8 3f 3e
       0.3323746 -0.04685991 -0.23372215 0.1874727
0002d0 44 28 5a 3f 43 7b 6a be 7d 56 fd 3f 29 bd 06 3d
       0.8521769 -0.22898583 1.9792019 0.03289524
0002e0 d7 08 f0 3f 66 f9 f8 be 12 0b 79 be 28 a2 af 3f
       1.8752698 -0.48627776 -0.24320629 1.3721361
0002f0 db 3b 22 bf 1f 50 b6 3e ed bc 90 3e bb bb 56 3e
       -0.6337258 0.35608003 0.2826914 0.20970051
000300 82 36 e2 3d d3 2c 5c be 1d 4a 16 be 8f ea 5a bc
       0.11045553 -0.21501474 -0.1467671 -0.013361587
000310 0e ba 83 bb 8d a3 84 3b fc 52 93 3e 18 2c 6f 3f
       -0.004019982 0.004047817 0.2877425 0.93426657
000320 6c fb 96 3e 39 31 4e bb c3 3e 1e 3d db 76 85 bd
       0.29488695 -0.0031462444 0.038634073 -0.065168105
000330 27 98 b7 3e 36 39 11 3f 18 23 c5 bd 25 d9 95 3e
       0.3585827 0.5672792 -0.09625834 0.2926723
000340 ce ae ab 3e fb d0 ec 3e 28 8c 90 be c0 98 2a be
       0.33531803 0.4625319 -0.2823193 -0.16659832
000350 09 ab 81 3d d3 f7 c0 bd 17 42 bf 3e 3f b5 f7 3e
       0.063314505 -0.09422269 0.3735511 0.48380467
000360 a3 f3 81 be 87 97 21 be a4 73 8a 3e 86 21 a3 3d
       -0.25381193 -0.1578046 0.27041352 0.079653785
000370 7d 78 26 3e 38 63 7c 3c aa 73 64 bd 44 94 95 3e
       0.162569 0.015404515 -0.05577437 0.2921468
000380 24 cd 8a be ee c8 82 bd ca f4 27 bf bc 8a b1 3e
       -0.27109635 -0.063859805 -0.65607893 0.34676158
000390 9d db ad be 2b da ed 3c 0b 5b 98 bd e4 3a bd 3d
       -0.33956614 0.029034695 -0.0743924 0.09239748
0003a0 6a 3c bd be 2b 10 c2 bc 99 10 0d bf 8d 63 d6 be
       -0.36960155 -0.02368935 -0.5510345 -0.41872826
0003b0 e1 8f 9e 3e 81 81 88 bb 2c 5f 9b bd 76 13 05 3e
       0.30969146 -0.0041658287 -0.07586512 0.12995705
0003c0 1e 2e 36 bf 0b 7a 18 3e 64 d1 95 be d7 f0 7e bd
       -0.7116412 0.14890306 -0.29261315 -0.0622414
0003d0 c1 08 e4 bd 42 b4 5d 3e 9e bb 69 bd 2a 35 00 3e
       -0.11134482 0.21650794 -0.05706369 0.1252028
0003e0 0d e6 2f 3e d2 3d 41 3e e6 38 e8 3d 16 53 a2 be
       0.17177601 0.18871239 0.113389775 -0.31704015
0003f0 db ea 1c 3e 7f d7 c0 3c e5 a3 80 3e 62 c8 f7 3d
       0.15323965 0.023540257 0.25125042 0.12098767

bias f4 [64]
000000 15 49 74 bf 31 9f 35 3c 03 b9 89 be 25 19 f4 be
       -0.95424014 0.0110853175 -0.26898965 -0.47675434
000010 6f 1f 52 bf e3 eb 9b bd 8e de 5f bf 44 fd 48 bf
       -0.82079214 -0.07613351 -0.87448967 -0.7851145
000020 d3 da 7a be 5d 1c 91 3e c0 80 d3 3e 99 32 43 3f
       -0.24497537 0.28341952 0.41309166 0.7624908
000030 2d ca 83 be 92 8d 3c 3e 72 09 7b 3f fe 4f cc be
       -0.25740185 0.1841338 0.9806129 -0.3990478
000040 54 f9 4a 3e 63 b4 2c 3f 77 b6 e9 3d 31 b8 4d 3b
       0.19821674 0.6746275 0.114117555 0.0031390304
000050 21 be 84 3e 72 53 68 bf 17 44 e0 3d 74 93 03 3c
       0.25926307 -0.9075233 0.10950487 0.008030761
000060 61 ba 5a 3d 2f 14 be 3e 08 87 4c 3e b0 72 31 bf
       0.0534004 0.37124774 0.19973385 -0.69315624
000070 58 58 b4 be de 75 a0 3c 38 43 df 3d 25 24 4b 3f
       -0.3522365 0.019587453 0.10901493 0.7935203
000080 e7 65 a4 bc b0 7b 06 be d1 76 5f bf 4b 32 d4 3e
       -0.020068122 -0.1313312 -0.87290674 0.4144462
000090 e9 24 d3 bd f6 09 15 3f 01 c4 3b 3c 59 b1 bc 3c
       -0.103097744 0.58218324 0.011460305 0.023033785
0000a0 15 9e 95 bd d2 2a 6c 3f 5d 51 cc 3e 82 6f 3a bd
       -0.073055424 0.9225284 0.39905825 -0.0455165
0000b0 86 de 5e 3f 65 5b 93 3c 6d 0d 98 be e2 1b 90 be
       0.87058294 0.017987916 -0.29697743 -0.28146273
0000c0 e1 85 4b bd 59 93 10 bf 3c 5d 29 be 7d 35 e8 3e
       -0.049688224 -0.56474835 -0.16539472 0.45353308
0000d0 85 a4 67 bd 37 5b 57 3d 9d 03 78 3f 10 84 a6 3d
       -0.056553382 0.052577224 0.96880513 0.08130658
0000e0 0e 27 52 3c 81 bb 31 bf 33 e5 7c 3c 21 58 18 bd
       0.012826694 -0.69426733 0.015435505 -0.03719342
0000f0 27 29 0f bf f0 3a 84 bc e3 69 21 3e 6f 7d a6 3e
       -0.5592217 -0.016141385 0.15763049 0.32517573

weight f4 [64, 64]
000000 13 56 ab be 8c 9f 11 bf c3 2e 00 3d ea 94 56 be
       -0.33464107 -0.56884074 0.031294595 -0.20955244
000010 2d bc e8 be 4b 6c d1 3e 4c 3a 47 be 9e b3 00 be
       -0.45456067 0.40902933 -0.19455832 -0.12568519
000020 f1 d9 97 3e d6 47 55 3f c1 23 55 3e 31 47 33 bc
       0.29658464 0.8331274 0.2081442 -0.010942266
000030 db 9e 19 be 1f bd 87 3c 57 c5 2c be 21 7d 00 3d
       -0.15002005 0.016569672 -0.16872154 0.031369332
000040 e6 5e a4 bd 80 c9 53 3f 56 3d 95 be 62 85 74 3b
       -0.08025913 0.8272934 -0.29148358 0.0037310948
000050 f0 d8 4d 3f a7 34 99 be 5f 41 1d bd 94 0b 04 3f
       0.80409145 -0.29922983 -0.03839242 0.51580167
000060 59 d2 8e 3f ba e7 f1 3e 38 26 30 3f a1 f2 9f be
       1.1157943 0.47247106 0.6880832 -0.312398
000070 68 72 01 3e a8 e4 31 3f 61 77 4a be ae 3c 87 3e
       0.12641299 0.69489527 -0.19772102 0.26413482
000080 69 57 6b be eb 9d 40 3f c4 18 24 be 7f 19 62 be
       -0.22982563 0.75240964 -0.16025072 -0.22080038
000090 6d 22 03 3f 80 8f b2 3e 0a 18 88 3f 9e e6 7c be
       0.51224405 0.34875107 1.0632336 -0.24697348
0000a0 20 de 04 bf 19 95 94 be 93 2a 9d 3d 2e 44 30 3f
       -0.51901436 -0.29020002 0.07674136 0.68854034
0000b0 73 27 eb 3e b5 d8 fe bd be 68 09 3f c8 22 73 3f
       0.45928535 -0.12443677 0.5367545 0.94974947
0000c0 d4 95 90 bf 6b 20 25 3f f0 52 03 bf 0f 23 66 3e
       -1.1295724 0.6450259 -0.5129843 0.22474311
0000d0 c7 a4 da 3e 7a b1 70 3f 82 b7 72 3d 85 35 aa be
       0.4270384 0.9402081 0.059257038 -0.33243957
0000e0 8b 48 dc 3d d1 29 5f be ad 76 21 bf d4 88 c9 3d
       0.10756024 -0.21793295 -0.6307171 0.09840551
0000f0 3d f6 25 bd f2 46 8c bf 9a 7b 92 be 80 0b 31 3e
       -0.040518034 -1.0959151 -0.28609926 0.17289543
000100 2b ff 1e bf d8 5a a8 3e 11 ac 29 3d 12 16 4b 3d
       -0.62108105 0.32881808 0.04142386 0.049581595
000110 18 82 5c bd 35 24 2a 3d e4 71 4c be b1 c2 46 3e
       -0.053835005 0.041538436 -0.19965321 0.19410206
000120 5d c9 a3 3e e9 c7 48 3c fb 53 ed 3e 3b d9 03 3c
       0.31989565 0.012254694 0.46353135 0.008047397
000130 0f df 4c 3f 88 8e 17 bf be 08 0e 3f e6 e2 f7 bd
       0.8002786 -0.5920186 0.5548209 -0.12103824
000140 5a 36 e4 bd 39 b0 e8 bd 1b 5b d2 be c8 f2 99 be
       -0.11143179 -0.11361737 -0.41085133 -0.3006804
000150 c4 b0 8c bd e7 ee 45 be cc 67 1e bf c0 82 a3 be
       -0.06869653 -0.19329415 -0.6187713 -0.31935692
000160 cd cc 9d be eb 5c 07 bd b0 ed f6 bd a1 62 a0 3e
       -0.30820313 -0.033047598 -0.12057054 0.31325248
000170 11 ea b8 3e a1 dd fa 3d 9c c5 1b 3f 6a 88 15 3f
       0.36116078 0.122493036 0.608484 0.58411276
000180 20 3a 49 3e 1d 54 a7 be 77 ce c6 be 6b e4 2a 3f
       0.19651079 -0.3268136 -0.38829395 0.6675479
000190 35 d0 15 be b7 53 08 3e c1 c8 24 be 75 fa dc 3e
       -0.14630206 0.13313185 -0.16092207 0.43159834
0001a0 63 b0 68 3d ca 31 72 3f a2 a8 8e 3d 50 f8 95 be
       0.05680884 0.9460722 0.06965758 -0.2929101
0001b0 1a 9e d3 3e ec b7 0d 3f bb 40 b5 be 94 3f 69 bf
       0.4133156 0.5535877 -0.35400948 -0.9111264
0001c0 73 89 94 3e 0b e2 a0 bf bf 23 0a 3f b1 2b 0f 3f
       0.29011115 -1.2568983 0.53960794 0.5592604
0001d0 5c 7b e0 bd 43 35 7c be 08 15 21 3f 5a c0 15 3e
       -0.10961029 -0.24629693 0.62922716 0.14624158
0001e0 38 a1 ee 3e 1d d2 34 bc fa 7a 9d 3e 56 6a 78 3e
       0.46607375 -0.011036423 0.30757886 0.24259314
0001f0 49 6a 84 bd 24 2a d8 3e 06 66 9f 3e 4f 0b bf 3e
       -0.06465585 0.4221965 0.31132525 0.37313315
000200 fb 25 3c bf f4 02 93 3e dd 29 c7 be 54 0e 55 bf
       -0.73495454 0.2871319 -0.38899127 -0.8322499
000210 75 82 a2 be 31 b3 1e 3e 57 10 71 bf 12 b3 8e bf
       -0.31740156 0.15498044 -0.9416556 -1.1148398
000220 a5 42 3d be 5b e6 52 3d dc bc e1 3b 25 60 93 3f
       -0.18482454 0.051489215 0.006888969 1.1513716
000230 75 67 d1 3b bc 73 48 be 80 ec c9 3f e3 c5 5d bf
       0.006390507 -0.19575399 1.5775299 -0.86630076
000240 6f d0 ec 3d 25 e8 88 3e cb 2c 80 3f ff 76 4e 3e
       0.11563193 0.26739612 1.001367 0.20162581
000250 c9 0f 88 3d ad de 48 bf 24 42 9d 3e e2 b4 9d 3e
       0.06643636 -0.78464776 0.30714524 0.30802065
000260 6e 4f 3e bb 38 34 95 3e 56 75 8c 3d 53 c8 23 bf
       -0.0029039043 0.29141402 0.068583176 -0.63977545
000270 4e c0 8d be e8 17 17 3e 59 2a bc 3e cc f8 fc 3e
       -0.2768578 0.14755213 0.3675106 0.49408567
000280 26 86 0f bf d0 93 d1 3b 69 f6 74 bf 00 3b 15 3e
       -0.5606407 0.0063957945 -0.9568849 0.14573288
000290 ec ca 9e bd 51 17 2c 3f 09 d3 7d 3e bf 15 77 be
       -0.07753548 0.6722308 0.24787535 -0.24129389
0002a0 f8 a3 33 be 16 75 d8 3b 00 23 9b 3e ad cc 98 3e
       -0.17543018 0.0066057546 0.3030014 0.29843655
0002b0 ee 5c 8d 3f 05 f1 31 3d 12 6e 9c 3d d8 b7 ff bd
       1.1043985 0.043442745 0.07638182 -0.12486237
0002c0 25 e5 d3 be f7 42 2a be 23 5e b5 be d4 a8 e4 3e
       -0.4138576 -0.16627108 -0.35423383 0.44660056
0002d0 0c 28 e7 3d fc fe 39 3e 61 4a 40 3f ea da 29 3d
       0.11286935 0.18163675 0.75113493 0.04146854
0002e0 25 81 80 be c0 95 b9 3d e1 64 1b 3e 14 fa f9 be
       -0.2509853 0.09061766 0.15175201 -0.48823607
0002f0 20 b6 d3 be a1 9d 5a bd 08 d4 81 3e cc 6c d0 3e
       -0.41349888 -0.053372983 0.2535708 0.40708005
000300 25 55 ae 3e 73 ef ac 3e cc 25 bd bd 5d da 3e 3e
       0.34049335 0.33776435 -0.09235725 0.18637986
000310 89 ff 40 bd 14 f4 17 bf 83 f8 8a 3e 8b 8a aa be
       -0.047118697 -0.5935681 0.27142724 -0.33308825
000320 9e 8b 31 bf 81 5d 8a bf 30 ae 4a be 0b 74 23 3d
       -0.69353664 -1.0809785 -0.1979301 0.03990559
000330 83 6b e3 3e 59 60 ec be cb a7 5d be 75 23 f2 3d
       0.44417962 -0.46167257 -0.21646039 0.11823169
000340 c3 c9 06 bf 2a ae cb be 65 05 57 3e 2b 4f 7b bf
       -0.52651614 -0.39781314 0.20998152 -0.98167676
000350 8a 4d 0c bf a0 ec 46 3e fe 10 06 bf c5 d4 fa bf
       -0.54805815 0.19426203 -0.5236968 -1.9596182
000360 b5 22 ce bf 8a d5 dd be 04 a1 1f bf cb d7 45 3e
       -1.6104342 -0.4332698 -0.62355065 0.193206
000370 65 b9 12 bd 88 d5 6b bf 53 eb 6e 3e d8 37 26 3e
       -0.035821337 -0.921227 0.23331957 0.1623224
000380 73 f2 35 3f 59 16 9f bf 17 62 7e 3e 08 71 27 bd
       0.71073073 -1.2428695 0.24842106 -0.04087928
000390 4e 0e a8 be e2 2f dd bd 6e 8c cf bf d2 3f 18 3f
       -0.32823414 -0.108001485 -1.6214731 0.5947238
0003a0 e5 c3 9c 3f 29 0a 2e be 9f 64 41 bf 8a 74 e7 bf
       1.2247282 -0.16996063 -0.7554416 -1.808244
0003b0 9e a1 36 bf cc 7d 32 3f dc 2a 87 be 98 f7 47 bf
       -0.7134036 0.697232 -0.26399887 -0.78112173
0003c0 d8 0f fe 3f 4e 44 c1 bd 70 a7 c8 3e 00 be 38 bd
       1.9848585 -0.09436856 0.39190245 -0.045103073
0003d0 93 2f 14 3d 7e a3 79 3d 11 02 8e 3c d1 3b 9f 3e
       0.036178183 0.060946934 0.01733497 0.31100324
0003e0 eb 4d 49 be f2 64 14 3e bd 98 cf 3d d4 ab f3 be
       -0.1965863 0.14491633 0.101365544 -0.47592032
0003f0 15 33 94 be cd 6c 30 3f fd 7b 52 bc da 12 ce 3a
       -0.28945222 0.68916017 -0.012846944 0.0015722171

bias f4 [64]
000000 78 d8 c7 3d 87 33 15 3f ce bc 8b be 57 07 8c 3e
       0.09758085 0.5828175 -0.27292484 0.2734935
000010 c7 1e 38 be 8c 92 28 3e b0 c3 9f bd 8c 42 b8 be
       -0.1798049 0.16462153 -0.07800996 -0.3598827
000020 fc 22 19 bd d5 d1 5f bd 75 20 51 3e ae 90 3c 3e
       -0.03738688 -0.05464347 0.20422538 0.18414566
000030 3a 9b 18 3f c1 89 11 bf 3a 4e 11 3f 62 d0 06 3f
       0.59611857 -0.5685082 0.5675999 0.52661717
000040 ff e8 9f 3e bb e1 96 3f a7 7f 5d 3e 4a 29 09 bf
       0.3123245 1.1787637 0.21630727 -0.5357863
000050 c0 cd 32 be 46 8d 86 be e4 65 12 3d fd 49 83 be
       -0.174613 -0.26279658 0.0357417 -0.25642386
000060 10 f9 60 3e 3b 6e a1 3e 5e ac 5b 3e 2a 35 9f 3d
       0.2197001 0.31529412 0.21452472 0.07773812
000070 79 c2 a4 3d 55 ee 1d be 61 d8 61 bf 09 d9 7b 3e
       0.08044905 -0.15422948 -0.88220793 0.24594511
000080 ec 22 d3 be 1f a5 13 be 20 d3 e1 3e 47 52 21 be
       -0.4123758 -0.14418457 0.44106388 -0.15754043
000090 85 86 ac 3e fe 3b e6 bc 6f de 0b be 6b 0c e9 3e
       0.3369638 -0.028104778 -0.1365907 0.45517287
0000a0 1e 2f 9b 3e e6 fb e1 3e a1 97 18 be d8 b2 bf 3d
       0.30309385 0.44137496 -0.14901592 0.093602836
0000b0 25 0b 04 3f 26 88 af 3e 1c e5 85 3e d4 e3 ba 3d
       0.51579505 0.3428356 0.2615136 0.09125486
0000c0 25 da 46 3e cb b8 74 be a7 d1 cb be 22 21 1f 3f
       0.19419153 -0.23898618 -0.3980839 0.6215993
0000d0 e3 4a 14 be 42 26 4b bd 25 1a ba be 8e cf 1e be
       -0.14481692 -0.049597032 -0.36348072 -0.15508863
0000e0 5e a5 0c be ae e2 5b be a5 07 9c 3e 44 c5 fb 3d
       -0.13734958 -0.2147319 0.30474582 0.12293485
0000f0 12 10 ab 3e ae 36 6e be c4 f0 9e bd 39 43 25 3e
       0.33410698 -0.23263046 -0.07760766 0.16138925

weight f4 [64, 64]
000000 b9 fe 8b 3e 49 1a 8c be a4 37 16 3f c5 f6 c7 be
       0.27342775 -0.27363804 0.5867865 -0.39055458
000010 b7 57 df 3e 6a 71 97 be da 88 5e bf 52 60 33 3c
       0.4362161 -0.29578716 -0.8692757 0.0109482575
000020 ec 72 f7 bd 02 e8 2e be bf 94 52 be 88 1f ea bc
       -0.120824665 -0.17080691 -0.20564555 -0.028579488
000030 b3 19 90 3d 3b af 25 bf 1e 3d 37 3f d3 42 62 3e
       0.07036152 -0.64720505 0.7157763 0.22095804
000040 9c 5d c7 3d 93 28 09 bd 6c 7d 2a bf af 15 7b 3e
       0.097346514 -0.03348596 -0.6659763 0.2451999
000050 56 02 9f 3c 9e 83 41 be 8b f1 95 3e 63 d2 07 3e
       0.019410294 -0.18897864 0.29285845 0.1326385
000060 24 98 c1 be 49 c0 77 bf 14 09 a0 3e d0 a7 34 bf
       -0.37811387 -0.9677778 0.31256926 -0.7056856
000070 56 0f cb bd 38 6f f5 3c f0 c9 81 3e 6c a7 3b bf
       -0.099150345 0.02996026 0.2534938 -0.7330234
000080 f6 c2 8a be 8a 77 0b 3f 30 f6 d4 be e0 f1 1a 3f
       -0.27101868 0.5447928 -0.41594076 0.6052532
000090 31 50 b6 3e 01 ee 06 3f 60 01 79 be d2 9d 0c 3f
       0.35608056 0.52706915 -0.24316931 0.54928315
0000a0 6e fb 91 3d 8d cc 89 bd f8 dd 7a be ca cc b5 3b
       0.071280345 -0.06728468 -0.24498737 0.0055480944
0000b0 bb f1 c4 bc ef 5f 81 bf 20 fd 91 be 9c df ff be
       -0.024041047 -1.0107402 -0.28513432 -0.49975288
0000c0 6c c1 3d bf 9f aa 64 bc c5 20 e8 be 6b a8 49 3e
       -0.74123263 -0.013956695 -0.453375 0.19693153
0000d0 1d 24 f6 3b 9a 2a 6e be 6b e1 96 3f b5 a1 02 3f
       0.0075116293 -0.23258439 1.1787542 0.51027995
0000e0 46 e9 0e be 3f d4 64 be d8 fe fd 3e 3b 7e 17 be
       -0.13956174 -0.2234659 0.49608493 -0.14794247
0000f0 5e a4 2a bf 92 bd 7d be 9a 8a d0 bc 77 95 91 3e
       -0.66657054 -0.24779347 -0.025456715 0.28434345
000100 b8 2d 52 be cd 3f 28 3e fe a9 0f 3f 0b 45 b8 3d
       -0.20525253 0.16430588 0.5611876 0.08997544
000110 7c 33 db bd e5 8f 07 3e 1d 88 c1 bd 3d 1a e2 3d
       -0.10703179 0.13238485 -0.0944979 0.11040161
000120 e4 3e ce 3e 22 75 83 3f b6 88 3e bf a5 84 85 bf
       0.40282357 1.0270121 -0.74427354 -1.0431105
000130 9c c1 9b bc 51 28 d9 3d 79 d7 04 bf d1 8c 41 be
       -0.019013219 0.10603393 -0.51891285 -0.18901373
000140 78 3d b1 be 87 6c 9f bd 0a 98 8f be df 91 0a 3f
       -0.3461721 -0.07784372 -0.28045684 0.5412883
000150 fd 65 42 3f a7 0a 24 be d8 68 9d bb 93 e2 3b 3e
       0.7593687 -0.16019689 -0.004803758 0.1834815
000160 0e 8e 13 bf 3d 19 b5 3e 7d fb ae be 66 ae 97 3d
       -0.57638633 0.35370818 -0.34176245 0.07406311
000170 78 bc 02 bf d3 3b 27 3f 82 4c 19 3e 97 0a e9 be
       -0.5106883 0.6532566 0.14970592 -0.45515892
000180 c9 6a 14 bd 8c d6 c3 be dd 61 94 be c4 1b 11 bf
       -0.03623465 -0.38249624 -0.28980914 -0.5668299
000190 29 e5 81 bd 77 8a 21 3d e6 92 30 bd 41 12 1e 3f
       -0.06342537 0.03943869 -0.043108843 0.61746603
0001a0 5c aa 93 3f fe 46 a6 be 25 ec 33 3f e6 85 4c 3d
       1.1536365 -0.32476038 0.702822 0.049932383
0001b0 ff 27 7e bd d3 c1 92 3e 3c 16 e5 bd 63 ec 0c bf
       -0.062049862 0.286635 -0.111858815 -0.550482
0001c0 ed 40 fc 3e 92 24 1d 3f 35 a2 04 3f 58 27 01 3e
       0.49268284 0.61383927 0.5181001 0.12612665
0001d0 88 00 5b be a2 cf 51 3d 96 da 9d bc 6e a2 ef 3c
       -0.21386921 0.051223405 -0.019269269 0.029252257
0001e0 b7 86 2f be 4c f8 e1 bd 33 66 99 bf bf f9 40 bf
       -0.17141233 -0.11033687 -1.1984314 -0.7538108
0001f0 b4 6b 32 be 5c 3a 3f bf 0a 0b eb bd 9e 5f 50 be
       -0.17423898 -0.74698424 -0.11476715 -0.20348975
000200 ec 1e 0c bd d7 91 47 be 5f d4 bf be 87 12 c9 3e
       -0.034209177 -0.19489227 -0.37466714 0.39271948
000210 26 ef 8d 3d 55 18 79 3f d8 4f 56 bd 0c 07 bc 3e
       0.069303796 0.9730275 -0.05232224 0.36724126
000220 54 91 e5 3e fa 8c 5b 3e cb 8e 4e be 6a ce 4d be
       0.4483744 0.21440497 -0.20171659 -0.20098272
000230 74 47 99 3e cc a3 9a 3e 28 2a 49 bf 4b d1 9a bc
       0.29937327 0.30203092 -0.7857995 -0.018898627
000240 8e 70 02 bf 84 50 fa 3c 90 d6 73 bf e4 1d f3 3e
       -0.50952995 0.030555971 -0.9524927 0.47483742
000250 99 37 ae 3e 5f d8 16 be 88 30 cd be e3 11 e9 bd
       0.34026793 -0.14730977 -0.4007609 -0.11380365
000260 96 31 8f 3e 48 8d ce 3e c0 77 51 be 44 55 dc 3d
       0.2796752 0.40342164 -0.20455837 0.107584506
000270 44 a4 20 bf 3d 1b c9 3d ae e4 9e be 79 b9 6c be
       -0.6275065 0.098196484 -0.31033844 -0.23117627
000280 35 15 01 3f 26 8c 35 bf 64 73 e0 be aa 35 9c bc
       0.50422984 -0.70916975 -0.43838036 -0.019068558
000290 df b1 b8 3e 6b cd 02 3f 6c 62 fe 3e 50 64 94 3e
       0.36073205 0.5109469 0.49684465 0.28982782
0002a0 d3 51 50 3e f1 9f b2 3e 20 8d 78 be 12 c4 c0 be
       0.20343713 0.3488765 -0.24272585 -0.3764959
0002b0 b8 dc 00 bf 6a 94 0e 3e be 98 9f 3d 91 8e 51 bf
       -0.5033679 0.13923803 0.07792805 -0.81858164
0002c0 e4 1d b3 3e 9e 36 99 3f 7a 85 90 3c 6c 93 27 be
       0.34983742 1.1969793 0.017641772 -0.1636483
0002d0 63 6b 02 bf 6a 7f a1 be 70 89 33 bf 81 44 2a 3e
       -0.5094511 -0.31542522 -0.7013159 0.16627695
0002e0 a5 94 09 bf 65 9f 01 be 30 8f e0 be 51 80 31 be
       -0.5374244 -0.1265846 -0.43859243 -0.17334105
0002f0 e0 4c 16 3e 43 90 aa 3d 22 3b 8e bf 5a 4a ed be
       0.14677763 0.08328297 -1.1111796 -0.46345788
000300 45 b1 4b be bb c6 85 3e 57 14 86 be 2e b1 08 3d
       -0.19891842 0.26128182 -0.26187393 0.033372097
000310 56 aa 01 bf fd 7e d2 3e cb 28 3c 3d 3b 09 79 3e
       -0.50650537 0.4111251 0.04593734 0.24319927
000320 c9 5d 97 be 60 11 8e 3e 21 ab 3a 3e 5f ab 99 bd
       -0.2956374 0.2774763 0.18229343 -0.075033896
000330 8c 7e 94 3d eb 58 b2 be fb f1 de be 4e ae af be
       0.072506994 -0.34833464 -0.4354399 -0.3431267
000340 90 02 b6 3e 70 3f 02 bf dd 22 a9 bd 0a 02 ea 3d
       0.3554883 -0.5087805 -0.08258603 0.1142617
000350 99 1b 9d 3d 9b 9f cf be a7 82 14 3e 11 3d 97 3d
       0.076712795 -0.40551457 0.14502965 0.07384694
000360 54 cd 34 bd c7 b3 c1 3d 17 86 84 3e 0d e8 1d be
       -0.04414113 0.09458118 0.25883552 -0.15420552
000370 6e fa 91 3b 6c e5 2c 3d da 8b 34 be 9a e7 1d bd
       0.0044549024 0.04221098 -0.17631474 -0.03855095
000380 cf 85 64 3c 10 0e 27 3e 74 94 a0 be 6d 00 88 be
       0.013947918 0.16313958 -0.3136326 -0.26562825
000390 8a 91 56 3e 72 c9 ac 3e 86 e6 1f 3e e0 07 3d 3e
       0.20953956 0.3374744 0.15615281 0.18460035
0003a0 4f b6 57 3e bd 47 99 be 1c 19 92 be 28 f9 15 3e
       0.21065639 -0.29937544 -0.28534782 0.14645827
0003b0 a4 08 99 3d cf 56 04 3e 50 7b 8e bd 6b 7b c8 3e
       0.07472351 0.1292374 -0.06957114 0.3915666
0003c0 e6 bb 84 3e 3d f3 bd be 25 ba 70 3d 18 f5 64 3e
       0.25924605 -0.3709964 0.05877127 0.22359121
0003d0 bf b0 15 be fc a7 c4 be 32 25 d3 bd c6 06 99 3e
       -0.14618205 -0.38409412 -0.10309829 0.2988798
0003e0 ec b5 9d 3e b4 65 cb bd 4a eb 88 3d d0 d0 15 3c
       0.30802858 -0.09931508 0.06685503 0.009144023
0003f0 d3 0f 12 be 0b 1a 7b bd cd 66 29 be dc ae 2f 3e
       -0.14263849 -0.061304133 -0.16543122 0.17156547
