results_109/simple/ppo/seed_1_step_50_ms_ce_minp2_maxp_2_mina_5_maxa_5_tn_3000_act_10.pt (torch, 132838 bytes, 16 tensors)

weight f4 [64, 100]
000000 88 81 a8 3e 97 fe ac 3d c0 f5 bc 3d 9f 27 12 3d
       0.32911325 0.08446997 0.092265606 0.035682317
000010 05 47 fa be 0b ca 14 bf aa bd ad 3c 3c b8 f3 bb
       -0.4888231 -0.58120793 0.021208603 -0.007437734
000020 a7 2a 19 3e 58 7d 52 3d 92 69 9c 3e 80 de 97 bd
       0.14957677 0.05138907 0.30549294 -0.074154854
000030 3b 76 a4 3d 19 25 24 bf 0d 6d 77 3d b5 87 aa bd
       0.08030363 -0.64119107 0.060406733 -0.08326665
000040 1e e6 9c 3e 15 d2 c3 be 6c 0f ec be 4d 3c d6 3e
       0.30644315 -0.38246217 -0.46105516 0.4184288
000050 e1 b1 5e be 11 76 cb bd 3d d0 76 be 89 29 e0 3d
       -0.21747543 -0.09934629 -0.24102874 0.10945422
000060 e3 5a a0 be fd b6 68 be b9 f2 80 3e 9c a5 6c be
       -0.3131934 -0.22726054 0.25185183 -0.2311005
000070 45 8a d1 3d 64 0d c5 bd 21 a4 db 3d b1 a1 a7 bb
       0.10231451 -0.09621695 0.107246645 -0.0051157107
000080 f0 66 40 be 79 42 85 3c a2 ae 6f bd 0b 7e 2d bf
       -0.18789268 0.016267048 -0.058516152 -0.6777045
000090 36 50 4f be 9e be 42 be 6f 6a 17 be 30 c1 40 3e
       -0.20245442 -0.19018027 -0.14786695 0.18823695
0000a0 14 53 75 3e 3d a6 97 be 52 56 5d 3d 8a c5 3c 3f
       0.23957473 -0.29619017 0.0540374 0.7373892
0000b0 c2 d3 91 3c c2 eb cb 3b d3 66 a9 be 07 31 9f 3e
       0.01780117 0.006223173 -0.3308626 0.31092092
0000c0 08 11 19 bf 17 9b 01 3f 27 03 c4 be 29 97 2a be
       -0.5979161 0.50627273 -0.38283655 -0.16659226
0000d0 19 6f fc be 53 8d d2 be a3 d6 73 be 38 80 10 3f
       -0.4930351 -0.41123447 -0.23812346 0.56445646
0000e0 17 e5 c1 3e fc 8f 29 3e 6c 75 0a be 18 a2 eb 3e
       0.37870094 0.16558832 -0.13521355 0.46022105
0000f0 dc 0c 8c 3e 2c e4 04 3f 3a e9 29 3e de 51 b1 3e
       0.2735356 0.5191066 0.16592875 0.34632772
000100 5e fc 68 be 5b 0c c4 3e d8 49 19 3f 89 3c ca 3e
       -0.2275252 0.38290676 0.598783 0.3949931
000110 41 95 b3 3e 66 e3 3f 3f 06 c7 d0 bd 8a e0 97 be
       0.3507481 0.7495636 -0.10194211 -0.29663497
000120 ac 0c 99 be 3f cc 69 3e 38 76 23 3d 7c f1 4e bf
       -0.2989248 0.2283182 0.039907664 -0.80837226
000130 e7 f4 2c bd 22 29 cb 3e bc 22 05 bf f6 01 e1 3e
       -0.042225745 0.3967982 -0.52006125 0.4394681
000140 42 22 c8 be 4c 7b 48 be 45 85 b4 bc a3 2a 43 bf
       -0.39088637 -0.19578284 -0.022036204 -0.76236933
000150 a5 46 99 be 41 6f dc be 5d 21 29 be 08 b0 93 bf
       -0.2993671 -0.4305363 -0.16516633 -1.1538095
000160 76 ab 76 bf d6 ed 1d bf a4 3e 7c 3c ec fb a6 3e
       -0.9635538 -0.61691034 0.015395794 0.32614076
000170 9a 77 58 bd 77 d1 93 bd 9f 91 cc be 99 69 3f 3e
       -0.052848436 -0.072176866 -0.3995485 0.18692626
000180 84 99 f3 3e c4 b8 69 3e bf 3e ae 3d 50 8d 30 3e
       0.4757806 0.22824389 0.085080616 0.17241406
000190 c9 0c 82 3e e5 14 db 3d e8 b9 16 3e ba 9d 8c be
       0.2540038 0.10697345 0.14719355 -0.27464086
0001a0 0d 7e e0 be af 8c cb 3d 18 d9 85 3e db d1 dc be
       -0.4384617 0.09938943 0.26142192 -0.43128857
0001b0 70 d9 00 bd f3 38 db bd 15 99 f9 bd 7e dc a9 3c
       -0.031457365 -0.107042216 -0.12187401 0.020735022
0001c0 b6 51 75 be d2 4c f1 3e d1 dc 78 be 7b 4d 8d be
       -0.23956951 0.47128922 -0.24302985 -0.27598175
0001d0 d5 b1 2d 3d 60 61 04 3e 34 5d d5 be 28 d3 e7 3e
       0.042405922 0.1292777 -0.4167267 0.45278287
0001e0 fb e3 b0 be 22 98 3e 3f 52 95 02 bf 46 e4 1e 3f
       -0.34548935 0.74450886 -0.51009095 0.6206707
0001f0 9e 5e 3b bf 43 3e d3 be 2d ef 46 3e f0 0f 13 3e
       -0.7319125 -0.4125844 0.19427176 0.14361548
000200 09 32 a0 3e 94 d6 a9 be a2 15 cb bc 6b c5 5f be
       0.31288174 -0.33171523 -0.024790589 -0.21852653
000210 96 6b a9 bd 09 c9 94 3e e2 40 b6 be 75 81 20 bd
       -0.082724735 0.29059628 -0.35596377 -0.03918596
000220 d3 cf 6f 3d 1f e8 51 3d 47 06 80 be 8b ce 61 be
       0.058547806 0.05124676 -0.2500479 -0.22051446
000230 32 8e e3 be 19 7c 81 bd 5a d8 8d 3e 0d 98 b0 3e
       -0.44444424 -0.06322498 0.27704126 0.34491006
000240 f7 44 97 be d3 3c ed be 16 4f be 3d 0d 6f f8 be
       -0.29544804 -0.46335468 0.09292428 -0.48522225
000250 f9 4c 50 3e dd b7 96 3e 8f 0f 8b be 9a 51 d5 be
       0.20341863 0.29437152 -0.27160308 -0.4166382
000260 a5 b2 10 bf 61 7c 73 bf b5 34 eb be 8c e9 02 bb
       -0.5652259 -0.9511166 -0.4593865 -0.001997563
000270 c5 a8 8a be 81 46 ee bd d9 f7 1d 3d e8 90 e7 3e
       -0.27081886 -0.11634541 0.038566444 0.45227742
000280 70 1f b2 bd fd 2e 36 3f b4 42 e7 3d d2 99 fd 3e
       -0.086974025 0.7116545 0.112920195 0.49531418
000290 1f 92 ff be 48 bc a3 be f2 d3 ff bd 57 8f e9 3d
       -0.4991617 -0.31979585 -0.12491597 0.11404293
0002a0 65 95 39 bf 7c b6 5a be c8 7f 5d 3f 01 aa 50 be
       -0.7249358 -0.21358675 0.86523104 -0.20377351
0002b0 7a 87 24 3f b6 9a 42 bc 7e 0f 14 be 29 57 24 be
       0.6426922 -0.011877706 -0.14459035 -0.16048874
0002c0 9b 79 1a 3f b8 76 14 3f f0 b0 b8 3e 95 84 c6 3e
       0.60341805 0.5799365 0.36072493 0.38773027
0002d0 42 dc 1a be 54 4a 4c bf 5c 60 ec be ea 24 a6 be
       -0.15123084 -0.79800916 -0.46167266 -0.32450038
0002e0 ed 18 57 bf 7f c8 46 bd 31 09 37 3c 39 30 dc ba
       -0.8402241 -0.04853105 0.011171625 -0.001679904
0002f0 30 37 de bd 54 a3 85 be d0 33 ca 3e 30 85 c2 3c
       -0.1085037 -0.26101172 0.39492655 0.02374515
000300 82 dd 8a be 72 e3 ba 3d 65 a9 d0 3e 3a 66 e2 bd
       -0.27122122 0.09125413 0.40754238 -0.110546544
000310 3a fa a3 bd 19 07 d2 3c 8e 0c 8d 3e a3 d3 97 3e
       -0.08006711 0.02563815 0.2754864 0.29653654
000320 a7 e1 56 be da a2 29 bd 35 8c 81 bc e0 d0 a0 be
       -0.20984517 -0.041415073 -0.015813926 -0.3140936
000330 12 61 cb 3d c7 77 a8 bd 90 cf 98 3e 65 6b 78 3e
       0.09930624 -0.08225971 0.29845858 0.24259718
000340 80 8b c3 3d 6d 44 ac 3e bf ce 09 3f b1 f1 09 3f
       0.09548092 0.33645955 0.53831095 0.53884417
000350 5e e4 d8 3d 86 bd 84 be 55 87 d0 3e ca 32 23 3f
       0.105904326 -0.25925845 0.4072825 0.6374937
000360 80 04 d7 3e 25 17 98 3e cc 9c 3b bd 6c 2b 5b 3e
       0.4199562 0.29705158 -0.04580383 0.21403283
000370 15 50 19 3b ad 9d 74 3d 25 d4 93 be 49 ba 11 3e
       0.002339368 0.059720684 -0.2887279 0.14231218
000380 d8 88 71 3d 97 cf 0e be ab d4 36 be eb 92 b2 3d
       0.058968395 -0.13946377 -0.17854564 0.08719429
000390 85 43 4f 3e 06 98 af be 77 d1 66 3d f8 ca 17 bf
       0.202406 -0.34295672 0.056352105 -0.5929408
0003a0 6d 70 da ba 8d 8b a2 3e f2 6f 45 3f 1e 1c 81 3e
       -0.0016665586 0.31747094 0.7712394 0.25216764
0003b0 c1 7c b3 3c 53 7f ce 3e d6 46 c4 bd 7a 77 a7 bd
       0.021910073 0.40331516 -0.095838234 -0.08177085
0003c0 32 a8 56 3c a1 89 cb 3e 56 62 29 3d 1d 61 9c 3d
       0.013101624 0.3975344 0.041353546 0.076357104
0003d0 cc 0e 65 3e 91 49 8f bd 59 9c 84 3d 11 59 08 3d
       0.22368926 -0.069964536 0.064751334 0.033288065
0003e0 a1 a7 dc 3c 96 01 83 3e ba 09 b2 be c9 70 6e bf
       0.0269354 0.25587147 -0.34773046 -0.93140846
0003f0 67 18 08 bf f7 e8 80 bf 84 02 b8 be bb fe 59 bf
       -0.53162235 -1.0071095 -0.3593942 -0.8515431

bias f4 [64]
000000 b0 6b f5 3e 85 85 44 3e c8 c0 84 be 8f c3 0d 3f
       0.47933722 0.19191559 -0.2592833 0.55376524
000010 25 20 7c 3e 23 7b 98 3e 22 d3 79 be 36 42 5c bb
       0.24621637 0.29781446 -0.24396947 -0.00336088
000020 0a b2 3a be 5f f2 fc 3c 3a 05 ff 3d a9 1e 89 3d
       -0.18231979 0.03087729 0.12452169 0.06695301
000030 07 af 00 3e e0 b6 bc bd 89 4d 29 3e 54 93 24 bf
       0.12566768 -0.09214568 0.16533484 -0.64287305
000040 2c 1f 11 be 0b 9f 5d be d3 c3 11 be 62 a8 4b 3f
       -0.14172047 -0.21642701 -0.14234857 0.79553807
000050 d7 cd f6 3c 17 a6 ba be 50 c7 39 be 15 61 72 3e
       0.030127449 -0.36454841 -0.18142438 0.23669846
000060 fe e2 e6 bd 56 1c f0 3b 15 9e 68 3e a6 7f a9 be
       -0.11273764 0.0073275967 0.22716554 -0.331052
000070 2c a4 90 3e fd cf 8a 3e 04 96 82 be 19 79 a1 be
       0.28250253 0.27111807 -0.25505078 -0.31537703
000080 f4 15 af 3e cb d1 df be 68 ac bd 3e f5 4f 06 be
       0.34196436 -0.43714747 0.37045598 -0.13116439
000090 b4 1a bb bd 7b c9 b3 bd d5 fd fc bc d7 05 7b be
       -0.091359526 -0.08778664 -0.030882755 -0.24513946
0000a0 38 23 45 bb 16 c6 a3 3e c1 b5 1f bc b1 65 5c be
       -0.0030080806 0.31987065 -0.009747923 -0.21523167
0000b0 ef ad 21 be 75 cd 6d ba ed ee 0d 3e 17 74 ed bd
       -0.15789007 -0.0009071448 0.13860674 -0.11594408
0000c0 d5 92 35 bd f4 3b c8 be 1e 79 58 be 4d 5d 1b 3e
       -0.044329483 -0.3910824 -0.21139953 0.1517231
0000d0 48 16 15 bf 88 06 97 3e bd b9 45 3e b1 6e ab 3e
       -0.58237123 0.2949717 0.19309135 0.33482888
0000e0 d5 e9 99 bd 65 87 1e 3f 22 9c 52 be fa 98 20 be
       -0.07515303 0.61925346 -0.20567372 -0.15683356
0000f0 e6 e2 9c be 6f ea 82 be 3f f2 ca bd e6 a5 16 3f
       -0.3064186 -0.25569484 -0.09909486 0.5884689

weight f4 [64, 64]
000000 1f 2c 2b be a3 21 db 3e b9 1b de bd 38 b1 c9 be
       -0.1671605 0.427991 -0.108451314 -0.3939302
000010 fb 7e da be 2e 28 0c 3f 95 9b 69 bd 4f ae 9d be
       -0.42675003 0.5474881 -0.05703314 -0.3079705
000020 69 d7 f8 bd 6c e3 54 be d4 1c b7 3e 05 17 bd 3d
       -0.12150461 -0.2078988 0.35764182 0.09232906
000030 fb d6 17 3f 60 ca 9a 3e ba d9 2a bf 15 cf ca 3e
       0.5931241 0.30232525 -0.66738474 0.39611116
000040 ad 52 2a 3f ef 47 13 be 80 4a 23 be 73 fe 69 be
       0.66532403 -0.14382909 -0.15946388 -0.22850971
000050 7a 3f d8 be 77 31 6f 3d 73 10 18 3e e2 d5 8a 3e
       -0.4223593 0.058396783 0.14850025 0.27116305
000060 9e 14 e1 bd f7 1f 2d be 1f 0b ff 3e 3d 91 1c 3f
       -0.109902605 -0.16906725 0.49813172 0.61159116
000070 13 0a b5 be 4d 80 9e be fe 06 de 3e 89 fd 17 3f
       -0.3535925 -0.3095726 0.4336471 0.5937124
000080 7d e3 80 be 85 7d aa be c0 0d 92 be 63 89 1e 3e
       -0.2517356 -0.3329889 -0.28526115 0.15482096
000090 10 a3 68 3e 8d 74 00 be 78 62 c8 3e 02 3e bc 3e
       0.22718453 -0.1254446 0.39137626 0.36766058
0000a0 81 23 40 bb 5b f7 51 3f 63 1c d9 3e 7d 22 2e 3e
       -0.0029318037 0.8201806 0.4240447 0.17005344
0000b0 a4 27 f7 bd c6 fd 8e 3c eb 2a 4e 3f 97 ba c1 be
       -0.12068108 0.017454993 0.8053424 -0.3783767
0000c0 56 22 9a be 2d 07 e6 be a0 12 23 3f ab 16 dd 3e
       -0.3010432 -0.4492735 0.63700294 0.43181357
0000d0 38 ba 2b 3f 37 e1 cc 3e 79 13 cc bd fe 10 81 bd
       0.6708102 0.40015575 -0.099646516 -0.06302069
0000e0 3f a5 98 3f 47 3d 8d be fe 3e 14 bf 68 50 40 3f
       1.1925429 -0.27585813 -0.5790862 0.7512269
0000f0 3f 13 1a 3b 43 83 5d be 69 8e 18 3f bf b5 ab 3d
       0.0023510007 -0.21632104 0.595923 0.08384275
000100 41 da 3a be 2c d3 c2 3e 19 86 2e 3f 8c 33 1c 3f
       -0.1824732 0.38051736 0.68173367 0.61016154
000110 7e 73 84 3e 82 13 95 be 5e 35 81 bd 82 9c 02 bf
       0.25869364 -0.29116446 -0.06309007 -0.5102006
000120 9e 0d 80 3e d3 ec 40 be 3c 7d a9 be e2 ab 0e bf
       0.2501039 -0.18840341 -0.3310336 -0.5573102
000130 6a 9a 9b bd 1c 1c 01 bf cf 2c 0c ba bc f8 1f bf
       -0.075978115 -0.50433517 -0.0005347253 -0.62488914
000140 83 4e 50 3f e7 81 6b bd 96 a4 11 3e 59 d6 7c 3e
       0.813698 -0.05749693 0.14222941 0.24691142
000150 d1 d0 f8 bd b8 c6 94 be 8f 73 91 be 3b 3d 11 3e
       -0.121492036 -0.2905786 -0.28408477 0.14183514
000160 1b 3b b2 bd 52 ea 0c bf 11 fc ef be ef 4a 06 be
       -0.0870268 -0.55045044 -0.46872 -0.13114522
000170 2d 6f d0 3e 76 c0 61 be ad 32 aa 3d a5 43 0f bd
       0.4070982 -0.22046074 0.08310447 -0.03497662
000180 0e 32 36 3d 95 3a ee 3e c8 82 b0 3e b3 b4 03 bf
       0.04448133 0.4652907 0.34474778 -0.514476
000190 af ae c4 3e b9 f9 57 be d5 16 fe 3e 9b 2d fb bd
       0.38414523 -0.21091355 0.49626794 -0.12264558
0001a0 28 a0 a3 be 91 4e c0 be 52 e0 e9 be 23 3f d8 be
       -0.31958127 -0.3755994 -0.45678955 -0.4223567
0001b0 8e 46 c3 3d ff ec a8 be 22 a9 3a bf ac c6 f0 3d
       0.095349416 -0.32993314 -0.72914326 0.11756644
0001c0 cc 6a 86 3f a1 e1 ae bd c0 e5 53 bf c7 9b eb 3e
       1.0501342 -0.08539129 -0.82772446 0.46017286
0001d0 29 49 ca 3e 64 d0 b1 be ea 40 12 3f f1 29 98 3e
       0.39508942 -0.34729302 0.571303 0.297195
0001e0 02 4b 6f 3e 11 1d c0 be 4e bd 59 3e 6a b8 15 3f
       0.23368457 -0.37522176 0.2126362 0.5848452
0001f0 ef 43 12 3f 66 ab 38 be 7e 94 f8 3e be ca 59 3f
       0.5713491 -0.18034133 0.4855079 0.85074985
000200 2f 3f fa 3d 5f 87 21 bf 3a fe 18 bf 3b 1b 2a be
       0.122190826 -0.63097185 -0.5976292 -0.1661195
000210 23 bb 7b be f3 7d bd 3d 0d 5d 9a 3d 79 1f 5e 3e
       -0.24583106 0.092525385 0.07537279 0.21691693
000220 34 c6 8e 3e 03 ea 34 3f 59 46 84 be aa 50 9c be
       0.27885592 0.70669574 -0.2583492 -0.30530292
000230 69 b9 59 3e b9 dc a3 be 49 8c 81 bd 76 ad a9 be
       0.21262135 -0.32004336 -0.063255854 -0.33140153
000240 f0 08 5f bf 55 ad 77 be cc bd ee bd 3c 7b e7 3d
       -0.8712301 -0.24187215 -0.11657295 0.11302802
000250 c2 42 c9 3e f3 a0 99 bd ad 54 84 be 8f 1d d5 be
       0.39308745 -0.07501402 -0.25845852 -0.41624114
000260 dd dd 86 3f f1 99 18 3f c5 bf ba 3e 8a 7c e6 be
       1.0536457 0.59609896 0.36474434 -0.4501689
000270 5a 15 8f be 86 f3 83 3e 9c a0 2c 3e ff ee 0b 3f
       -0.27945977 0.2577173 0.16858143 0.54661554
000280 94 62 32 3d a2 9e 8f 3e 30 90 63 3e db f8 e3 bd
       0.043551043 0.28050715 0.22222972 -0.1113145
000290 37 b9 30 3f 36 7a 13 bf 24 f5 ca 3e 03 73 22 3e
       0.69032615 -0.57608354 0.39640152 0.15864186
0002a0 c8 c5 f0 be d0 98 b4 be 01 a9 9e 3e af f1 8d 3e
       -0.47025895 -0.35272837 0.30988315 0.27723452
0002b0 9d 3a 95 3f c0 bd 58 be 06 04 18 3d 5b e0 1f 3f
       1.1658512 -0.21166134 0.037113212 0.62451714
0002c0 34 98 23 be 8c 27 6e be c6 3c c3 be 35 1e b6 3c
       -0.1597603 -0.23257273 -0.38132304 0.0222312
0002d0 36 72 25 3f 32 29 de be f2 c2 0b be 5d f3 09 bf
       0.646274 -0.43390805 -0.13648584 -0.5388697
0002e0 1c e7 32 be 89 be 2c bd eb e9 4e 3e f5 14 50 be
       -0.17470974 -0.042173896 0.2020642 -0.20320494
0002f0 09 29 33 3e 0a b9 ce 3e 74 e5 b7 bd 3c 94 12 3d
       0.17496122 0.4037555 -0.089793116 0.0357859
000300 f1 80 92 be 19 ae ad 3d eb 0a 21 bf b2 aa ab 3e
       -0.28614 0.08480472 -0.62907284 0.33528668
000310 8e 7f 2f 3f ea c2 ad 3e e3 3e bf be da f0 5b 3e
       0.6855401 0.3393777 -0.37352666 0.21478596
000320 fc 94 0d bd de a6 2c 3f ca fc 8d be 0d a9 eb bd
       -0.03456591 0.6744212 -0.27731925 -0.11506853
000330 1b 35 68 3e 56 93 ce be 86 26 69 3e 8f ab 20 bf
       0.22676508 -0.40346783 0.22768602 -0.6276178
000340 d0 c4 b8 3e 18 69 05 be 58 02 f9 be 6c 97 22 3c
       0.36087656 -0.13028371 -0.486346 0.009923797
000350 92 76 0f bf 94 da 05 bf 26 80 4b 3d 7b d5 83 3a
       -0.560403 -0.5228665 0.04968276 0.0010058129
000360 5d 7c 11 3f a7 a8 c4 3e 11 dd df 3e ce 6d 11 3f
       0.5683039 0.38409922 0.43723348 0.56808174
000370 e1 4e c5 3e f3 8a cd 3d 4b 36 4c bf e3 a6 fd be
       0.38536742 0.10036268 -0.79770344 -0.49541387
000380 b5 7b ad be 09 22 dc 3d 85 97 ce be 88 fd 8f 3e
       -0.33883443 0.10748679 -0.40349975 0.28123116
000390 41 5f 87 3e a0 97 3a bf e1 90 32 3f a6 04 06 bf
       0.2643986 -0.7288761 0.6975232 -0.5235084
0003a0 c4 de 09 bf 47 1a f2 be 66 54 7a 3f 31 75 2f bc
       -0.5385554 -0.47285673 0.9778503 -0.010709093
0003b0 61 d4 23 be 54 ef 46 3f b8 34 a2 3e a5 89 39 3e
       -0.15998985 0.77708936 0.31680846 0.18118913
0003c0 67 80 da 3e 9a 34 11 3e 6c 22 9b 3c 79 ce b6 3e
       0.42676088 0.14180222 0.018937312 0.357044
0003d0 02 12 a6 be a9 1d 04 bf ba 29 44 bf d1 a8 0e 3e
       -0.32435614 -0.5160776 -0.7662617 0.13931586
0003e0 19 e3 d7 3e c4 fd ff 3c a2 04 ef 3e e7 c4 5d be
       0.4216545 0.031248935 0.46683222 -0.21657144
0003f0 b2 96 76 be 6d 44 11 3e 61 91 bd 3c fa e8 bb be
       -0.24080923 0.14186259 0.023140611 -0.36701185

bias f4 [64]
000000 94 e3 05 3b 42 be fd 3c f9 99 07 3d 3f 65 2a 3e
       0.0020429837 0.030974511 0.033105824 0.16640185
000010 ad 8c 7b 3e 96 e9 48 b9 40 67 13 3f 23 08 bd be
       0.24565382 -0.00019160504 0.5757942 -0.3692027
000020 c2 ac 66 3d d9 e8 be bd 85 1a 62 be 27 6f d0 be
       0.0563171 -0.09321756 -0.22080429 -0.40709803
000030 3b 75 f2 be 04 65 53 3d 54 81 b4 3e 42 db 84 3c
       -0.47355065 0.051610008 0.3525492 0.016217832
000040 c1 91 8d 3e 96 d9 c8 be c8 08 81 3e 08 02 93 bd
       0.27650264 -0.39228505 0.25202012 -0.07178122
000050 e3 a4 da bc 17 8d 80 be 3e f5 15 be 4d 5a 07 3e
       -0.026689952 -0.25107643 -0.14644334 0.13218041
000060 a8 91 97 be 93 1f e9 be 72 5e ec 3d 72 bb 9e 3e
       -0.29603314 -0.45531902 0.115414515 0.31002384
000070 5e fb 9a bc 57 36 c4 3e 3b 74 86 3e d2 d9 1c 3e
       -0.01891869 0.38322708 0.26260552 0.15317467
000080 72 4a 0a 3f 0b 0f 1a be a9 5b 52 3e f9 b4 20 3e
       0.54019845 -0.15044801 0.20542778 0.15694036
000090 ce 37 27 3e 78 36 cd bc e4 f1 23 bf ff fd ca 3c
       0.16329882 -0.025050387 -0.6404097 0.024779318
0000a0 d9 b1 89 3e ab 4d 02 bf 7a f8 c3 ba 6e d0 28 3d
       0.268935 -0.5089976 -0.0014951371 0.0412144
0000b0 dd da b8 be 15 33 89 be b6 3c a6 3e 55 02 a6 bc
       -0.3610448 -0.26796785 0.32468194 -0.020264784
0000c0 4c 7d 4e bd a9 ff 31 3e 3e 41 a3 3d ea 6f 27 3f
       -0.05041246 0.17382683 0.07971428 0.6540514
0000d0 dc 78 83 3e dd 60 b6 be dd 52 e0 bd f6 03 2c 3d
       0.25678146 -0.35620776 -0.10953305 0.041995965
0000e0 b8 d5 b6 be 86 a9 f3 3c bd ce 82 be 99 5f 08 3d
       -0.3570993 0.029743921 -0.25548354 0.033294294
0000f0 0a 22 0e 3f e2 b9 17 3f 27 40 97 3e e1 ef 68 3c
       0.5552069 0.5926801 0.29541132 0.014217348

weight f4 [64, 64]
000000 28 39 46 be 0e 44 1f bf 13 d3 38 bf 01 b3 42 bf
       -0.19357741 -0.6221322 -0.72197074 -0.7605439
000010 19 9f 5e 3e 4d 58 4e 3e 34 ed 31 3c 41 62 9a 3f
       0.21740378 0.20150872 0.010859776 1.2061235
000020 08 78 e6 3d 93 13 19 be 1a ff 3b bf 08 77 d7 3d
       0.11253363 -0.14948873 -0.7343613 0.1052075
000030 a5 20 23 bf cb 4d b3 3e 76 c0 84 be 9d a9 79 bc
       -0.63721687 0.3502029 -0.25928086 -0.015238193
000040 af 93 d5 be a2 cd 7f 3c a6 e9 aa be ea d1 7f 3e
       -0.41714236 0.0156129915 -0.33381385 0.2498242
000050 d3 ca 93 3e cb 7f 03 3e 38 bc d0 3e 4f 5e 7a 3e
       0.2886568 0.12841718 0.407686 0.24450038
000060 32 1f 16 3e 75 28 2d 3f 60 8e bb 3e ae 3a 80 3e
       0.14660338 0.6763986 0.3663206 0.2504477
000070 2f 1b e9 bd da ac 1c bd 54 40 81 3e 85 21 dd 3e
       -0.11382138 -0.03825078 0.2524439 0.43189636
000080 57 b1 1e be d9 62 1c bf c2 1a 83 3e 36 92 45 be
       -0.15497337 -0.6108833 0.25606352 -0.19294056
000090 a8 03 ba be 65 5c 71 be b8 75 28 3e 96 68 43 3f
       -0.36330914 -0.23570402 0.16451156 0.7633146
0000a0 db d6 84 3f d3 86 77 be b8 b1 d1 3d e7 4a 60 be
       1.0378069 -0.24172525 0.10238975 -0.21903573
0000b0 95 ae fe be a6 fe 2c bf a6 5f 44 3d 31 89 a0 3e
       -0.4974257 -0.6757606 0.04794278 0.3135467
0000c0 38 44 0b be 81 f0 e4 be 42 2a 35 3f d8 cb 24 be
       -0.13600242 -0.4471474 0.70767605 -0.16093385
0000d0 69 d7 6a 3e 09 6f 2c 3f fc 1f 3d 3d 13 d0 d3 be
       0.22933735 0.67356926 0.04617308 -0.41369686
0000e0 b5 3e d1 3e 16 09 36 bc ae 32 4e be 83 95 8b bd
       0.40868154 -0.011110565 -0.2013652 -0.068156265
0000f0 49 1c 10 3f ea 13 1d 3f 98 c9 ef 3e 59 46 22 be
       0.5629316 0.6135851 0.4683349 -0.15847148
000100 c3 fc ed be ea e1 74 bf 99 23 d0 3d 35 0f b5 3e
       -0.46481904 -0.9565722 0.1016304 0.35363165
000110 76 95 de 3d b3 04 2f bf 7f 27 4e bd 05 9b 19 3e
       0.10868351 -0.68366545 -0.050330635 0.15000542
000120 40 28 0b 3f cb 0f 01 3f 2c 71 e7 3e 2a 05 2b be
       0.5435829 0.50414723 0.4520353 -0.16701189
000130 8e a9 95 3d 39 82 0c bf cf 64 91 be 66 5e 18 be
       0.073077306 -0.54886204 -0.28397223 -0.1487976
000140 38 b3 03 3f 26 6a 47 bf 33 78 0a 3f d3 27 48 3f
       0.5144534 -0.77896345 0.5408966 0.78185767
000150 dc 77 4e 3d 11 91 08 3f 7d b0 6d 3c 6a 47 02 be
       0.050407276 0.53346354 0.01450741 -0.12722555
000160 70 d7 76 be ef c1 71 3e 4f 0f ca 3d 1c 85 38 3e
       -0.2410562 0.23609136 0.09866201 0.18019527
000170 1c 14 d5 be 2b 82 71 be 7c 3a 56 3e fa cc 9c bd
       -0.41616905 -0.23584811 0.20920748 -0.07656284
000180 c7 cb 02 3f ed 59 c4 3d 15 ca 25 3f 8e 8b f3 bd
       0.5109219 0.095874645 0.6476148 -0.11891852
000190 7c 2a 41 be 64 70 d1 3e bc e6 bb be e8 d9 20 be
       -0.18863863 0.4090606 -0.36699474 -0.15708125
0001a0 24 6c 10 bf ee 2f fb 3d ae 5a 26 ba f5 ef 40 3e
       -0.5641501 0.12265001 -0.000634591 0.18841536
0001b0 d4 2e bb 3e f0 ac 93 bc ec 1b 3c 3f 9f 8c 2d bf
       0.36559165 -0.018026799 0.73480105 -0.67792696
0001c0 0b 89 79 be 54 7e 8a 3d fc 47 d9 bd e2 1c b7 3d
       -0.24368684 0.067623764 -0.10609433 0.08941056
0001d0 02 b4 5d 3f 1c 82 73 bf 42 72 90 bd 82 60 99 3e
       0.86602795 -0.95120406 -0.07053043 0.29956442
0001e0 f9 5c 6e bf 10 aa 05 bf 13 1e cc be de ac 8b be
       -0.93110615 -0.5221262 -0.39866695 -0.27280325
0001f0 1a 85 40 bf 19 9e e2 3e 12 39 56 bf 40 e5 00 3f
       -0.75203097 0.44261244 -0.8368083 0.5034981
000200 90 46 3e bf 69 9b 64 3f 0c a0 f2 3e 3d 40 75 3e
       -0.7432642 0.8929964 0.4738773 0.23950286
000210 e3 a0 4a be 99 36 8f bc 6e cb 43 3e 89 a0 b7 be
       -0.19787936 -0.017482089 0.19120571 -0.35864666
000220 38 44 d4 ba 72 75 c6 bf 91 70 49 3d 90 db 68 3e
       -0.0016194647 -1.5504591 0.049179617 0.22740006
000230 d2 f2 ab be 44 59 f1 3d 62 59 21 bd 21 d2 b1 3e
       -0.33583695 0.11784604 -0.039391883 0.34730628
000240 5a 4c 67 3e 74 0f 3d 3f 3d c2 9a 3e 06 61 22 be
       0.2258772 0.73851705 0.30226317 -0.15857324
000250 9c fb 07 3f eb b6 ab 3d 3e 02 85 bd ee 43 e9 bd
       0.531183 0.08384498 -0.06494568 -0.1138991
000260 61 3c d7 3e 6d bc ca be a1 db 9d be 25 8f 38 3f
       0.42038253 -0.39596882 -0.30831626 0.7209342
000270 4b 7a 0e be d8 80 43 3f cd 32 f8 be 72 0c 49 3e
       -0.13913839 0.76368475 -0.48476258 0.19633654
000280 9f 13 cf 3e d5 1c a9 3e 81 89 28 be 78 4a 2a 3e
       0.40444657 0.3302981 -0.16458704 0.1662997
000290 ed 40 c0 bd 4d 67 71 3e 01 e9 fd 3c d0 fd c4 3e
       -0.093873836 0.23574562 0.030994894 0.38474894
0002a0 75 77 34 bf a3 5b 6a 3d 50 12 30 bf 0f bb e6 bd
       -0.70494777 0.057216298 -0.6877794 -0.11266147
0002b0 c9 e3 78 be 0d b6 93 be 5f 42 cf 3e cd 1a 07 be
       -0.24305643 -0.2884983 0.40480325 -0.13193817
0002c0 bc 21 3a bf a1 4b 03 bf 13 5b bf 3e 66 ea 17 3e
       -0.72707725 -0.51287276 0.37374172 0.1483551
0002d0 7f 75 a7 bf bf 39 8d be 40 f5 3e 3f 37 7e 52 3c
       -1.3082732 -0.2758312 0.7459297 0.012847475
0002e0 11 03 d7 3e 58 4e 33 3c a8 10 04 3e 99 c9 38 be
       0.41994527 0.010943972 0.12896979 -0.18045653
0002f0 0a 59 0e 3d f8 98 e1 3e f3 5a 4d 3f ca 31 a3 3d
       0.034752883 0.44062018 0.802169 0.07968481
000300 32 bc 64 be c0 2e 4e 3e 95 6d 95 3d 1c d2 82 be
       -0.22337416 0.20135021 0.07296292 -0.25550926
000310 96 fb ed 3e 8b 0d 00 3e 14 f1 e6 3e f0 24 ce 3d
       0.46481007 0.12505166 0.45105803 0.10065639
000320 51 f4 d5 be d4 e1 a1 bc 0c 72 f7 3e 38 b7 52 be
       -0.4178796 -0.019761004 0.48329198 -0.20577705
000330 4f 6e 4b 3f 3d eb 41 bf f1 6b ba bd ee bf 1e 3e
       0.7946519 -0.7574957 -0.091026194 0.15502903
000340 a2 b1 9c 3e 3c e1 6b bc 61 9c 3f bf 07 0c bf 3e
       0.30604273 -0.014396962 -0.7484799 0.37313864
000350 fa a9 05 3f 90 0f e1 be 52 e8 49 3e 87 e6 0f be
       0.5221249 -0.43957186 0.1971753 -0.14052783
000360 34 8c 30 be 46 c2 e7 3e 7c 0d d6 3e 1c e6 c8 3e
       -0.17240983 0.45265406 0.41807163 0.3923806
000370 5f 0c b7 3d 63 61 30 3e 36 ba b2 3f 9a 04 9c 3f
       0.089379065 0.1722465 1.3963077 1.2188904
000380 0a c2 ca bd 86 42 97 3e 8a 13 14 bc 71 71 d4 3e
       -0.09900291 0.2954294 -0.009037862 0.414928
000390 f8 d4 fd 3e a2 a7 66 be 7d 2a ba 3e 71 7f 6f 3e
       0.49576545 -0.22524884 0.3636054 0.23388459
0003a0 db 30 0f bf 80 79 25 bd ab c2 17 bf 11 79 c6 3e
       -0.5593392 -0.040399075 -0.59281415 0.3876424
0003b0 9b 03 ac 3c 89 d2 7d be 79 94 14 3f 6f 62 0f bf
       0.020997813 -0.24787344 0.5803905 -0.5600957
0003c0 1a 85 04 3e 7f 3a 81 be 3f c8 2a 3f fe dc 31 bf
       0.12941399 -0.2523994 0.667118 -0.6947783
0003d0 5a 37 d4 be 83 76 e7 3e db 26 b1 bc 7d 08 06 bf
       -0.4144848 0.45207605 -0.021624973 -0.523567
0003e0 f3 c2 31 3f 86 cb 15 3f 2b 4d b9 3e 73 b2 87 3d
       0.69438094 0.5851368 0.36191687 0.06625833
0003f0 1b d2 20 be ee 0b c1 be d4 27 ad 3e cd c1 55 3e
       -0.15705149 -0.37704414 0.3381945 0.2087471

bias f4 [64]
000000 f4 de 93 3e 3f e7 22 be bb 5e cb 3e 92 4f a4 3e
       0.28881037 -0.15908526 0.3972071 0.32091957
000010 f0 85 56 3e d8 b4 f2 bd 50 41 f0 3d 6f b3 f1 be
       0.2094953 -0.118508995 0.11731207 -0.4720721
000020 cb ba 76 be 28 78 90 be c2 50 e9 bd 9e 0b bb be
       -0.24094693 -0.28216672 -0.113923565 -0.365323
000030 76 9b aa be da a2 9e be a4 43 52 bb 22 0f 15 bf
       -0.33321732 -0.3098362 -0.0032083774 -0.58226216
000040 ce ba df 3e 25 a1 bc 3d 61 f8 e2 bd ae 08 3f bf
       0.43697208 0.092104234 -0.11082531 -0.7462262
000050 57 16 9a bd fa 09 ce 3c 0e f8 29 3e d4 ac 5a 3d
       -0.07523792 0.025151242 0.16598532 0.053387478
000060 6e 53 2e 3e a0 75 2d be 76 f9 be bd c4 6b d4 3e
       0.17024013 -0.16939402 -0.09324925 0.4148847
000070 9c d5 bb 3e 8c 16 a1 be f1 73 dd 3c 6a f1 9e be
       0.3668641 -0.31462514 0.027032824 -0.3104356
000080 25 29 9a be 5e 38 5e 3d a7 92 06 3f 6a b2 b9 be
       -0.30109516 0.054252975 0.52567524 -0.36268932
000090 df 35 22 3e ec f5 af bc e2 34 5f 3d 7e 6c 7e be
       0.15840863 -0.02147957 0.054493792 -0.24846074
0000a0 60 25 c9 3d c2 dd a0 bd 77 8e 63 3e 8c 3d 1b be
       0.09821582 -0.07854797 0.22222315 -0.15160197
0000b0 2b 22 77 be 99 12 11 3e fe 03 d7 be b9 e7 ed be
       -0.24134128 0.1416725 -0.41995233 -0.46465853
0000c0 75 15 bf 3e 81 91 68 be 4c 62 d0 be a4 b1 b2 3d
       0.37321058 -0.22711755 -0.40699995 0.087252885
0000d0 24 c6 49 3e 13 28 1a 3e d5 0f 10 3f 6f 1e 58 be
       0.19704491 0.1505435 0.5627416 -0.2110536
0000e0 46 0e 12 3f 57 ac ee 3e c9 ee 00 be 8d 7e 02 bd
       0.5705303 0.4661586 -0.1259109 -0.03185897
0000f0 35 d5 fc 3d 86 3f a3 3e 83 63 3b be 26 32 81 3d
       0.123453535 0.31884402 -0.1829968 0.06308393

weight f4 [64, 100]
000000 22 d3 90 3e 48 ac 69 3c 38 bb bd be 18 ca e8 be
       0.28286082 0.014262266 -0.370569 -0.45466685
000010 ca cd b1 3e 34 da b3 3d 53 5e 92 3e 68 18 fe 3c
       0.34727317 0.08781853 0.2858759 0.031017497
000020 75 41 8d be 5e be 35 be a8 a4 54 3e a3 9e 0b 3f
       -0.27589002 -0.177484 0.20765936 0.54538935
000030 6f 46 0c be a4 ac 01 be 3c 70 02 bf f2 3e b4 3d
       -0.13698743 -0.12663513 -0.50952506 0.08801068
000040 12 75 93 3e 70 60 9d be a8 bd be be f7 e4 6a 3e
       0.28800255 -0.30737638 -0.3725407 0.22938906
000050 0d 25 f7 3e 07 28 16 3e ed 8c 00 3e 81 bf e5 be
       0.48270455 0.14663707 0.12553759 -0.44872668
000060 94 b0 e4 3b 11 7b e4 bc 00 85 c5 3d 75 8a 79 3e
       0.0069790576 -0.027890714 0.09644508 0.24369223
000070 3a a8 01 3f ee 23 19 3f 0d ac 66 3f aa 0b a8 3e
       0.5064732 0.5982045 0.9010628 0.328214
000080 e5 ca 84 3e ba 92 c0 3d 47 60 cf 3e 21 39 95 be
       0.25936046 0.09402986 0.4050314 -0.29145148
000090 4f ae 0b bd f3 0b e9 bd a6 0d bc 3e cc a2 f9 bd
       -0.03410178 -0.11379232 0.36729163 -0.12189254
0000a0 77 fe ca 3e 0b c8 b4 bd e7 9c 1b 3e e0 10 e7 be
       0.39647266 -0.08827218 0.15196572 -0.45130062
0000b0 01 f5 f1 be c6 fa 85 be 6f 3f 56 3e 85 bc 2b 3f
       -0.47257236 -0.26167887 0.20922635 0.6708453
0000c0 57 3c f2 bd 92 a0 28 3d 32 ca 8c be 25 c2 68 bf
       -0.11827915 0.041168757 -0.27498013 -0.9092124
0000d0 45 fa 79 be 75 59 89 be 07 ec 7b be 11 42 53 3e
       -0.24411876 -0.26826063 -0.24601756 0.20630671
0000e0 77 78 a2 3d 49 c2 b1 3e 5f 41 b0 3e 17 d6 0f bc
       0.07933133 0.3471854 0.34424874 -0.00877907
0000f0 5d 4d 30 3e cd 6b ed bd 24 98 34 be 1b 9b 27 bf
       0.17217012 -0.11592827 -0.17636162 -0.6547105
000100 4c 0f 1a bd e8 05 9e be b1 e2 30 be 35 db 94 be
       -0.037612244 -0.3086388 -0.17273976 -0.29073492
000110 24 50 cd 3e c9 48 44 3d 56 4c 95 be 31 2f 0f 3f
       0.40100205 0.047920976 -0.29159802 0.55931383
000120 a2 d9 c5 be 8d 2b 18 3e 77 34 95 be 82 f7 b6 bd
       -0.38642603 0.14860363 -0.2914159 -0.08933927
000130 89 bd f2 be 97 7b 54 bf 70 04 c8 bc 22 a9 95 be
       -0.4741023 -0.83001083 -0.024416178 -0.292306
000140 8f e3 8b be f7 c3 c9 3e cf e0 42 be 46 0f fd 3e
       -0.2732205 0.39407322 -0.1903107 0.49425715
000150 ec f6 e7 3e 8f 19 3b be 4d d0 18 3f 4f f9 31 3f
       0.45305574 -0.18271469 0.5969284 0.6952104
000160 3d e7 8d bd 43 34 9b 3e 34 08 a2 3f 57 ab 12 be
       -0.06928871 0.3031331 1.2658753 -0.14323173
000170 ed af 02 3f 58 7d ce 3e 1c 6a 0d 3f 5e b4 29 be
       0.5104969 0.40330005 0.55240035 -0.16572711
000180 09 3f bc be 0a d0 59 3e 64 45 82 be 29 3f 33 bc
       -0.36766842 0.21270767 -0.25443566 -0.0109403515
000190 1d 34 c5 bd 26 e5 c7 3e 09 4c 92 be be 8d 78 be
       -0.096290804 0.39042014 -0.28573635 -0.2427282
0001a0 c4 82 0f bf 69 0a ca 3e f7 bc db 39 7d 43 bd 3e
       -0.5605891 0.39461067 0.00041911725 0.36965552
0001b0 d4 d0 59 be aa 21 8d bd 0f 88 5b 3d f6 35 b1 3c
       -0.21271068 -0.068911865 0.053596552 0.021632176
0001c0 1f 00 1f be c5 5a 26 be 15 b1 54 3d b1 8a b1 be
       -0.1552739 -0.16245563 0.05192669 -0.34676126
0001d0 49 94 37 bd 90 d6 e9 3d d0 39 ed bd e0 a6 02 3e
       -0.04481915 0.11417878 -0.115832925 0.1275897
0001e0 74 63 fd 3d 79 38 34 be ed 39 99 3e b2 27 6c 3e
       0.12372485 -0.17599668 0.29927006 0.23062018
0001f0 94 cb e0 3e 4a 5c 80 bd ea 69 a8 be 96 07 ee 3e
       0.43905318 -0.06267603 -0.32893306 0.46490163
000200 ec 71 9f 3e 37 95 97 be a0 52 c7 be 0c 49 06 3e
       0.31141603 -0.2960603 -0.38930225 0.13113803
000210 4f f9 01 3f cf 92 1e bd c0 de 0d bf aa a4 46 bf
       0.5077104 -0.038714226 -0.55418015 -0.7759501
000220 c5 b8 f6 be b3 15 37 3c 1f 20 4b 3e 44 5b 72 be
       -0.48187843 0.011174607 0.19836472 -0.23667628
000230 c0 f4 2b be cd 72 16 be 6a bf 2e be 9b fe 11 3e
       -0.16792583 -0.1469223 -0.17065206 0.1425728
000240 76 c8 dc bd 4c 08 37 be 4e 33 11 bd 3d 99 42 bf
       -0.107804224 -0.17874259 -0.03544932 -0.76015073
000250 0a b7 ca be 15 a6 30 be 59 4f c6 bd 85 3d 63 3e
       -0.39592773 -0.17250855 -0.09683103 0.22191437
000260 59 47 74 3e 46 2c 9c 3e 2e e1 a0 be 62 b7 ff be
       0.23855342 0.30502528 -0.31421798 -0.49944597
000270 0f 01 01 bf f5 8d 0a bf 66 d1 b8 3e fb fd 9a be
       -0.5039224 -0.5412286 0.36097258 -0.30271897
000280 27 9c 80 3e fb 46 d2 3e 5c 97 dd 3d 01 74 01 be
       0.25119135 0.4106978 0.10819885 -0.12641908
000290 d8 43 27 3d 83 73 ad be ae 31 74 be 1b e5 21 bb
       0.040836185 -0.3387719 -0.23847076 -0.0024703208
0002a0 5f 1e 40 be 42 25 78 be 70 6b 4a bd ee 93 ae be
       -0.18761586 -0.24232963 -0.049418867 -0.34097236
0002b0 44 4d 24 3e b0 98 00 3f 90 81 89 3d bf 60 af 3c
       0.160451 0.5023298 0.06714165 0.021408437
0002c0 e5 d0 be 3e 2d 7e 3c 3f c9 89 a2 3e 71 4b 13 3f
       0.3726875 0.7363003 0.31745747 0.5753699
0002d0 71 2c 60 3f 3b 2d 35 3f 05 c5 85 3f a9 ef 28 3f
       0.8756781 0.7077214 1.045075 0.6599069
0002e0 86 a0 2f 3f b9 5d 6e 3f f0 73 8c 3e 3b 0a c0 be
       0.68604314 0.9311176 0.27432203 -0.37507805
0002f0 73 c0 42 bd 1e 58 db be b0 e0 15 3f ae 91 20 3f
       -0.047546815 -0.42840666 0.5854597 0.6272229
000300 09 7a 1b 3f 9a 53 af 3e 8a 29 79 3e ea 28 4d 3d
       0.60733086 0.3424347 0.24332252 0.050087847
000310 27 9a c1 3d d0 f9 c6 3d b1 eb 9e 3e 6e 84 c4 be
       0.0945323 0.09715617 0.31039193 -0.38382286
000320 76 50 f3 3e 8b 25 4c bf 69 b9 1a 3f ba b3 84 bd
       0.47522324 -0.79744786 0.60439163 -0.064795926
000330 86 15 d3 3e 46 36 4e be 9e 72 d5 3d 2b 61 69 3d
       0.4122736 -0.20137891 0.10422252 0.056977432
000340 00 ce a8 bc 78 a6 ee 3e d6 8b 2a 3e 91 55 96 3e
       -0.020606041 0.4661138 0.16654906 0.29362157
000350 6a c7 4f 3e 5f 86 72 be 0e bb 2d 3e ea 4a 1d bd
       0.20290914 -0.23684071 0.16965887 -0.03840152
000360 da d3 42 be 32 46 87 3d 30 da 8b 3e c5 6e 00 bf
       -0.19026127 0.066051856 0.273149 -0.5016902
000370 7e aa ad 3c 18 45 0b 3f 61 2c 37 3e e6 13 00 3e
       0.021199461 0.54402304 0.17888023 0.1250759
000380 75 98 e1 be 00 ab 8d 3e 7a 42 94 be d7 36 25 bf
       -0.44061628 0.27669525 -0.28956968 -0.64536804
000390 f5 d0 21 3d 58 27 bb 3e 9e 07 a5 bd 5d 1f fd be
       0.039505918 0.36553454 -0.080580935 -0.4943799
0003a0 7f 33 aa be 2e df ce be 36 21 c1 3e 5f 43 95 3d
       -0.33242413 -0.40404648 0.3772065 0.07288241
0003b0 ff 2d 8a 3e 38 d6 c3 3e 99 80 09 be 34 c0 e5 be
       0.26988217 0.38249373 -0.13427962 -0.44873202
0003c0 bf 12 38 3f da 6a a5 be ce dc 1c bb b8 bd 9b bd
       0.71903604 -0.32308084 -0.002393532 -0.07604545
0003d0 b3 e9 04 3f 10 2a 13 bf 98 a6 81 3c 28 32 95 3e
       0.51919097 -0.5748606 0.015826508 0.2913983
0003e0 9d c2 00 be fb 5f d1 be a4 d5 65 3e 8b 1e d3 3e
       -0.12574239 -0.4089354 0.22444779 0.4123424
0003f0 77 68 83 be b5 76 95 3c ae a9 0b 3e 32 26 86 3f
       -0.25665638 0.01824508 0.13638946 1.0480406

bias f4 [64]
000000 d8 a6 14 bf 89 c2 bf be 0c c9 76 3e 05 3f b9 3c
       -0.58067083 -0.37453106 0.24100131 0.022613058
000010 c7 c3 49 3c 71 ca 94 be 26 38 bb be bb e1 02 bf
       0.012314743 -0.290607 -0.36566275 -0.5112569
000020 18 97 9d be d4 05 7d 3e 90 ca e8 3e 9b 1a fd bd
       -0.30779338 0.24709255 0.45467043 -0.1235859
000030 af f4 45 bf 5d 0d 81 be c9 44 f3 3e c8 02 44 bf
       -0.7732648 -0.25205508 0.47513416 -0.76566744
000040 26 15 38 bf e4 20 30 be 4f 92 a0 3e 11 53 05 bf
       -0.7190727 -0.17200047 0.31361625 -0.52079874
000050 4b 9f 99 3e 3a 07 56 bd be 14 24 3f 24 54 3d 3e
       0.30004343 -0.052252986 0.6409415 0.18489128
000060 e0 2b b4 3e 22 37 a8 3e 2d 1e 09 bf 41 d2 31 3e
       0.35189724 0.32854563 -0.5356167 0.17365362
000070 9b 97 41 bd 45 6f ba be 16 f9 26 3e e8 d4 9d bd
       -0.047263723 -0.36413017 0.16305956 -0.07706624
000080 44 9b a7 bd e1 d5 37 3e 0e 28 01 3e d5 18 48 3e
       -0.081839114 0.17952682 0.12612936 0.19540723
000090 4d 8a cf 3e 81 f1 49 3e b4 a3 e9 3d da a2 79 be
       0.40535203 0.19721033 0.11408177 -0.24378529
0000a0 2d 9d ad be 94 d1 85 be b7 22 a8 be 4e 90 be be
       -0.33908978 -0.26136458 -0.32838985 -0.3721947
0000b0 80 f3 b7 3e bd e7 a9 3d 88 68 3c be b8 e8 d1 bc
       0.35927963 0.08296154 -0.1839925 -0.025623664
0000c0 ba 8e 1e 3c 2d 2a 88 be ee 31 1e bd 44 e2 12 3e
       0.009677583 -0.26594678 -0.038621835 0.14344126
0000d0 3a bc c1 bd c5 9d 62 3e 6e 69 3f be 95 dd 06 3f
       -0.094597295 0.22130497 -0.18692562 0.5268186
0000e0 b8 94 1b be 08 a9 20 be b9 00 da be 63 fc c3 3d
       -0.1519345 -0.1568948 -0.42578676 0.09569623
0000f0 28 57 0d be 61 c0 10 3f 05 cc 78 3e 0a 0a ea be
       -0.13802779 0.56543547 0.24296577 -0.45710784

weight f4 [64, 64]
000000 fb ca 0d 3d cc cc 2c 3f 62 d8 a7 3e 46 5e 08 3d
       0.034617405 0.67499995 0.32782274 0.03329303
000010 62 bf 8d 3a ae b8 4e bf 1d 69 bf be 26 7b f7 3e
       0.0010814483 -0.8075055 -0.37384883 0.48336142
000020 4f 9a 4e bd b2 ed c0 bc 4b 84 88 3d 0f 12 d7 be
       -0.05044013 -0.023550842 0.06665858 -0.42005965
000030 44 4e 23 3f af 4c 04 3d c6 a8 f7 be 63 2c 97 3e
       0.637913 0.032299694 -0.4837095 0.29526052
000040 17 46 cf 3c 1c 73 04 bb 85 98 83 bf df 73 f9 be
       0.025301976 -0.0020210212 -1.028092 -0.48721215
000050 50 15 1e 3e 43 62 4e be 4d 9d 8c 3e db 33 c0 3e
       0.15437818 -0.20154671 0.2746376 0.37539563
000060 c3 ad c5 be ea 47 f9 be 1b 7f 7c 3e a5 10 ca be
       -0.38609132 -0.4868768 0.24657862 -0.39465824
000070 93 26 9b be 68 83 ed bd 25 7b 9d 3e d0 8b 33 be
       -0.30302867 -0.115973294 0.30758014 -0.17533803
000080 16 05 e0 3e 63 dc b1 be 82 38 3a 3f e1 8f 9a be
       0.4375388 -0.34738454 0.72742474 -0.30187896
000090 0f cc b8 be 72 78 5a 3f 7b b9 0e bf 82 0f 62 3d
       -0.36093184 0.85340035 -0.5575177 0.05519057
0000a0 c8 53 ba be 6a 2d 84 3f ec 4e da be 88 38 b9 bc
       -0.36392045 1.0326359 -0.42638338 -0.022609964
0000b0 b5 ac 49 3f 86 19 0f 3f c9 bd ab be cb 0c e5 be
       0.78779155 0.5589832 -0.33543232 -0.44736323
0000c0 32 47 89 be 58 aa f8 bc 97 72 e8 3e e7 d5 5f 3e
       -0.2681213 -0.030354664 0.45399925 0.21858941
0000d0 0f 44 ca 3d b5 39 c1 bd 17 41 00 bd 55 51 d9 be
       0.098762624 -0.09434835 -0.031312075 -0.42444864
0000e0 f0 7c 30 bf 54 7f 6c be 80 5f 05 bf 1d fd 41 be
       -0.6894064 -0.23095447 -0.52098846 -0.18944211
0000f0 f5 a0 01 3e 55 c3 c5 be 32 4a 2c be ce 09 1d 3f
       0.12659056 -0.3862559 -0.16825178 0.61343086
000100 5f 2b f8 3d 75 1c 74 be bb 4b e4 3d fb c1 31 3f
       0.121176474 -0.2383898 0.11147257 0.69436616
000110 f5 c3 be 3e 90 90 11 3e 35 90 20 3e de 42 b6 3e
       0.37258878 0.14215302 0.1568001 0.3559789
000120 3f d5 b8 be 9d b7 ce bd b7 df ea 3e c8 c0 e1 be
       -0.36100194 -0.10093615 0.45873806 -0.44092393
000130 15 6b 2b bc d8 2c 04 bf eb 2b 45 bf 36 7b 2b 3f
       -0.010462542 -0.51630926 -0.7702014 0.6698488
000140 8e 30 17 3f 62 e3 a4 3e fe ab 6f be e5 46 4e 3f
       0.59058464 0.3220473 -0.23405454 0.80576926
000150 d6 dd 35 be 29 7a b2 be a3 6b 98 3e 07 b2 0a 3d
       -0.17760405 -0.34858826 0.2976962 0.033861186
000160 2e e5 ea 3e e0 e4 10 bf 2c c7 c6 3d fe a9 f3 3d
       0.45877975 -0.56599236 0.09705958 0.11897658
000170 7a a9 98 3d 18 ac 0e bf bb d8 aa bd e9 75 25 3f
       0.074542 -0.55731344 -0.08342119 0.6463304
000180 68 93 a6 3e 2c da 85 bc 08 7b 47 3d 7a 6f 63 3e
       0.32534337 -0.016339384 0.048701316 0.22210494
000190 a2 e5 00 3e df 55 fe 3d 72 06 09 3f 98 bc 61 be
       0.12587598 0.12418722 0.5352546 -0.22044599
0001a0 f1 d9 eb 3e d2 ca 56 3f cf 6e 36 bf d1 17 cc be
       0.46064714 0.8390323 -0.7126283 -0.3986192
0001b0 2a e5 93 be b0 80 59 3f 2b aa 28 3e 12 5e 4d 3f
       -0.28885776 0.84961987 0.16471164 0.80221665
0001c0 2b 7b 4d 3e bd e7 d8 3e 4a 61 58 be d5 19 78 3e
       0.20066516 0.42364302 -0.21130863 0.24228604
0001d0 b3 2e 3c bf dc d2 3f bf d8 89 7b 3e 2d 24 64 3f
       -0.7350876 -0.7493112 0.24564302 0.891177
0001e0 dd e3 0d 3e 0b 3e 0a 3e 2f 62 40 3f 0f 6f 04 3e
       0.13856454 0.1350023 0.75149816 0.1293299
0001f0 52 a2 ce be 6f f5 35 3e 48 ad 9d be b6 ad c4 bd
       -0.40358216 0.17769407 -0.30796266 -0.09603445
000200 5f 5d ae be a1 7e a6 3e 05 c6 9a 3d 1d 47 25 3f
       -0.34055611 0.32518485 0.075573005 0.64561635
000210 b0 b9 4c be 28 80 6d be 49 e4 4e bf fc a9 b9 3e
       -0.19992709 -0.23193419 -0.80817086 0.362625
000220 53 ca 1b bf 86 05 d8 3e 93 76 d0 bd 83 e1 a1 bf
       -0.608556 0.42191714 -0.10178866 -1.2646946
000230 3c c9 0e bf 73 0a 25 3f 66 4b 65 3d 32 3e 19 3f
       -0.5577581 0.6446907 0.05598011 0.5986053
000240 30 d0 7c bd 21 40 54 be 72 5d c4 be ea da 3b 3f
       -0.06172198 -0.20727588 -0.38352543 0.7338091
000250 bf 98 e4 bd 87 22 08 3f 33 f3 34 bf ed c1 6c be
       -0.111619465 0.53177685 -0.7068359 -0.23120852
000260 9d 9d 4a be a5 2a 9d be 5b 32 ed be 02 25 80 3d
       -0.19786687 -0.30696598 -0.4632748 0.06257059
000270 77 e7 0f 3e 71 f9 cf 3e 08 13 b7 3e 54 2f 17 3e
       0.1405314 0.40619996 0.35756707 0.14764148
000280 31 b8 79 3f 60 e3 a7 be bd ed e0 be 97 2e 5c bf
       0.9754668 -0.3279066 -0.4393138 -0.8600859
000290 7a bb a0 3e 3c 00 1a 3e 16 37 b0 be a2 44 04 3e
       0.31393033 0.15039152 -0.34417027 0.12916806
0002a0 3d 9e 8c bf 76 e1 b6 3e 44 48 13 bf 8d ac 90 be
       -1.098579 0.35718888 -0.57532144 -0.28256646
0002b0 40 11 9b 3c cd 87 80 3e 9d 91 5b 3e cf cc 60 3e
       0.018929124 0.25103608 0.21442266 0.21953128
0002c0 c0 16 81 be eb 40 a1 be 15 40 80 3e 81 b3 dd 3c
       -0.2521267 -0.3149484 0.2504889 0.027063133
0002d0 cd 55 78 be 5f 5c b6 3d ae 37 1d 3f 7c f5 d5 be
       -0.2425148 0.08904337 0.61413085 -0.41788852
0002e0 3e bb a8 3d 79 d0 9f be 93 0a 0c 3f 3b c2 a9 3e
       0.082388386 -0.3121374 0.54703635 0.33156
0002f0 42 7f e9 be 9c 3e 0e 3e f1 3a b8 3e 6b fd c8 be
       -0.45604903 0.13891071 0.3598247 -0.39255843
000300 b2 61 1a bf c5 e4 3c bf 8f 07 a8 bd cf bd c5 3e
       -0.6030532 -0.73786575 -0.08204567 0.38621375
000310 da 9b bd 3e 9e 16 75 be 22 c7 28 3e 40 cd 83 3e
       0.37032968 -0.23934409 0.16482213 0.2574253
000320 f4 ac b6 3e 1b b2 8c be 0f 29 00 3f 4f e8 e6 3d
       0.35678828 -0.27479634 0.5006265 0.11274778
000330 80 19 cc bd 2d 50 c6 be e5 27 a7 be 3b 34 35 3f
       -0.09965801 -0.38733044 -0.32647625 0.7078282
000340 c0 43 54 3d 2c 86 04 3e ce 67 98 3e c5 30 46 3e
       0.051822424 0.12941808 0.29766697 0.19354542
000350 bd e7 2c 3f 6a c4 1c 3f 8d 4a 69 be 53 85 14 bd
       0.67541105 0.61237204 -0.22782345 -0.03625996
000360 16 fa bc be 89 03 3d 3e a4 3a 4d be 49 99 da be
       -0.3690955 0.1845838 -0.20041901 -0.42695072
000370 2e 9a 3a bf 12 c9 08 3f 3f 41 03 bf 34 0a 1c bf
       -0.7289151 0.5343181 -0.5127143 -0.6095307
000380 4b ab e9 3e f1 1a d4 3c 1f 63 10 bf 10 99 0a be
       0.456385 0.025891753 -0.56401247 -0.13534951
000390 09 09 99 3e da 5d 09 3f 49 3f ef be 42 4f 54 be
       0.29889706 0.5365883 -0.4672797 -0.2073336
0003a0 18 ff 50 3e 55 39 f3 be 48 b4 90 3e 50 69 b2 bd
       0.2040981 -0.47504678 0.28262544 -0.08711493
0003b0 5d 10 64 3f 40 4c 89 bd a7 67 90 3e e6 98 0b bf
       0.8908747 -0.06703997 0.2820408 -0.5453018
0003c0 8b bc 90 3e 37 4e e3 be 6f 85 27 3e 32 af 33 bf
       0.28268847 -0.4439561 0.16359495 -0.701892
0003d0 b7 c4 fb be da 0b 1b be 88 19 d0 be 86 16 43 be
       -0.4917352 -0.1514124 -0.4064448 -0.19051561
0003e0 fe 5a 1c be eb 1c 5c be 1a 9a eb 3e c7 f4 29 bf
       -0.15269086 -0.21495406 0.46016008 -0.66389126
0003f0 2f b4 7a bc b4 9f 3d 3f 9f 12 1d 3e 14 c5 e1 3e
       -0.015301748 0.7407181 0.15339135 0.4409567

bias f4 [64]
000000 ff 8e 81 bf e0 7a d2 be 8b c6 b7 3d 98 38 16 bf
       -1.0121764 -0.4110937 0.08973416 -0.58680105
000010 1f e6 4f 3f b7 c8 72 bd dd ef 4a 3f 85 72 f0 3d
       0.8121051 -0.059273448 0.7927225 0.11740593
000020 9b bd 1b be 3a fa 9b be 30 5c 93 bf 41 84 51 bf
       -0.15209047 -0.30464345 -1.1512508 -0.8184243
000030 30 33 e0 3d fd 39 91 3e 85 21 96 3d 7e 79 31 be
       0.10947263 0.28364554 0.07330612 -0.17331502
000040 45 e7 64 3d 41 19 b9 3e 20 a8 53 bf 1a c3 ea be
       0.05588462 0.3615208 -0.82678413 -0.45851976
000050 0e 8f 45 bd 27 9c 59 be 93 e4 aa be 53 d2 27 3e
       -0.04823213 -0.21250974 -0.33377513 0.16388826
000060 5b b9 3f be 41 29 a0 3d 85 ab cf bd 90 ea b8 3e
       -0.18723051 0.078203686 -0.10140137 0.36116457
000070 05 b4 88 3e 60 b0 27 be 71 32 18 3e fa ec 25 3f
       0.26699844 -0.16375875 0.14862992 0.6481472
000080 d4 09 98 3e c6 a9 16 bf df e2 dd bd c7 1e 92 3f
       0.29694998 -0.58852804 -0.10834288 1.1415642
000090 ea 83 b6 be 28 55 b4 3e e3 ff 90 be f9 f7 bc be
       -0.35647517 0.3522122 -0.28320226 -0.36907938
0000a0 59 2c ae 3e f3 d4 09 3e 58 60 04 3f e1 ad b2 bb
       0.3401821 0.1346014 0.5170951 -0.005452857
0000b0 db 09 94 bd 2d 41 cf bc 93 ff 32 bf f0 1e a0 bd
       -0.07228442 -0.025299633 -0.69921225 -0.07818401
0000c0 a1 1f dd be 02 6d f6 be f8 c1 28 be 41 b4 21 3e
       -0.43188193 -0.4813004 -0.16480243 0.15791418
0000d0 d5 e8 b4 be c7 8a 42 be f3 e9 00 3f dc 65 92 be
       -0.35333887 -0.18998252 0.5035698 -0.28593338
0000e0 69 5a ae 3e 14 9c 0a 3f ae 6b 13 3f 08 29 be 3c
       0.34053352 0.54144406 0.5758618 0.023212925
0000f0 e6 21 bb 3e f1 f2 3c 3d 38 c3 88 be 09 e6 5a 3e
       0.365493 0.046130124 -0.2671144 0.21376814

weight f4 [64, 64]
000000 49 6e 41 bc 34 91 71 3c 6d a8 8b 3e 0d 2d fa bd
       -0.011806079 0.014744092 0.27276936 -0.12215624
000010 bd 41 30 be 53 d0 49 bd a1 a0 00 3d 53 84 cc bc
       -0.17212577 -0.04927094 0.031403188 -0.02496544
000020 1a 2e cf 3e 9b f8 62 3c 88 f5 b6 3d 51 f0 2e bd
       0.4046486 0.0138532175 0.0893355 -0.042709652
000030 35 4e 8a bd e9 76 ec bc cf df df 3c 96 7e 4b 3d
       -0.06753198 -0.028865295 0.0273284 0.04968127
000040 23 69 0d 3e fa 7d 0f be 94 ea 58 be 04 c5 cd 3d
       0.13809638 -0.140129 -0.21183234 0.100473434
000050 36 24 82 3d 86 33 dc 3d 0c a9 ec bd fd 1d 83 bc
       0.06354563 0.10752015 -0.11555681 -0.01600551
000060 57 71 0b 3e 66 00 c5 3b cc 36 4e bd 72 2b dd bd
       0.13617454 0.0060120104 -0.050345227 -0.10799302
000070 09 37 78 bd d6 3f 65 3d 05 11 9b 3d 6f 10 a3 3a
       -0.06059936 0.05596908 0.075716056 0.0012440811
000080 2c f3 92 3d f3 bd 52 3d 61 ce b8 bd 61 52 31 bd
       0.071752876 0.05145068 -0.09023739 -0.043291453
000090 ed 22 48 3c 85 71 36 3d 74 00 d1 bd 2b 80 92 bd
       0.012215358 0.044541854 -0.102051646 -0.07153352
0000a0 33 86 6f bc 1b 43 06 3c fd b1 b3 bd e9 9c a5 3d
       -0.014619398 0.00819471 -0.08774183 0.08086569
0000b0 5e b4 da 3d 68 09 21 3d e0 95 b0 3e 15 a0 6f be
       0.106789336 0.03931561 0.34489346 -0.2340091
0000c0 63 1f b4 bd 6c f6 db 3c 06 58 99 bd 13 62 f9 3d
       -0.08795049 0.026850902 -0.07487492 0.12176909
0000d0 7b ac 81 3d 5b a4 72 3d e3 b7 ad bd 8d 40 02 be
       0.06331726 0.059238773 -0.08482339 -0.12719937
0000e0 46 0d 09 3e 21 37 a2 bc 7a c9 c7 3e a8 41 12 3e
       0.1338397 -0.019801678 0.39020902 0.14282858
0000f0 ba 27 0f 3e 0e 33 86 3d 3f f2 d4 bd 44 d6 9e 3d
       0.13979998 0.06552707 -0.10397767 0.07755712
000100 cc 6d 82 be 09 d5 a3 be 6d db 89 3d 63 e5 4c 3d
       -0.25474393 -0.3199847 0.06731305 0.050023448
000110 f0 e0 37 be 02 a0 06 bf 93 06 d8 3d 72 c2 b0 3b
       -0.179569 -0.525879 0.10548129 0.0053942734
000120 27 c2 c2 be f8 5c 05 3e 00 cb 32 bf 04 c9 ff bc
       -0.3803875 0.13023746 -0.69841003 -0.031223781
000130 71 8c bc be 30 da 57 3c 13 de 18 3f 18 e8 12 be
       -0.36825898 0.013174579 0.5971386 -0.14346349
000140 25 49 21 be a3 15 be 3e b6 a5 b9 be 5d 87 b9 be
       -0.15750559 0.37125883 -0.3625924 -0.36236086
000150 03 be d4 3b e5 6a 8e 3e 71 0d ad bd df b9 0c 3e
       0.0064923777 0.2781593 -0.08449829 0.13742779
000160 44 6d 47 3e 5a 01 51 3c 10 98 df bd 44 fa 3e 3d
       0.19475275 0.01275667 -0.109176755 0.04662539
000170 28 a2 9a 3e 94 1e 1a 3e c2 1a 8e be 3e 41 ef 3d
       0.3020184 0.15050727 -0.2775479 0.11682366
000180 dd fd 8c 3e c7 c5 a8 be 79 dc 2e 3d ca 68 6a be
       0.27537432 -0.32963392 0.042690728 -0.22891536
000190 88 51 88 3e 9e fa f2 3e fd e5 19 3e 5f 71 6e 3e
       0.26624703 0.4745683 0.1502914 0.23285435
0001a0 7a ef ab 3e b0 04 83 3e 32 a0 c1 bd 1a f8 71 be
       0.33581144 0.25589514 -0.09454383 -0.236298
0001b0 85 4b 99 bd 3a 92 e9 bc 6f 10 9d 3e 2c ff 6d be
       -0.07485107 -0.02851211 0.306766 -0.23241872
0001c0 a1 48 15 3d 17 49 b6 3c 05 7b f3 39 9a 36 bf 3e
       0.036446217 0.022251649 0.00046440228 0.37346345
0001d0 5d df d4 be 9b 5f cb bc 87 f8 fe bd 26 8b 2a 3f
       -0.41576663 -0.024825862 -0.124497466 0.66618574
0001e0 43 16 89 3d b9 87 09 3f de 9f 5c bf 4b ff 3e bf
       0.06693699 0.5372272 -0.8618144 -0.74608296
0001f0 2c 0b a4 3c c9 b0 c3 be 86 0d 51 be aa 19 c3 bd
       0.020024858 -0.38220814 -0.20415315 -0.095263794
000200 99 93 84 bf ca 2d a0 3e 99 e2 2d 3f f0 ba ae 3e
       -1.0357543 0.31284934 0.67923886 0.34126997
000210 d3 f7 89 be a9 9a 64 be 11 3a 00 3d 87 ae 94 3f
       -0.26946887 -0.22324623 0.031305376 1.1615762
000220 b0 bf 24 bf d9 77 46 3e b1 c5 e0 be af 8b fb be
       -0.6435499 0.19381656 -0.43900827 -0.49130008
000230 4f 53 cd 3e c1 1b d5 be 6d ab c0 3e 27 c8 49 3f
       0.40102622 -0.41622737 0.37630787 0.78821033
000240 3a 5a 3f bf 2e 8b 31 3d 31 16 2b 3f 6e 1e 24 be
       -0.7474705 0.043345623 0.66830736 -0.16027233
000250 d2 31 66 be 43 97 30 bd 88 f6 48 3c a0 fa 51 bf
       -0.22479942 -0.043113004 0.012265809 -0.8202305
000260 e8 c0 a8 3d 6b 4a 9a be 46 3c 62 3e 18 09 fe 3e
       0.08239919 -0.301349 0.22093305 0.49616313
000270 a5 8b 42 3e 97 c5 b7 be 29 0e da 3e ca e2 f3 be
       0.18998583 -0.35892937 0.42588928 -0.47633964
000280 45 2d 0e bf bf c6 5d be d1 8d 05 be 80 52 42 be
       -0.55537826 -0.21657847 -0.1304238 -0.18976784
000290 38 b8 c3 bd 04 7e de 3e c6 93 77 3f b8 c3 ab be
       -0.09556621 0.43455517 0.9670986 -0.3354776
0002a0 ae a3 6a be 60 93 6b 3e 4d 2f 66 3e 53 6d 02 bf
       -0.22914001 0.23005438 0.22478981 -0.50948066
0002b0 75 9f 9d be 37 d5 97 3e 01 02 55 be 9a 6d a3 3d
       -0.3078572 0.29654858 -0.20801546 0.07979889
0002c0 00 d6 15 bf 6e 33 5f bf 0b 47 79 3b 73 88 97 bd
       -0.58529663 -0.8718785 0.003803673 -0.073990725
0002d0 39 42 b8 3e 7f ca 37 bf 19 82 ca be a3 b2 b7 be
       0.35988024 -0.7179336 -0.39552382 -0.35878477
0002e0 f0 a1 f7 bd 5c 23 a2 be da 72 32 3f 0d 57 2e 3f
       -0.12091434 -0.31667602 0.697065 0.6810158
0002f0 e2 7f 01 3f b5 c2 ef 3d 7c 95 44 3e 00 71 09 3f
       0.5058576 0.11707059 0.19197649 0.5368805
000300 6d 92 27 3e 58 fd 36 3e 1c de 11 bf 81 f5 8c bc
       0.16364451 0.1787008 -0.56979537 -0.01720691
000310 96 5c 0a 3f 43 e6 e5 3e 1f 6e a5 be a4 59 38 be
       0.54047525 0.44902238 -0.32310578 -0.18002945
000320 31 e1 49 bf e8 40 36 3e 7b b2 4a bd b3 dd 2d be
       -0.7885924 0.17798197 -0.04948662 -0.16979103
000330 de 2f b2 3c 80 e7 8d be 15 36 bc be 1a f7 ec 3e
       0.02175134 -0.27715683 -0.3676001 0.46282274
000340 47 a3 6c be f0 2d 0b bf 11 0a 2d be 6f 52 4a 3e
       -0.2310916 -0.5436697 -0.16898371 0.19758008
000350 7f 5b f0 3e c1 e2 12 bf 8c 83 0d bd ba 55 d6 3e
       0.46944806 -0.5737725 -0.03454928 0.4186228
000360 a2 d6 b0 be 6e a8 5f 3f 42 72 1d be 6d 63 33 3d
       -0.34538752 0.8736638 -0.15375617 0.04379599
000370 09 5d e5 bc 6e b8 f6 bd 8d 96 e0 be 21 8f be bd
       -0.027998464 -0.12046896 -0.4386486 -0.093046434
000380 13 ef 60 be 61 1a 1a 3f 16 df 6b bf 78 16 ae be
       -0.219662 0.601965 -0.9213728 -0.34001517
000390 f1 e5 b7 3e 01 ea 1d bf f8 2f d5 bd 62 76 83 be
       0.3591762 -0.61685187 -0.1040954 -0.25676256
0003a0 7d 7d 26 3e 7f 50 28 be 70 fa 4c bf 33 d9 10 3f
       0.16258807 -0.16436957 -0.8006964 0.5658142
0003b0 0f 77 47 be b2 8b 4a 3e a7 96 ac be fb 9f 13 3f
       -0.19479011 0.19779852 -0.3370869 0.57665986
0003c0 2f cd 04 3f 32 a2 e7 be 41 72 0d be 83 25 50 3f
       0.51875585 -0.45240933 -0.13813116 0.8130724
0003d0 e2 5c 57 bd 1e 42 a1 bd 79 be d0 be ea b1 b0 be
       -0.052578814 -0.07873939 -0.4077032 -0.34510738
0003e0 13 a5 5a be ac eb 23 bf 87 e9 8f be c3 42 0e 3f
       -0.21352033 -0.6403148 -0.28107855 0.5557062
0003f0 58 c5 ff 3e a3 02 3c 3e b2 b2 06 bd ab e7 27 3f
       0.4995525 0.18360381 -0.03288526 0.6558787
