results_109/simple/ppo/seed_1_step_50_ms_alpha_rank_minp2_maxp_2_mina_5_maxa_5_tn_3000_act_10.pt (torch, 133198 bytes, 16 tensors)

weight f4 [64, 100]
000000 10 e5 15 3e e3 2b 9f 3d 19 65 ca 3d 72 4e 12 3d
       0.14638162 0.077720426 0.09882564 0.035719343
000010 d7 ce 84 bd bc 98 e0 bd 9c 39 d0 3c 22 49 a4 bd
       -0.06484764 -0.10966632 0.025418095 -0.080217615
000020 61 02 83 bd 0c c5 0b be 61 97 8b 3d 67 6b 39 3d
       -0.06396938 -0.13649386 0.068159826 0.045268442
000030 4c 26 f1 bd 59 30 e5 bd 0b a7 53 3d 48 08 1c 3d
       -0.11774883 -0.11190862 0.051672976 0.038093835
000040 25 eb 65 3b 04 d9 30 be 32 48 f5 bb e5 f7 09 3d
       0.0035082784 -0.17270285 -0.007485413 0.033683676
000050 e0 61 3a be 72 3c b5 bc ee 14 ab be d9 ea f1 3d
       -0.18201399 -0.02212355 -0.33414406 0.11812372
000060 c2 0e bd bd 87 09 90 bd 41 d8 cc 3d eb f3 32 be
       -0.092313305 -0.07033067 0.10002185 -0.1747586
000070 c2 d0 75 3d 42 cd ec 3d ab b2 15 3e 7a db e1 3d
       0.06001354 0.11562587 0.14618938 0.1102819
000080 20 d0 66 bd 2c cb 48 3e 86 e5 1e be f1 c8 d6 bd
       -0.056350827 0.19608754 -0.15517244 -0.10487545
000090 4c 0e 36 3d 98 d1 a5 3d be dd 78 3d e1 31 30 3e
       0.04444723 0.080966175 0.060758345 0.17206527
0000a0 98 7a 24 3e 20 da be bd 31 de 7c 3e f3 eb bc 3d
       0.16062391 -0.09318948 0.24694134 0.09224691
0000b0 c0 9e de 3c b8 12 86 bd 03 47 e2 bd f4 0c 3f 3d
       0.027175307 -0.06546539 -0.11048701 0.046643212
0000c0 19 bf d2 bd a4 e1 5f 3e 24 58 24 be 49 51 b9 bd
       -0.10290355 0.21863419 -0.16049248 -0.09048707
0000d0 62 83 4b be b5 04 3e be e7 18 aa bd 09 40 8f bc
       -0.19874337 -0.18556483 -0.08305531 -0.017486589
0000e0 f4 22 25 be 5b 59 0f 3e d7 42 5b be ba 20 8d 3d
       -0.16126615 0.1399893 -0.21412216 0.06891008
0000f0 98 6d f9 bc 85 22 8a bd 9b 53 66 3c 83 67 a3 3c
       -0.030447766 -0.06744865 0.014058019 0.01994682
000100 6b 92 88 3c dc 78 04 be 78 c9 ac 3c 77 9d af 3d
       0.01667138 -0.12936729 0.021092162 0.08574956
000110 3f 72 16 be d2 90 27 3e 65 ec 20 bd 27 95 a3 bd
       -0.14692019 0.16363838 -0.039287943 -0.07987433
000120 c5 b8 1f be 5c 07 de 3d 5f 27 56 3e 54 f0 c6 be
       -0.15597828 0.108412474 0.20913456 -0.3885523
000130 42 5c 8b be 36 d1 70 3d 7c c4 93 be dc 07 82 3e
       -0.27218825 0.05879327 -0.28860843 0.2539662
000140 6f 46 dd bd 6d 90 63 3e e7 fe 0c 3e f8 ff de bd
       -0.1080445 0.22223063 0.13769113 -0.10888666
000150 90 ce a1 bd 82 ab c0 bd f3 5f 17 3e f1 dd a2 be
       -0.07900727 -0.094077125 0.14782695 -0.31809953
000160 ba d1 02 be 1e 48 85 bc 3f 3a 65 be 13 d8 4c 3e
       -0.12775317 -0.01626974 -0.223855 0.20004301
000170 3c 1b 9e 3d 32 24 f0 3d 53 94 ae bd 0e a4 4a bd
       0.07720038 0.11725654 -0.08524384 -0.04947286
000180 67 f2 b6 3e 37 ff 4d 3e 82 d7 f3 3c 8d 6d 06 3d
       0.35731813 0.20116888 0.029765848 0.03281932
000190 19 98 f9 bd 38 1c 6a be 24 ee 92 bd 52 12 ce bd
       -0.121872135 -0.22862327 -0.07174328 -0.10062088
0001a0 a9 42 48 be b3 38 0e 3e 24 f8 78 be b8 6b 6b be
       -0.19556679 0.13888817 -0.24313408 -0.2299031
0001b0 f3 c0 6f 3d 89 dc 96 3c a6 a3 ed bd 05 c5 ee 3c
       0.05853362 0.018415706 -0.11603479 0.02914668
0001c0 64 df 3e 3d 55 a3 44 3e b6 fd 42 be 52 6a f9 bd
       0.04659976 0.19202931 -0.19042096 -0.12178482
0001d0 0e 87 51 3e 55 fe fd 3d 1c 1c 33 bd 50 0f 84 3d
       0.20461676 0.124020256 -0.04372798 0.06448233
0001e0 20 23 bf 3c e3 a8 42 3e 34 0a 3a bd a8 75 36 3e
       0.023332179 0.19009738 -0.045419887 0.1781832
0001f0 2e af 03 be 9c 94 83 be 61 cf 48 3e 1c c9 ff bc
       -0.12859794 -0.25699317 0.19610359 -0.031223826
000200 c2 ef 6e 3e 1e b2 00 bd 9c cd a5 3c 76 44 00 be
       0.23333648 -0.031419866 0.020239644 -0.12526116
000210 af 20 d7 3d af 72 cd 3e 1d f5 c8 be 6a 12 b9 bd
       0.10504281 0.4012656 -0.39249507 -0.09036715
000220 55 f1 bc 3d c0 f8 8b bc 9d 9b 78 be 44 f5 cc bd
       0.09225718 -0.017086387 -0.24278112 -0.10007718
000230 52 73 84 3b a9 f4 9b bd 0c 99 0d be 7b 7f 06 3e
       0.0040420676 -0.076150246 -0.13827914 0.13134567
000240 c0 28 58 3d e4 54 9f bd 0a 3b 59 3e 0c b1 f0 3d
       0.052773237 -0.077798635 0.21213928 0.11752519
000250 09 00 79 3e a6 88 b9 bc 80 b7 ce bb c2 9f 32 bd
       0.2431642 -0.022648167 -0.006308496 -0.04360939
000260 f2 f0 90 3c 6d 88 4c be 56 f3 b6 3d a2 52 57 3e
       0.017693017 -0.19973917 0.089331314 0.21027616
000270 29 65 0d be b5 99 38 3e 06 58 4b bd 3d b1 5c 3d
       -0.13808121 0.18027385 -0.049644493 0.053879965
000280 b6 42 cc bd 7e 27 34 3d 23 14 01 be bc 92 8a 3d
       -0.099736616 0.043982975 -0.12605338 0.067662686
000290 ce b3 79 be ea 42 3d 3d 27 3b b7 3c 43 cc 96 bc
       -0.24384996 0.046206392 0.022367073 -0.018407946
0002a0 20 3e 32 be 26 a0 05 3e 61 2b 37 3e f2 46 0e bd
       -0.17406511 0.13049373 0.17887641 -0.034735627
0002b0 1d fc 1f 3e 00 2c e3 bd 2c f7 61 bc 5b 0d 18 be
       0.15623517 -0.11092377 -0.0137918405 -0.14848845
0002c0 86 4d 0a 3e 40 ae 9e 3d 81 35 98 3d d5 d3 9b 3d
       0.13506135 0.07748079 0.0743208 0.07608763
0002d0 0b 68 09 3e 8f 13 17 be c1 cc 15 be f4 2e 29 3d
       0.13418595 -0.14753555 -0.14628889 0.041304544
0002e0 65 37 60 be 90 b2 a8 bb da fe dc bd 24 c9 b9 bd
       -0.21896131 -0.0051482394 -0.107907966 -0.09071568
0002f0 d9 fa 4e bd bc 99 be 3d f6 a5 7a 3e 3a 12 a8 3b
       -0.050532196 0.09306666 0.24477372 0.005129126
000300 b7 14 46 be 05 0d 33 3e 13 21 33 3e 54 86 51 bd
       -0.1934384 0.17485435 0.17493086 -0.051153496
000310 28 28 1e bd 66 a7 f1 bd c4 88 85 bb af 7b a6 3d
       -0.038612515 -0.11799507 -0.0040751416 0.081290595
000320 25 c4 14 be e5 19 12 3e 9a 5f f2 bc 10 eb 77 bd
       -0.14527948 0.1426769 -0.029586602 -0.060526907
000330 bc 2a 76 3e d3 a0 82 bd 76 91 d4 3d d8 f3 4b bd
       0.2403974 -0.06378331 0.10379307 -0.049793094
000340 dc ae 32 bd ed 53 8d 3e a3 20 03 3e 7f 1e b1 3e
       -0.04362379 0.27603093 0.12805419 0.3459358
000350 f5 53 30 3d 5e 62 16 be d8 8e 3d 3e eb 8c 54 3e
       0.043048818 -0.14685962 0.18511522 0.20756881
000360 2c 04 d8 3c 28 b2 40 3d 1c 05 45 3d c5 2b b8 bd
       0.026369177 0.047044903 0.048100576 -0.089927234
000370 1c ac e9 bc 21 3e 9c bd 22 b5 1c 3c 5a d3 9e bd
       -0.028524451 -0.07629038 0.00956467 -0.07755156
000380 3a 21 5c bd 47 7a 15 3c 8e 82 71 be 22 9b 25 bb
       -0.053742625 0.0091233915 -0.23584959 -0.0025269468
000390 ad 81 52 3d 44 c8 aa bd fc 25 3e bd c9 1e 9f bd
       0.0513932 -0.08338979 -0.046422943 -0.07769544
0003a0 dd d5 a5 bd cd cc 93 3e e4 62 9e 3e 67 51 a2 bc
       -0.08097432 0.28867188 0.30934823 -0.019814206
0003b0 d2 63 22 3d b9 35 0f 3c 56 0f 22 be 3a b4 f6 3d
       0.039645977 0.008740836 -0.15826163 0.12046094
0003c0 c2 bb 5f bc 7c 4f 01 3e 1f e6 28 3e 28 bb 6c 3e
       -0.013655605 0.12627977 0.16494034 0.2311827
0003d0 19 f1 33 3e d2 b0 bb 3d 9a 90 1d bd 9c 1a d9 bc
       0.1757244 0.09164585 -0.03846798 -0.026501946
0003e0 80 51 16 3e 67 b2 f7 3c de 7a d3 bd e5 22 03 be
       0.14679527 0.030236436 -0.103261694 -0.1280628
0003f0 6a 17 b7 bc a9 d6 44 be 95 d6 5a 3d 45 1c a9 bd
       -0.022350032 -0.19222511 0.053427298 -0.08257345

bias f4 [64]
000000 c5 f6 b6 bb cc 37 ec 3b 11 f0 13 bc 2f 0e e6 3b
       -0.0055836164 0.0072088 -0.009029404 0.007020734
000010 6f 09 c8 bb 86 4b 8d bb 94 be 1b bc 33 41 e8 bb
       -0.00610464 -0.0043119816 -0.009505887 -0.0070878505
000020 ee 8b 09 3c 90 0a 16 bc 02 55 15 3c 36 ca 1e 3c
       0.008395178 -0.009157792 0.009114506 0.0096917655
000030 b0 f0 1e bc 52 ad 16 bc 2e 95 1d 3c 6f d6 16 3c
       -0.009700939 -0.009196596 0.009618087 0.009206398
000040 31 32 86 3b 76 e2 17 3c 38 4c 04 3c 8c fe 0a 3c
       0.0040953388 0.009270301 0.008074813 0.00848354
000050 89 71 f5 3b eb 7f 16 bc f5 4f ee 3b 86 a6 15 bc
       0.007490341 -0.009185771 0.007272715 -0.009133941
000060 36 bd e8 bb d2 77 12 bc 23 9d 18 3c 44 ee 1b bc
       -0.007102634 -0.0089397 0.009314808 -0.009517256
000070 02 22 12 bc 75 01 19 3c 6f e6 05 3c 9f df 17 3c
       -0.008919241 0.009338726 0.008172615 0.009269624
000080 53 25 02 bc c4 d6 10 3c fc 68 1e 3c e1 71 0b bc
       -0.007943469 0.008840267 0.009668585 -0.008511038
000090 7c 06 dd 3b 31 69 15 3c b2 7c 01 bc 48 0d 1f bc
       0.0067451578 0.009119318 -0.007903265 -0.009707756
0000a0 d9 0a 09 bc 02 5f 17 bc 90 ac 1c 3c 58 ed 1b bc
       -0.008364403 -0.00923896 0.0095626265 -0.009517036
0000b0 79 e9 fd 3b 89 08 86 3b ea 09 11 bc 1a ce 1a 3c
       0.0077487794 0.004090373 -0.008852461 0.0094485525
0000c0 49 83 18 3c 45 85 de bb e6 fd 1c 3c 2b 60 19 bc
       0.009308645 -0.0067907893 0.0095820185 -0.009361307
0000d0 8d e2 b1 bb 5b 3d 1d bc 6a cf 0c 3c c5 cd 1d 3c
       -0.0054286183 -0.009597148 0.008594373 0.009631579
0000e0 66 10 08 bc 73 89 16 bc e3 3e 07 3c 98 4a 2e bb
       -0.008304691 -0.009188044 0.008254739 -0.0026594754
0000f0 16 36 03 bc fb e0 18 bc c8 d4 1b 3c 00 0c 07 bc
       -0.008008501 -0.009330983 0.00951118 -0.008242607

weight f4 [64, 64]
000000 5b 1e 77 bd a2 3c 11 bd a4 8f 02 be 8e 0b 9e bc
       -0.060331684 -0.035458215 -0.12750107 -0.01929262
000010 b5 25 13 be fc ae a4 3e af 46 31 be 9d 49 6b be
       -0.14369853 0.32164752 -0.1731212 -0.229773
000020 08 7b 99 be 6e 47 c4 bd e4 72 d7 3d 1a e2 c8 3d
       -0.29976678 -0.09583937 0.105199605 0.098087505
000030 f3 1a a0 bd a2 21 c5 bd 9c 67 14 be 11 45 b7 3d
       -0.0781764 -0.096255556 -0.14492649 0.0894872
000040 8c 1e a4 3e 12 d5 75 3d 95 d4 86 be 75 9b d7 bd
       0.32054555 0.060017653 -0.26334062 -0.10527698
000050 61 6c fa be 72 1d 4a be 25 ea 59 3c fe 88 69 3d
       -0.48910812 -0.19737795 0.013300453 0.05701541
000060 72 94 62 be 28 f4 4b bb 2b 24 ea bd a2 b5 b7 3e
       -0.2212694 -0.003112087 -0.1143268 0.35880762
000070 9a ee 36 3d 5b d2 bb bc 0d 35 a6 3d 17 d0 da 3e
       0.044661142 -0.022927454 0.081155874 0.42736885
000080 6b cd a4 bd fd df dc 3d 76 bc 3e bd 2b 92 02 bd
       -0.08046993 0.1078491 -0.04656645 -0.031877678
000090 a6 ba 04 3e 4a 51 ab bd 44 20 21 3d 8e bd 74 3e
       0.12961826 -0.08365114 0.03933741 0.23900434
0000a0 6a 5c 08 bb 95 32 9d 3d 2f 4b a0 3d 7f fa f3 3d
       -0.0020807036 0.076756634 0.0782684 0.11913013
0000b0 8a fa e5 3d ac 7f 3b bc 8e 9a 08 3e ce 0d 46 be
       0.11229427 -0.011444014 0.13340208 -0.19341204
0000c0 c1 47 48 be 2f 95 ae be a6 25 c7 3d 5a c2 dd 3c
       -0.19558622 -0.34098193 0.09723978 0.027070213
0000d0 9c c6 9c 3e 1a 70 bc 3d 5d bd 57 be 84 8a 35 3e
       0.30620277 0.09201069 -0.2106833 0.17728621
0000e0 0b 60 ca 3e 52 bd c4 bd c6 30 19 be d4 6f 74 3c
       0.395264 -0.096064225 -0.14960012 0.01491924
0000f0 2c df e1 bd af 1a c2 bc b8 ff 31 3e c6 47 11 3e
       -0.11028895 -0.023694364 0.17382705 0.14187536
000100 2c b0 02 3e ec 2b fa bc 89 8b 99 3e e4 77 79 3e
       0.12762517 -0.030538522 0.2998927 0.24362141
000110 2d d2 c3 3e c5 16 a0 be f2 b1 26 bc 7e 8c 96 3c
       0.3824629 -0.31267372 -0.010174261 0.018377539
000120 16 b3 04 3e f1 02 a8 bd 15 bd b3 3d 02 bd 92 be
       0.12958941 -0.08203686 0.08776299 -0.28659827
000130 ec 9e 12 bd 60 97 9e bc 45 d3 4d bd 68 20 2e be
       -0.03579609 -0.01935929 -0.05025031 -0.1700455
000140 26 1d 8d 3d 8a b8 fa bd 77 ee 38 3e ad c2 54 3e
       0.06890325 -0.12242229 0.18059717 0.20777388
000150 c5 4c 8d be e0 88 3c be f6 1c 08 3d 1c 77 c6 3d
       -0.27597633 -0.18411589 0.033230744 0.09690687
000160 42 4f 95 be 7e 70 0a be ac b5 b2 be b2 37 80 3e
       -0.2916203 -0.13519475 -0.3490423 0.25042492
000170 ee 9f 75 be d2 d4 09 be 79 66 4e bd 3c 5d 73 bd
       -0.2398679 -0.13460091 -0.050390694 -0.059415087
000180 87 20 20 3e fc d7 f4 3d fe 99 fb 3d fd 66 0f bd
       0.15637408 0.11955258 0.12285231 -0.035010327
000190 24 ef 29 3d a5 69 be 3d 09 67 95 3d cc 06 2b 3e
       0.041487828 0.09297494 0.07295043 0.16701812
0001a0 84 9d 2b 3e df b3 2b be 6d 84 97 bc 9e 70 bb bd
       0.16759306 -0.16767834 -0.018495763 -0.091523394
0001b0 c5 55 bb bd 68 26 30 be c4 7e 2c be 4d 75 ac 3d
       -0.091472186 -0.17202151 -0.16845232 0.08420811
0001c0 f9 d7 01 3f fb ea 75 3c ac 03 2a be 51 3d 9c 3e
       0.50720173 0.015009637 -0.16602963 0.3051553
0001d0 3e 2a 35 3e 82 15 2f 3e 2b 8a 86 3e d0 2f 91 bd
       0.17691895 0.17098048 0.2627729 -0.07089198
0001e0 c8 e9 c4 3d dd ce b0 bd 36 87 4b be 26 3f 02 3e
       0.09614903 -0.08633206 -0.19875798 0.12719402
0001f0 da a9 f1 bb a0 18 bf bc cf 6d 0f 3e cd 1e 51 3e
       -0.007374984 -0.023327172 0.14006732 0.20421906
000200 28 6a 7e 3d 56 98 8d be 30 df d1 be 24 f1 43 bd
       0.062112957 -0.27655286 -0.4099059 -0.04783739
000210 c2 83 eb 3c 7a b1 cf bc 42 c5 fe bd 53 25 86 3d
       0.02874935 -0.025353182 -0.12439968 0.06550088
000220 27 37 24 be e3 5b 81 3d 76 ae 91 be a0 ed 8b be
       -0.16036664 0.06316354 -0.28453416 -0.2732973
000230 eb b4 13 3c 8a fb 8e be 7d 98 20 bd f1 4d 69 be
       0.009015302 -0.27926284 -0.039207924 -0.22783639
000240 2c 8b 49 be 26 71 09 be b6 11 a1 bd 2c bf 2c be
       -0.19681996 -0.13422069 -0.07864706 -0.16869801
000250 c1 77 3f 3e 5c f1 56 be a6 ee 1b be 23 2d e1 bd
       0.18698026 -0.20990509 -0.15227756 -0.10994937
000260 d9 da b7 3d 9d 14 16 3e 23 0a c9 3d 29 ab 99 bd
       0.08977289 0.14656301 0.098163866 -0.07503349
000270 ca e0 9c 3c d7 41 af be 01 00 e3 3d fa b3 f2 3d
       0.019150157 -0.3422992 0.11083985 0.11850734
000280 14 3b ef bd c9 68 81 3e 5e b3 8e 3e 75 87 d0 bc
       -0.1168119 0.25275257 0.2787122 -0.025455216
000290 70 d2 64 3e 03 c5 80 be 18 58 0b 3e 62 d1 ec bd
       0.223459 -0.25150308 0.13607824 -0.11563374
0002a0 d4 ef 58 3c 8d 60 28 bd 74 88 0c 3e e6 67 e8 bc
       0.013240773 -0.041107703 0.13723928 -0.028369855
0002b0 de 7c 78 3e 3e 79 77 be 67 a6 36 3d b9 0c ba 3e
       0.24266383 -0.24167344 0.044592287 0.36337832
0002c0 a8 e1 70 3b 1a 68 8b be 17 ef 36 3e a2 96 4d bd
       0.0036755595 -0.2722786 0.17864643 -0.050192483
0002d0 31 a0 1c 3e 56 68 12 be ae ec 4f 3e 9f 9b da be
       0.15295483 -0.14297614 0.2030513 -0.42696854
0002e0 2c 0f e8 bd d2 50 ac 3c 33 f8 a9 bd 5a 1a 1c 3d
       -0.11331019 0.021034632 -0.08299293 0.03811107
0002f0 c8 3c 0b 3d fb 44 3f 3e 42 88 3e 3e b6 72 9a 3d
       0.033993512 0.18678658 0.18606666 0.075414106
000300 c1 a2 a7 bd 9f cf e0 bd 94 1f 52 bc 54 4e c7 3e
       -0.0818534 -0.109771006 -0.012824912 0.38926947
000310 e3 cd 18 3e 15 7e b4 3c ae 58 af 3d 5f a4 b9 3c
       0.1492229 0.022032777 0.08561836 0.022661386
000320 2d d1 9e 3c fe 7c 43 3d 8b 4d 22 3d b8 63 97 bd
       0.019386852 0.047726624 0.039624732 -0.07392067
000330 49 8b a2 3e 4e 36 1d be c9 52 61 3e 86 29 87 be
       0.3174689 -0.15352747 0.22004236 -0.26398867
000340 01 66 b3 3d 8b f2 a0 3d 43 2e 2f be bd 9f 48 bd
       0.0875969 0.078587614 -0.17107491 -0.048980463
000350 95 ee 1f be 77 ca 41 be b1 1d 01 bd d3 e9 1c 3e
       -0.15618356 -0.1892489 -0.031522457 0.15323572
000360 96 04 ae 3d 26 75 3e 3e 3d 96 98 3e 69 42 81 3e
       0.084969684 0.18599376 0.29802123 0.2524598
000370 4d 0d a3 3d 0e 0b 71 be 7f dc 90 be 74 3f 8e be
       0.07961521 -0.23539373 -0.28293225 -0.27782786
000380 d2 14 d4 bc ff be 40 be 0e ef a2 be f6 cf 2f 3d
       -0.025888834 -0.18822859 -0.3182301 0.042922936
000390 a2 b9 02 bc 15 89 0c be e5 d8 7a be a6 73 21 be
       -0.007978829 -0.13724168 -0.24496801 -0.15766773
0003a0 c7 d8 aa bd a0 c0 00 be 32 22 10 3f e3 78 a8 bd
       -0.08342128 -0.1257348 0.5630218 -0.08226182
0003b0 98 4e 3e bb d5 85 5a 3e a8 33 d8 ba e2 96 28 3e
       -0.0029038545 0.21340115 -0.0016494887 0.16463807
0003c0 01 e6 da 3d f5 ee 21 3d 5d 08 ab 3d b6 3c 8e 3d
       0.10688401 0.039534528 0.083512045 0.069451734
0003d0 c1 89 b0 bd f8 53 f5 3d bb dc fa bd 1c 2d ad 3d
       -0.086200245 0.119789064 -0.12249132 0.084558696
0003e0 ee 20 46 3e b2 95 b5 3e 90 6f 30 bd ce 64 db bd
       0.19348499 0.3546577 -0.043075144 -0.10712586
0003f0 82 bb 0c be 70 bc fe 3d 19 a4 af bd 5f 97 5e be
       -0.13743404 0.12438285 -0.08576221 -0.21737431

bias f4 [64]
000000 6b 33 1f bc eb 7d 20 bc b1 f1 05 3c f2 bd f5 bb
       -0.009716849 -0.009795646 0.0081752995 -0.00749945
000010 06 13 10 3c ff a0 18 bc af 61 10 bc ed 2b 1e 3c
       0.008793598 -0.009315728 -0.008812352 0.009654027
000020 cd 36 20 3c 51 f0 1d 3c 63 2a 1b bc 6d ba 15 bc
       0.0097786905 0.009639815 -0.009470555 -0.009138686
000030 7c cb b0 3b 71 a1 02 3c de ae 1b bc 4d f7 82 3b
       0.005395351 0.007973061 -0.009502141 0.0039967657
000040 fe 8e 21 3c d4 38 1e bc b0 99 1d bc 20 53 1a 3c
       0.009860752 -0.009657104 -0.0096191615 0.009419233
000050 ba 9e 1d bc 05 ff 1f bc 1d d9 1c 3c 3c c6 1d bc
       -0.009620363 -0.009765391 0.009573248 -0.009629782
000060 19 07 10 bc dd 31 13 3c e2 d8 d7 bb 0f cd 1f 3c
       -0.008790755 0.008984056 -0.0065871337 0.00975348
000070 a7 89 1b 3c 1e be f9 bb a4 10 1f bc de 7b 18 bc
       0.009493268 -0.0076215407 -0.009708557 -0.009306876
000080 66 89 15 3c 39 4d 1d 3c 98 d7 12 bc 84 82 1a 3c
       0.009126997 0.009600931 -0.008962534 0.009430531
000090 44 99 f2 bb 6b 0b 1e bc 45 06 1a bc 71 ab 1f 3c
       -0.0074035246 -0.009646277 -0.009400909 0.009745465
0000a0 61 c1 18 3c 9a ac 14 3c f4 cd 1f 3c 3a b8 00 bc
       0.009323449 0.009074355 0.009753693 -0.007856423
0000b0 e0 29 06 3c c5 d1 11 3c 9a 44 18 3c 08 74 1d 3c
       0.008188695 0.008900111 0.0092937 0.009610184
0000c0 77 ac 1a bc 56 d6 1b bc 7b 11 16 bc fa d0 1c bc
       -0.009440533 -0.009511551 -0.009159441 -0.009571308
0000d0 27 ef 20 bc c3 b7 1b 3c 15 50 1d bc 34 c0 0a bc
       -0.009822643 0.009504261 -0.009601613 -0.008468676
0000e0 51 7c 1b 3c 47 d5 10 3c bc ee 1c bc a0 8d 11 bc
       0.009490089 0.008839912 -0.009578403 -0.008883864
0000f0 5b 7e 20 3c 80 7e 19 bc 26 c2 20 bc fa 5d 20 bc
       0.0097957505 -0.009368539 -0.009811914 -0.009788031

weight f4 [64, 64]
000000 65 35 dd bd 25 e9 e6 bd 1a 27 3c be 83 5e fb be
       -0.108012 -0.112749375 -0.18374291 -0.49095544
000010 df b3 90 3d a0 91 dc 3d ff 03 54 3d 50 73 a4 3e
       0.07065558 0.10769963 0.051761623 0.32119226
000020 da 30 36 be cd ef 75 bc b3 e8 41 3d c0 78 ea 3d
       -0.17792073 -0.015010786 0.04734106 0.114488125
000030 b9 14 c9 be 7b 38 06 3e a0 c8 80 39 95 a7 0d be
       -0.39273623 0.13107483 0.0002456354 -0.13833459
000040 0d 32 56 be 01 6c 85 bd 5a 7a a6 bd a6 33 0d bd
       -0.2091753 -0.06514741 -0.081288055 -0.034473084
000050 5f d2 9c 3e d1 f9 70 be e6 af 8b bc 21 9a 33 be
       0.3062925 -0.23532797 -0.017051648 -0.17539264
000060 80 6e e3 3c c9 db c5 3e 14 1e 8c 3e bc 19 9c 3e
       0.027762651 0.38644245 0.27366698 0.30488384
000070 86 2f 2d 3e 51 28 80 be f4 13 66 3d 1b c2 73 bd
       0.1691266 -0.2503076 0.056171373 -0.059511285
000080 87 3c 89 bd 62 09 05 bd ed ec 9b 3d 5f 6b 84 3d
       -0.06700998 -0.03247965 0.076135494 0.06465792
000090 16 42 fd 3d 6e 09 a8 3d 07 d4 45 3d e6 e9 38 3e
       0.123661205 0.082049236 0.04829791 0.18057975
0000a0 7e b5 7f 3d 7c 37 f5 bc 0c 9f 30 be b9 87 75 3e
       0.062428944 -0.029933684 -0.17248172 0.23977555
0000b0 92 85 ea be c2 81 2a be 1c 2b 72 be dc e9 f9 3c
       -0.4580503 -0.16651061 -0.23649257 0.03050702
0000c0 40 bf 61 be ae d4 a2 bd 98 59 c4 3c dc 52 67 3d
       -0.22045612 -0.07950722 0.023968503 0.056475505
0000d0 92 13 bd bd 56 d3 a8 3d b2 e5 55 3e f4 80 58 be
       -0.09232248 0.08243434 0.20888403 -0.21142942
0000e0 81 44 8b 3d 94 a1 c1 bd c8 01 34 bd 37 92 9c 3d
       0.068001755 -0.09454647 -0.04394701 0.07645076
0000f0 71 bf 9f bc e0 16 43 3e b5 74 17 3e f4 4c 7a bc
       -0.019500466 0.19051695 0.14790614 -0.015277136
000100 1d a9 c6 3d 30 3b b9 be c0 e1 96 bb 9b 0f 8a 3d
       0.097002245 -0.3617797 -0.004604548 0.06741258
000110 0c 3d 94 bd 9c 4b 67 be 6e 4b 42 3e 80 70 48 3e
       -0.07238206 -0.22587436 0.18974087 0.19574165
000120 e6 01 6c 3e a3 83 97 3d 48 e2 43 3d 60 1c 04 bd
       0.23047599 0.073981546 0.04782322 -0.032253623
000130 be f4 65 bb 0b b3 8c be 28 b6 96 3d 29 f9 1a be
       -0.0035088505 -0.2748035 0.07358962 -0.1513411
000140 42 73 36 3d b5 60 c2 be 49 b5 94 3d 2b d6 4e 3c
       0.044543512 -0.37964407 0.0726114 0.012624304
000150 e6 d5 a9 3e 84 9f 23 bb 6b 35 09 3e e2 32 26 3d
       0.33171004 -0.0024966905 0.13399284 0.04057587
000160 c9 4f 92 3e f5 7a e8 3d 24 82 40 3e 8b 98 ec bd
       0.28576496 0.11351577 0.18799645 -0.11552533
000170 38 6f ad be 41 51 75 be e1 ef d5 3d 8a 3d b4 be
       -0.33873916 -0.23956777 0.10446144 -0.352032
000180 9d 08 0d 3e 22 c0 08 be b2 12 11 be f0 e5 08 bb
       0.13772817 -0.13354543 -0.14167288 -0.0020889007
000190 1b 74 0b 3e 2d 0f 91 3e 81 fb 21 be 9c 5b 0d 3d
       0.1361851 0.2833189 -0.15818597 0.034511194
0001a0 05 41 35 be 9c 29 5e 3e 00 bb e2 3c 9a bf 69 bd
       -0.17700584 0.2169556 0.02767706 -0.05706749
0001b0 d1 c5 d5 3d ef b8 26 bd 1d 92 64 3e 1d 7a 80 be
       0.10438121 -0.04070371 0.22321363 -0.25093165
0001c0 9d 1e 14 be 44 96 d7 3d 13 d5 ad bd 28 ef b3 3c
       -0.14464803 0.10526708 -0.08487906 0.021964625
0001d0 c2 62 a1 3e 3c 0a fe bd 68 7d 31 3e a9 5d 38 3e
       0.3152066 -0.12404296 0.17332995 0.18004479
0001e0 24 e0 52 be dc 7a f1 bd 26 b8 38 bd 5d 30 85 bd
       -0.20593315 -0.11791012 -0.045097493 -0.06503365
0001f0 b5 14 ce 3d f8 09 98 3d 1f 4b 81 be ed a0 a0 3e
       0.10062543 0.074237764 -0.25252625 0.31372777
000200 7f a3 aa be 36 92 07 3e 7a 91 72 3e 8d f7 c9 3d
       -0.33327863 0.13239369 0.23688307 0.0986167
000210 de 6a 4e be ed 33 18 be a6 d1 0a 3e 8d 3a b5 be
       -0.20157954 -0.14863558 0.13556537 -0.35396233
000220 b6 63 2d bd 92 23 e8 be 70 3f 89 3e a8 31 37 3e
       -0.04233142 -0.45339638 0.2680621 0.17890036
000230 8c 82 da 3c c2 d8 92 bd 56 95 03 3d 8a e5 c2 be
       0.026673578 -0.071702495 0.03212484 -0.3806575
000240 25 aa 1a be 88 ed 92 bd 42 b2 92 3e 15 02 c0 bd
       -0.15103967 -0.07174212 0.28651625 -0.09375397
000250 94 90 25 3e 41 59 92 3e 77 43 05 bd 8c ad 9c 3c
       0.16168433 0.2858372 -0.032535043 0.019125722
000260 da dc f2 3d 9e c9 28 3e b6 1c 8d bd 53 16 61 3e
       0.1185853 0.16483161 -0.06890242 0.21981172
000270 5e b2 44 bd 22 07 27 3d 1d eb d1 bd 88 bb 36 3d
       -0.048021667 0.040778287 -0.102499224 0.044612437
000280 44 a2 57 3e af cd 97 3d 6e 94 82 be 3a 73 71 3d
       0.21057993 0.07412278 -0.25503868 0.05894778
000290 29 1e 83 be 1c d1 67 bd 30 71 1e be 6d 3a 48 3e
       -0.25608948 -0.056595907 -0.15472865 0.19553538
0002a0 ae d8 4f be bc 8a 90 bb cc 05 9b be 06 c0 29 3d
       -0.202975 -0.0044110697 -0.3027786 0.041442893
0002b0 c9 33 4a bd cc 3d 9d 3e 3b e0 d8 bb e5 38 3e bc
       -0.049365792 0.3071121 -0.006618527 -0.011610244
0002c0 b2 70 ec 3b 0c 69 3d bd c8 5b 8b 3d d4 01 23 3e
       0.0072155828 -0.04624276 0.06804615 0.15918666
0002d0 d8 b0 99 be 3c 0e 09 be eb 0c 06 3e 64 a8 4f 3b
       -0.30017734 -0.13384336 0.13090865 0.0031686062
0002e0 38 e3 c8 bd 38 43 44 3e cc 6c 06 3e 28 90 22 bd
       -0.098089635 0.19166267 0.1312744 -0.03968826
0002f0 78 cc 30 3e d5 8f 1a 3e f5 18 80 bd 74 7b 52 be
       0.17265499 0.1509393 -0.0625476 -0.20554906
000300 36 64 83 3c 34 a1 88 3d 25 b3 36 bd 91 6b e0 3d
       0.016038995 0.06671372 -0.04460444 0.10958017
000310 c9 a6 13 bd 56 c3 8e 3e 57 6b 20 bd 87 f3 bd 3c
       -0.03604773 0.27883404 -0.039164867 0.023187412
000320 f7 19 70 bc f5 09 8c 3d d6 b2 cf 3d 81 41 a7 3d
       -0.014654628 0.06837837 0.10141532 0.08166791
000330 22 1b 43 3e 4f 15 82 be f8 86 6e be a9 c3 6f 3e
       0.19053319 -0.25406882 -0.23293674 0.23414482
000340 8a e6 dd 3d 4f 26 53 3d 55 2d 50 be e8 2b 8d 3e
       0.108349875 0.051550206 -0.20329793 0.2757256
000350 c6 da 03 3f b3 0e 26 3e a5 14 14 3e 92 ba 11 3e
       0.51505697 0.16216545 0.14461 0.14231327
000360 4d 8e 42 be 60 d5 19 3d 10 1e b7 3e 69 4d 13 bd
       -0.18999596 0.037557006 0.35765123 -0.035962496
000370 b0 60 96 3d e3 44 0c 3d a4 ba 86 3e 2d a4 d6 3e
       0.073426604 0.034245383 0.2631427 0.4192213
000380 b8 69 05 3e 7b d4 17 3e 0e 21 6b 3d 2b e5 91 3e
       0.1302861 0.14827149 0.05740457 0.28495154
000390 1f 0c e6 3d 43 6c a5 bd 23 9a 38 be 42 76 dc bc
       0.11232781 -0.0807729 -0.18027548 -0.026911858
0003a0 4b c7 1b be 0f 48 af 3d cb 36 b2 be b9 63 04 3e
       -0.15212743 0.08558666 -0.3480743 0.12928666
0003b0 04 0d f2 bd 7a ee 14 be ea d1 72 3d 3c 3f 92 be
       -0.11818889 -0.14544097 0.05928222 -0.2856387
0003c0 80 35 e1 3d 32 b8 03 bc 6d 3f 4a 3e 43 0c 72 3c
       0.109965324 -0.008039521 0.19750758 0.014773431
0003d0 02 92 ce 3d 08 af 25 be e8 9a 33 be cf 5b e7 bc
       0.100864425 -0.1618005 -0.17539561 -0.02824202
0003e0 03 9b 2a 3e a2 4c 0a 3e 5d 74 19 bd 7a 49 2d be
       0.16660695 0.13505796 -0.03746449 -0.1692256
0003f0 bc ce 39 3c a4 2e 8b be 3d 1d 2d be cf ac 1d be
       0.011340793 -0.2718402 -0.16905685 -0.15397952

bias f4 [64]
000000 f7 2d fe 3b e5 40 21 bc 82 c5 f0 bb 1a ca 07 3c
       0.0077569443 -0.009842132 -0.0073477635 0.008287931
000010 3a a0 1a bc 61 fa 1b bc f0 a3 1c bc 99 f1 16 bc
       -0.009437615 -0.009520144 -0.00956057 -0.009212875
000020 f3 ad 1e bc cc c8 1f 3c 44 2b ff 3b 4b ab 1c 3c
       -0.009685027 0.009752464 0.00778714 0.009562324
000030 7b 9b 10 bc 2c 31 18 bc d7 fc 1e 3c fd 78 1d bc
       -0.008826132 -0.009289067 0.009703836 -0.009611365
000040 3d a3 20 3c 73 aa 21 bc ca fd 1c bc de 05 19 bc
       0.009804544 -0.009867298 -0.009581992 -0.009339778
000050 c5 5a 1e 3c 55 a1 20 3c c9 4d 20 bc 99 5f 13 bb
       0.009665196 0.00980409 -0.00978417 -0.00224874
000060 8a 8d 0f bc 8c d9 1f bc a3 f4 1f 3c 2e f1 9e 3b
       -0.008761773 -0.009756457 0.009762916 0.004850528
000070 e5 74 1f 3c a3 45 1b 3c d3 20 1c 3c 3e 86 20 bc
       0.00973246 0.009477052 0.00952931 -0.009797631
000080 0b c6 1f bc ca 87 1a bc d3 8c 0f bc 44 aa 1b bc
       -0.009751807 -0.009431789 -0.008761602 -0.009501044
000090 9b 44 20 bc d1 6b 03 bc 3c de 15 3c 72 1e 17 bc
       -0.009781982 -0.008021311 0.009147223 -0.009223567
0000a0 9d 2c 0f bc 9b 09 18 bc f8 34 9e bb e3 f7 1e 3c
       -0.008738664 -0.009279634 -0.0048280917 0.0097026555
0000b0 ea d3 20 3c f0 ef fd bb 24 aa 13 bc 91 78 05 bc
       0.009816149 -0.00774955 -0.009012733 -0.008146421
0000c0 2c cc 1e bc 7d 3f 1e 3c bb 6e 1a bc 28 18 20 bc
       -0.009692233 0.0096586915 -0.009425814 -0.009771384
0000d0 73 9c 1f 3c e2 9e 19 bc c5 2d 03 bc f9 1c 19 3c
       0.00974189 -0.0093762595 -0.008006518 0.0093452865
0000e0 b5 f4 13 bc 25 2a 18 3c 62 2d 1f 3c 1c 2d 1b 3c
       -0.009030511 0.009287392 0.00971541 0.009471204
0000f0 4e 35 1b bc 22 d7 f1 3b 6c 90 20 bc 5e b5 20 3c
       -0.009473158 0.007380382 -0.009800058 0.009808866

weight f4 [64, 100]
000000 ce 4b a9 bc a9 af 17 3e d2 09 2d bd dc 57 57 be
       -0.02066603 0.14813103 -0.042245694 -0.2102961
000010 70 10 9f bd 3c fe 73 be dd 04 28 3e 66 46 ff 3b
       -0.07766807 -0.23827451 0.16408105 0.0077903746
000020 a6 10 86 3d 3d c3 58 be 18 32 c8 3c 2a 8a 59 3e
       0.06546144 -0.21168227 0.024437949 0.21244112
000030 ef 82 ec bb de 83 62 bd 7f a5 e6 bd d4 5d d4 bc
       -0.007217757 -0.05530154 -0.112620346 -0.025923647
000040 e5 43 19 3e ec f5 a2 bd 07 b8 b5 bd 51 56 ce 3d
       0.14967306 -0.07957062 -0.08872991 0.10075057
000050 ea fa 42 3e c8 69 14 3d 75 24 a5 3d 15 6f 5f bd
       0.19041029 0.036233693 0.08063594 -0.054549295
000060 0a c6 2f be ac 93 5d be c2 18 75 be 6a 93 ef 3d
       -0.1716539 -0.21638364 -0.23935226 0.11698039
000070 d2 20 f3 3d 7b 64 fb 3d 28 b8 51 3e ba 14 ae 3d
       0.11871494 0.122750245 0.20480406 0.08500047
000080 9b f1 87 3d 56 30 b0 bc 56 ba b7 3c c5 1a 0f 3e
       0.066378795 -0.021507423 0.02242772 0.13975056
000090 0c 13 05 bd 20 23 01 be d3 b0 c0 bd be c2 48 3e
       -0.032488868 -0.12611055 -0.094087265 0.19605538
0000a0 27 cd 9d 3e 8c 1c 13 be 78 2d f1 bc 32 b8 73 be
       0.3082058 -0.14366359 -0.029440627 -0.23800734
0000b0 b6 e4 b7 bd b2 fc 56 3c 26 0e 4f 3e 3c 74 80 bd
       -0.0897917 0.013121771 0.20220241 -0.0627217
0000c0 f0 41 67 3d 32 ff 04 3e 9c 7b ed 3c fc 09 70 be
       0.056459367 0.12987974 0.028989606 -0.23441309
0000d0 82 93 7e bd 12 4d d1 bd de 28 18 bd 92 b3 13 3d
       -0.062152393 -0.10219778 -0.03714835 0.036059923
0000e0 76 29 67 be e6 55 0f 3e 5f 81 a4 3d 7c b9 b2 3c
       -0.2257441 0.13997611 0.08032488 0.021816961
0000f0 fa b2 0c 3e 84 21 8b 3b 00 50 c8 3c 61 6f 09 bd
       0.13740149 0.0042459387 0.02445221 -0.033553485
000100 f0 9e 19 be 61 fb 9e bd ee a5 86 bc 4a 8a f7 bd
       -0.15002036 -0.077627905 -0.016436543 -0.120869234
000110 2d df c0 3d 96 64 ec 3d b1 72 9f bd 51 70 5f 3e
       0.094175674 0.11542623 -0.077855475 0.21820189
000120 65 f3 d0 bd 0d 61 be 3d f5 c5 41 be 4d eb 70 3d
       -0.10202674 0.09295855 -0.18923171 0.05881815
000130 74 66 5d bb 55 e4 af be 57 96 4c 3e e0 a9 2a be
       -0.003378299 -0.3435389 0.19979225 -0.16666365
000140 b1 6a a7 be 44 35 54 3c b5 dc 52 be 0b 52 80 3e
       -0.32698587 0.012952153 -0.20592006 0.25062594
000150 76 cd 98 3b cf e3 8a be 8d 29 90 3d 95 21 6a 3e
       0.0046631647 -0.2712693 0.07039175 0.22864373
000160 4d 97 0b be f6 ce 1f 3d 54 9c 3d 3e 2c 9a de bd
       -0.13631935 0.039015733 0.18516666 -0.1086925
000170 3e 4f 3c 3e 65 53 55 be d4 13 02 3e 49 c4 3b 3c
       0.18389603 -0.20832594 0.12702876 0.011460372
000180 6e a2 e6 3d fa 3d 1d 3e 71 cd 39 bc 3f 85 c0 bd
       0.1126145 0.15355673 -0.011340485 -0.09400415
000190 91 72 89 bd 2c 46 1e 3e 06 89 52 be 86 8d f6 bc
       -0.06711305 0.15456456 -0.20560083 -0.03009678
0001a0 3e 45 c2 3c 81 b9 0f be ee d4 93 3c b0 0e 1b 3e
       0.023714658 -0.14035608 0.018045869 0.15142322
0001b0 70 ed 6f bd 57 ad 52 3c 14 a9 5e be 43 90 50 3e
       -0.058576047 0.01285871 -0.21744186 0.20367531
0001c0 14 07 2e bc 7c eb 81 3d 2b 01 0d 3d de e5 8c bd
       -0.010621805 0.06343743 0.034424942 -0.06879781
0001d0 dc e8 a4 bc 1e e8 52 bb 85 a2 57 be e9 72 21 3e
       -0.020130567 -0.003218181 -0.2105809 0.15766491
0001e0 55 4c a7 bd c0 1c 62 bc 8a 62 db 3d c2 8a 98 3d
       -0.08168856 -0.0138008 0.10712154 0.07448341
0001f0 4c 19 3b be 86 4f 0b be b0 e8 9e bd 50 2a 1b 3b
       -0.18271369 -0.13604555 -0.07759225 0.0023676343
000200 e2 91 db 3d c6 2c b1 bc 8f 4f 32 be 7a db e0 bb
       0.10721184 -0.021627795 -0.17413162 -0.006862101
000210 df 40 28 3e d0 01 5a ba e2 e7 03 bf b7 f9 10 be
       0.16430996 -0.000831631 -0.515257 -0.14157759
000220 80 1f af be 60 d7 07 bc e4 21 88 3d 9d a2 73 bd
       -0.3420372 -0.0082910955 0.06647089 -0.059481252
000230 63 2d 01 be c7 03 78 3e f2 20 51 be d4 82 31 bd
       -0.1261497 0.24220191 -0.20422724 -0.043337658
000240 b5 93 3c be 6b b1 0d 3d 71 1c 30 bc 2f a5 79 be
       -0.18415721 0.034593027 -0.010748968 -0.24379419
000250 d5 b4 e8 bd 00 de 14 3e a0 38 29 3c 8a 29 3d 3d
       -0.11362616 0.14537811 0.010328442 0.046182193
000260 88 32 1b 3e e8 f5 fe 3c 3a 48 8f 3d 88 63 ec bd
       0.15155995 0.031123117 0.06996198 -0.115424216
000270 74 e2 fe 3b 3b d0 7c bd 14 30 bf 3d cc 5b 28 bd
       0.00777846 -0.06172202 0.09335342 -0.04110317
000280 a0 b2 67 3d 49 bd 1a 3e 7e 98 aa 3d b6 69 c4 3b
       0.056566834 0.15111269 0.08329867 0.005994047
000290 db b8 cf bd 73 f1 36 be 8d 4d 06 be 2c d8 8b 3d
       -0.1014268 -0.17865543 -0.13115521 0.06828341
0002a0 90 23 85 3d 84 38 84 bd 49 2b 0e be 24 95 90 bd
       0.06500924 -0.06456092 -0.138837 -0.07059696
0002b0 20 cb c2 bd 9c 4a ae 3e 73 69 27 3d 28 9f 35 bd
       -0.09511399 0.34041297 0.04087205 -0.044341236
0002c0 73 ee b1 3d 84 8c 23 3e 31 72 00 3e 8d 32 50 3d
       0.08688059 0.15971571 0.1254356 0.05082946
0002d0 26 4e ec 3c 37 7a 6a 3e a1 0f 01 3e 00 82 f8 3c
       0.028845858 0.22898184 0.12603618 0.030335426
0002e0 58 9b 01 3e a6 d3 06 3f 78 cf ab 3d ea 84 f5 3c
       0.12656915 0.526667 0.08389181 0.029970605
0002f0 5f 80 69 bd 82 8d 9a bd 47 12 e5 3d 32 85 2b 3e
       -0.05700719 -0.07546522 0.11185127 0.16750029
000300 28 14 43 3e 5e ae 24 bc f3 2e 0a 3e f2 e7 bc bc
       0.19050658 -0.010051338 0.13494472 -0.023059819
000310 67 1b 0d be de 21 25 bb 2e a8 77 3e cb 8a 3a bd
       -0.13779984 -0.0025197188 0.24185249 -0.04554252
000320 47 b1 ac 3d 43 4b 37 be 3b 65 94 3d 26 18 d5 bd
       0.084322505 -0.17899804 0.07245871 -0.104049966
000330 5d 75 09 3e ce a2 77 be fc 64 81 be 5d a3 00 be
       0.13423677 -0.24183199 -0.25272357 -0.12562318
000340 c4 18 44 be 62 0a 04 3e c0 05 49 be 68 6f 38 3d
       -0.19150072 0.12894586 -0.196311 0.04502812
000350 c8 28 53 3d 96 4f 6f be 93 16 09 3e 9f 28 81 bd
       0.051552564 -0.23370203 0.13387518 -0.06306576
000360 aa 89 1e bd 7b 8e d4 3d fe e2 9f bd 6d 22 b6 bd
       -0.038705505 0.103787385 -0.07806967 -0.08893285
000370 5a b6 c5 3d 82 88 57 3e db a0 a9 3d d5 79 0e 3e
       0.096539214 0.21048167 0.08282634 0.13913663
000380 2e bf 50 be e7 dd 26 3d fa f6 fb 3c 63 86 a0 bd
       -0.2038543 0.040738966 0.030757416 -0.07838132
000390 9f c3 69 bd e7 6b 20 be 80 2c 8c ba 92 2d 10 be
       -0.057071324 -0.15666161 -0.0010694414 -0.14079884
0003a0 3e 40 8c be 7a 85 86 bc cc 29 b9 3b 23 3e 91 bc
       -0.27392763 -0.016421068 0.0056507345 -0.017729824
0003b0 bd 2b 8b bd 98 fb 79 3d 65 14 03 be 2a 9a 34 be
       -0.06795452 0.061030954 -0.12800749 -0.17636934
0003c0 c0 81 29 3e 7e 1e b2 bc ba 85 1b be d1 8f 83 be
       0.16553402 -0.021743055 -0.15187731 -0.2569566
0003d0 ee 12 2e 3e 7e b0 59 be ab bd a9 bd 70 73 0d 3b
       0.16999409 -0.21258733 -0.082881294 0.0021583699
0003e0 1e b2 f3 bb 90 9a da bd 61 0b 7c 3d 84 8d c0 3d
       -0.0074370047 -0.10674012 0.06153429 0.09401992
0003f0 e4 98 80 3c 78 50 91 3c 5c f6 a0 bd 1b d5 0d 3f
       0.015697904 0.017738566 -0.07859489 0.554033

bias f4 [64]
000000 17 d1 16 bc 48 60 17 bc db e7 18 bc db 9d 01 3c
       -0.009205124 -0.009239264 -0.009332622 0.007911171
000010 4c 41 b5 bb 94 0c 1c 3c 8e 45 08 bc 9e 65 f3 bb
       -0.0055314656 0.009524483 -0.008317364 -0.007427885
000020 ba 8c 07 3c d0 6e 13 3c 4c 4e 17 3c 33 05 fe bb
       0.008273298 0.008998588 0.009234976 -0.0077520846
000030 4d e3 0d bc bc b7 dd 3b 46 19 16 bc 7e b7 1a 3c
       -0.00866015 0.0067662876 -0.009161299 0.009443162
000040 0f 70 94 3b d4 44 aa 3b 92 bc 0f bc 3f 2f 03 3c
       0.00452996 0.0051961932 -0.008772986 0.00800687
000050 ba d0 09 bc 98 a3 03 bc 39 a9 1e 3c d3 32 13 bc
       -0.008411581 -0.008034609 0.0096839005 -0.008984285
000060 a4 90 e8 3b ac be 11 bc 26 d6 0f bc 43 e8 11 bc
       0.0070973206 -0.008895557 -0.008779084 -0.008905473
000070 04 58 18 3c fc cf 32 bb 39 d3 0b 3c d1 95 1c 3c
       0.009298328 -0.0027284613 0.008534246 0.009557203
000080 44 e4 ee ba 35 68 dd 3b 2d 26 16 3c 28 c1 16 bc
       -0.0018225987 0.006756807 0.009164375 -0.0092013255
000090 9b b6 51 3b 6e 92 1a bc 63 2c 17 bc 4d f5 13 bc
       0.003199971 -0.009434326 -0.009226891 -0.009030652
0000a0 0d 81 08 3c ea 46 e2 bb 16 d5 0d 3c 21 27 e1 bb
       0.008331549 -0.0069054263 0.008656761 -0.0068711196
0000b0 e8 d3 0f bb 15 c1 1b 3c c7 35 bf bb 39 01 01 3c
       -0.0021946374 0.009506484 -0.005835268 0.007873827
0000c0 ff bf 16 3c 13 b8 15 3c 91 af ff 3b e6 71 17 bc
       0.009201049 0.009138125 0.0078029116 -0.009243464
0000d0 d2 1f e3 bb c7 84 b1 3b 62 33 02 bc 22 8c 08 bc
       -0.0069312835 0.0054174396 -0.007946821 -0.0083341915
0000e0 cd 31 15 bc 10 68 0f 3c 4d 1a 0e bc 1a 93 1a 3c
       -0.009106112 0.008752838 -0.008673263 0.009434486
0000f0 31 17 ab bb 85 dc 00 3c 08 5d d2 3b 64 e2 0b bc
       -0.0052212705 0.007865076 0.0064197816 -0.008537862

weight f4 [64, 64]
000000 3d 69 54 3e fa 64 a4 3e d4 0b 71 3c 2e 5b d1 bc
       0.2074327 0.3210829 0.014712293 -0.025556173
000010 b5 0c 1f 3e 15 28 d3 bd 49 65 39 be 83 2a 20 3d
       0.15532191 -0.103103794 -0.18105043 0.039103042
000020 1d fc dd bd 26 2f 12 3e 38 21 b0 bc 19 f8 11 be
       -0.108391024 0.14275798 -0.021500215 -0.14254798
000030 44 ce 05 3e 1e 18 48 bc c1 57 9e be cc 41 09 3e
       0.13066965 -0.012212781 -0.30926326 0.13404006
000040 87 61 5a 3c d7 1b fa bd bf 48 a4 be 32 90 cd be
       0.013328916 -0.12212341 -0.3208675 -0.40149075
000050 f1 90 11 bd 33 9b 33 3e 6a 9c 0f 3e 2c f6 0e 3e
       -0.035538618 0.17539673 0.14024511 0.13961095
000060 62 39 2a 3d 69 83 14 3e d4 11 31 3c 4e bd af 3d
       0.04155863 0.14503254 0.010807473 0.08581029
000070 74 55 9b bd 99 d3 09 3d b6 9a 3a 3b d7 25 e6 3c
       -0.07584658 0.03364906 0.0028473563 0.028094215
000080 5d fd 24 3e 89 be 31 be 60 66 25 3e 55 e4 9b 3b
       0.16112275 -0.1735784 0.16152334 0.004757444
000090 80 5d af be d2 04 5c 3d e9 02 39 3d 38 17 d3 bd
       -0.34251022 0.053715535 0.04516879 -0.10307163
0000a0 14 73 56 be 7c 5a fb 3e 9b fe 60 be 06 0a 0e be
       -0.20942336 0.49092472 -0.21972124 -0.13871011
0000b0 7f bc 5a 3e 19 8d 02 3e b6 c3 0d 3d 8b da 1d be
       0.21360968 0.12749137 0.034610473 -0.15415399
0000c0 e6 8e 06 3e 16 95 12 3e d3 40 ce bc 10 ac 62 bd
       0.13140449 0.14314684 -0.025177395 -0.055339873
0000d0 7a d8 8e bd 2d d9 4b 3e d9 80 86 3e a7 68 82 bd
       -0.069748834 0.19907065 0.26270178 -0.06367617
0000e0 a0 18 43 bc 78 18 94 bd b8 f5 af bd a9 64 1d 3e
       -0.0119077265 -0.072312295 -0.08591789 0.1537043
0000f0 4d 66 bd 3e a2 b4 a5 be ac 3f a5 be b3 75 18 3e
       0.36992112 -0.32364374 -0.3227514 0.14888649
000100 2f 94 08 3e 7c 09 b8 3d 5c 06 95 3d f1 ce 35 3e
       0.13337778 0.08986184 0.072766036 0.17754723
000110 40 45 74 3e 3a 4a 80 3d 28 ef 97 3c 6e b4 aa bd
       0.23854542 0.062641576 0.018546656 -0.083351955
000120 39 f4 14 bd 4c d2 63 be ca b4 9a 3d e9 92 46 bc
       -0.03636572 -0.2224819 0.07554014 -0.012119987
000130 a7 60 35 3e e4 90 c1 bd 56 21 92 be eb cb ba 3d
       0.17712651 -0.09451464 -0.28541058 0.091209255
000140 33 40 41 3e 72 0f e7 3d 7c f1 6f be b1 2c 7b 3e
       0.18872146 0.11282243 -0.23431963 0.24528767
000150 44 cd 9a 3c b2 66 4d be 96 af 68 3d 2b 44 ec 3e
       0.018896706 -0.20058706 0.056808077 0.46145758
000160 96 6d 83 3d 70 21 1b 3c 98 ce d4 bd 6b 22 09 be
       0.06417386 0.009468421 -0.10390967 -0.13392036
000170 e5 a5 0e 3e 4f 95 78 be fe 19 32 be f8 b1 8c 3e
       0.13930471 -0.24275707 -0.17392728 0.2747953
000180 aa dd 7e 3d ee a5 94 bd 1b 07 0d 3e 16 3f 99 3d
       0.062223114 -0.07258211 0.13772242 0.07482736
000190 d4 c6 84 3e c0 ff 59 3e c3 22 b1 3e 45 0c d9 bc
       0.25932944 0.21288967 0.34596834 -0.026495108
0001a0 16 e2 97 3d a9 97 f1 3d 64 a6 8c 3d b2 6c 4e be
       0.07416169 0.11796505 0.06867674 -0.20158651
0001b0 18 52 c9 ba c2 88 e8 3d 79 5c 19 be f7 a1 8d 3e
       -0.0015359549 0.113542095 -0.14976682 0.27662632
0001c0 9d b0 6b 3c 21 77 ca bd 05 3d ab bb 9c be 7d 3e
       0.01438537 -0.09886003 -0.00522578 0.24779743
0001d0 9e db 2b bd c7 a7 83 be 91 3f 0d be b7 86 a6 3e
       -0.04195749 -0.2571394 -0.1379378 0.32524654
0001e0 1c a2 33 bc 9d 34 ad be fd d7 a1 3e 28 36 9b bd
       -0.010963943 -0.33829203 0.31610098 -0.07578689
0001f0 07 11 2a be d9 82 92 3d d3 ef 8c be b5 a8 7b bd
       -0.16608058 0.071538635 -0.2752672 -0.06144019
000200 cb 09 8c 3e 59 b5 ad bd 1e e0 81 bd 9b df 3f bd
       0.2735122 -0.08481855 -0.06341575 -0.046844106
000210 48 78 50 3e 36 dc 55 3c 2e d4 de bc 7f ab c2 bd
       0.20358384 0.013052991 -0.027200785 -0.095053665
000220 41 56 76 bd 1e ad 82 3e ee dc e2 bd 5f a6 af be
       -0.060140852 0.25522703 -0.11077295 -0.3430662
000230 b7 5a e1 bd 50 ee 21 3e 48 24 0c 3e 18 af dd 3e
       -0.110036306 0.15813565 0.13685715 0.43297648
000240 dc f7 71 be 64 8d db be 13 57 74 be 1a f5 d3 3e
       -0.23629707 -0.4288131 -0.23861341 0.41397935
000250 4e b3 66 3e 43 d9 3b bd 3e 0f d3 bd 6a 47 b0 bd
       0.22529337 -0.045861494 -0.103056416 -0.08607371
000260 1f 0f 9f be d3 3c f3 bd e4 13 68 be d9 b5 fb bd
       -0.31066224 -0.11876836 -0.22663838 -0.12290544
000270 66 28 7f bd 68 b8 08 be 37 25 ae 3d 93 5a 93 3d
       -0.062294386 -0.13351595 0.08503192 0.0719501
000280 22 25 bc 3c 06 0c f6 3d 42 60 ca 3d 8a 99 92 bb
       0.022966925 0.12014012 0.09881641 -0.0044738697
000290 f1 40 80 3d 45 ec 37 3e 2d 18 35 3e fd d0 77 3d
       0.062623866 0.17961223 0.17685004 0.06050204
0002a0 dd 65 c0 be f5 46 fd bd ec fc 49 be 91 27 7a bd
       -0.37577716 -0.123670496 -0.19725388 -0.06107289
0002b0 fc 4c ff bb ae 29 e2 3c 8c a5 af bd ce 2f 22 3c
       -0.0077911597 0.027607765 -0.085764974 0.009899093
0002c0 96 da 5b 3d c2 1b da 3d e1 65 85 3c cd c4 e7 3d
       0.053675257 0.10649826 0.016283931 0.11316834
0002d0 b3 9a 69 3e 86 da 25 3e 65 c9 62 3d f6 5b 85 be
       0.2281292 0.16196641 0.055367846 -0.26046723
0002e0 41 df 3b 3e fb a1 bc 3d 79 3f 0f 3e 1c de ae bd
       0.18346883 0.09210583 0.13989057 -0.08538458
0002f0 88 d9 91 3a 17 6b 12 3d cb 43 83 3e 01 8e 6e be
       0.0011127451 0.03574666 0.2563766 -0.23296358
000300 ec 25 ce bd 75 58 8c be f6 92 0b be cd 7e 94 be
       -0.10065827 -0.27411237 -0.1363028 -0.2900299
000310 09 cf 7e 3d af 7d a9 bd c4 48 97 3d 2c 72 54 be
       0.062209163 -0.08275925 0.07386926 -0.20746678
000320 b6 c2 33 3d 8c 33 4c 3d 5d 47 af 3e 06 be 43 be
       0.043886863 0.049853846 0.34234133 -0.19115457
000330 8c 6a aa 3e 64 76 87 bd 33 9b b1 be 12 2c 6d 3e
       0.33284414 -0.06614378 -0.3468872 0.23161343
000340 3e 36 f0 bd 71 c5 a1 bc 42 20 57 3e f9 97 06 be
       -0.11729096 -0.019747468 0.21008399 -0.1314391
000350 a2 b0 c2 3e 13 28 6d 3e b6 0d d6 bd 8f e5 40 3e
       0.38025385 0.23159818 -0.10451834 0.1883757
000360 5c cb 2b 3e 34 87 2a 3e 5c a0 00 3c ba 59 7d bc
       0.16776794 0.16653138 0.007850733 -0.015463287
000370 92 f1 68 be 50 c2 14 3e 20 3a d5 bd aa 7f 79 3d
       -0.22748402 0.1452725 -0.10411477 0.060912766
000380 07 00 91 bd 59 3c 53 3e 1c e6 a6 be 23 73 d3 3e
       -0.07080083 0.2062849 -0.32597435 0.4129878
000390 76 f0 18 3d 39 cd 2e 3e b7 06 03 3d 1d dc 75 be
       0.037338696 0.17070474 0.031988826 -0.24009748
0003a0 3c 16 fb 3c 7e 8b 32 be 00 5b 2d 3e e4 1d 91 3d
       0.03065025 -0.17436025 0.16929245 0.07085779
0003b0 6b a0 95 3d 13 a5 c6 3d 94 64 d5 bd 2e bb d9 bd
       0.07305988 0.09699454 -0.104195744 -0.10631405
0003c0 7d 27 6c 3e 0c 62 01 be c6 0c 89 3d b4 c6 0d be
       0.23061939 -0.12635058 0.066918895 -0.1384533
0003d0 b5 6c ec 3d cb 45 92 3d fa 70 aa be 62 c1 e6 bd
       0.11544172 0.07142218 -0.3328932 -0.112673536
0003e0 8a 6b 8a 3d 99 d2 45 be 30 ee a5 bd 66 ee 06 3d
       0.06758793 -0.19318618 -0.08102071 0.0329422
0003f0 8e 61 15 3e 3d 6a d3 3d 6d bd 12 3d e8 9c 08 3e
       0.14587995 0.10322998 0.03582518 0.13341105

bias f4 [64]
000000 3d 5d 0d bc 93 47 1a 3c 1a ad 1b bc 4e 77 09 3c
       -0.008628187 0.009416479 -0.00950172 0.008390261
000010 b5 a9 1c bc a9 be 0c 3c b8 51 04 3c 68 35 14 3c
       -0.009561946 0.008590379 0.008076124 0.009045936
000020 8b 8b 1b 3c fd 5e b4 3b 3c 00 0a bc 58 f5 13 3c
       0.009493719 0.0055044875 -0.008422907 0.0090306625
000030 08 e8 13 bc e9 7c f7 bb 2b 5a 08 bc 04 27 15 3c
       -0.0090274885 -0.0075527322 -0.008322279 0.00910354
000040 2b 7b 12 bc d5 0e aa bb 00 78 15 bc 03 7e 18 3c
       -0.008940498 -0.0051897564 -0.0091228485 0.009307387
000050 ed 31 17 3c 9c 4b 1b 3c 13 e7 12 bc 20 69 e9 bb
       0.009228212 0.009478476 -0.008966225 -0.0071231276
000060 61 c7 1c 3c 99 4c 1e 3c 5a 81 19 bc 72 e6 11 bc
       0.00956902 0.009661817 -0.009369219 -0.00890504
000070 0c f2 1e bc da c4 1e 3c e0 64 1d 3c ff a4 15 3c
       -0.009701263 0.009690488 0.00960657 0.009133576
000080 86 aa 1b bc 98 96 1b 3c ae 7b c0 bb 10 85 10 bc
       -0.009501105 0.009496354 -0.005874119 -0.008820787
000090 c6 23 3a bb ca 0b 12 3c 23 38 20 3c af 98 12 bc
       -0.002840267 0.008913944 0.009779009 -0.008947535
0000a0 d2 20 12 3c 43 88 0a bc bb be 13 3c d2 2f e8 3a
       0.008918958 -0.008455339 0.009017642 0.0017714447
0000b0 37 93 18 3c 3d b6 e7 3b 1d 01 0f bc 8d d2 0c bc
       0.0093124425 0.007071285 -0.008728293 -0.008595121
0000c0 d8 5b 21 bc 4d af f1 bb 16 6c b0 3b 4b 1d 20 3c
       -0.009848557 -0.007375634 0.0053839786 0.009772609
0000d0 e7 f1 19 3c 6b ef 08 3c a8 e8 8b bb 67 4c 18 3c
       0.009396053 0.008357863 -0.004269678 0.0092955595
0000e0 30 33 14 3c fe 42 21 bc 4e f5 11 3c 1a 4f 20 bc
       0.009045407 -0.009842632 0.008908583 -0.009784484
0000f0 6a a3 10 3c ca 1a f0 3b 54 03 17 bc 36 f9 04 3c
       0.008828023 0.0073274123 -0.009217102 0.008116057
