results_109/simple/ppo/seed_1_step_50_ms_ce_minp2_maxp_2_mina_5_maxa_5_tn_3000_act_10.pt (torch, 132710 bytes, 16 tensors)

weight f4 [64, 100]
00000000: 656e e73d 4844 553d fd12 c83d 884f 083d
00000010: 91f0 68bd f326 ebbd f7e0 8b3d a593 90bd
00000020: ac98 34bd 065e cebd 27ee 9b3d a58c 313d
00000030: 3a91 2fbe a4ba 1ebe 89cd 973d e428 52bb
00000040: 5137 3fbd 8384 20be 26f4 1fbd d5d7 343d
00000050: 4060 44be 2440 953b c380 abbe 0fe9 033e
00000060: 1fbd d4bd f9c7 a5bd 2fba 153e 2f43 27be
00000070: 9433 733d 1442 af3d d38d f23d eca1 fd3d
00000080: 51d8 8cbd 146b 613e 5e28 4fbe 2af9 2cbd
00000090: 8712 143d f089 c03d e45e aabb 4ff7 3d3e
000000a0: 4fcc d13d 261a a4bd b982 813e 2a51 e23d
000000b0: 2e07 eb3b a4a5 f7bd b4e9 d0bd dfb3 5a3d
000000c0: 7fd0 b7bd 62f7 3e3e 75d9 26be 9e6c c1bd
000000d0: 4d08 4ebe e430 4abe a52e 6dbd 964e 203c
000000e0: 7ee2 16be 5ec8 e43d 87ff 3abe caea 953d
000000f0: aa6e 6e3c 06c0 7fbd b746 9b3d 40b7 4b3d
00000100: d128 9a3d a995 dcbd 7d64 2f3d eb99 d33d
00000110: 535d 06be e229 1f3e f1db 5cbd ffec ddbd
00000120: 5ada 2abe a25b cc3d cc1a 6b3e 9974 d8be
00000130: 0142 9cbe e3e7 4c3d c54e 8dbe e440 5a3e
00000140: 2090 dabd f042 683e e45f 103e 2c53 babd
00000150: 49d6 e4bc c2a1 bbbd 896b 1e3e 4e8c acbe
00000160: 79cc 02be 240c 89bc a45b 45be ce1a 2e3e
00000170: c781 d53d 87ff cc3d 59d8 c1bd 124e 64bd
00000180: 9c71 bc3e e291 4c3e 05b2 733d 5938 483d
00000190: e33a 01be 2658 6ebe 8776 01bd 5765 68bd
000001a0: 6552 41be 272c 273e 7534 88be f980 51be
000001b0: 2cfb 9c3d 203f c33c 5520 ebbd c733 f73c
000001c0: 3ce3 da3c cac7 5e3e 4ba2 32be b09e 06be
000001d0: 60c2 523e 85c5 df3d 3a24 263b 81e0 aa3d
000001e0: 4e39 d5bb 3412 503e c0ca 40bd f8a5 273e
000001f0: 1b8e 01be eee7 97be db17 583e 1d97 13bd
00000200: 13ee 5e3e 761b 6cbd e997 8e3d e9c4 29be
00000210: 6860 983d 7f12 c03e 8158 c5be 70bb 9ebd
00000220: 2910 753d 20d3 2abc 0a36 85be b132 d4bd
00000230: 2e87 813c b4ff 98bd 6673 2cbe d8e7 a03d
00000240: 398b e73c 0fd8 84bd 06c5 413e 26ed 1d3e
00000250: d21c 643e f31f 53bd d1d7 15bd 4eae 13bd
00000260: d5ee 013c 4598 5bbe 34de 943d 3dbb 803e
00000270: 89ef d1bd 82fd 4f3e ccac 10bd 1457 b33d
00000280: 3311 d1bd 3d6a f53c b014 c2bd bb2b 783d
00000290: bd07 75be f438 693d 44f9 1e3c ccc3 15bd
000002a0: cbd7 4ebe c4d4 003e 30f1 303e f533 77bd
000002b0: a21d 173e c50d fabd a483 95bc 92c9 31be
000002c0: 78a8 ee3d d8db 8e3d 93f9 0b3d 6b40 333d
000002d0: 3da9 133e b55b 32be 9686 17be 38ed e73c
000002e0: 27ec 6abe 28f1 fdbb 693d e2bd 8370 a6bd
000002f0: ce0c 39bd 1cc8 e13d 9a8d 743e c097 8738
00000300: 3b9a 46be 9209 233e 06c9 223e 0d01 97bd
00000310: 1135 9ebd f480 eabd 75c4 0cbd dc4f 743d
00000320: ea66 16be 48a3 463e 3f13 e8bc 95fa 4fbd
00000330: 3117 933e 6857 83bd a60a 043e 2a90 10bd
00000340: 2d02 5abd dde4 7e3e 308c 263e dd06 c83e
00000350: f375 a73d 86f9 20be 143c 083e 0ba1 413e
00000360: ad23 403d c777 933d 0ac2 043d 9273 8cbd
00000370: 6622 1abd 7679 b1bd be23 a1bc 9516 dabd
00000380: dc5e 1fbd edd2 8e3c 8c17 69be 1909 28bd
00000390: d73a 083d 1a43 01be 5838 5ebb 2fc1 fcbd
000003a0: 367b 77bd e76d 913e 5a13 b23e e60b c5bb
000003b0: a661 ce3d 545b 413c b40d 2bbe bcd7 e53d
000003c0: 7145 23bd 376f 0d3e eba7 183e b596 673e
000003d0: 227f fe3d 0da4 9d3d 141d 1ebd 6745 b8bb
000003e0: e86d 1c3e 518c af3d 509b c8bd 8254 f2bd
000003f0: 6bcf d13b 5651 55be 7a7e aa3d 4b45 80bd
0.11300353 0.05206707 0.09769247 0.033278972 -0.056870047 -0.11482038 0.06830018 -0.07059411
-0.04409091 -0.10076527 0.07613783 0.04334702 -0.17145243 -0.15500885 0.074122496 -0.003206783
-0.046683613 -0.15675549 -0.039051197 0.044151146 -0.19177341 0.0045547653 -0.33496675 0.12881874
-0.103876345 -0.080947824 0.14621805 -0.16334222 0.05937536 0.08557525 0.11843457 0.123844
-0.068771966 0.22013503 -0.20230243 -0.04222981 0.03615048 0.094013095 -0.0051993 0.18551372
0.10244047 -0.080128 0.25295046 0.11050637 0.0071724867 -0.1209214 -0.10200825 0.053394195
-0.08975314 0.18649057 -0.16293891 -0.09444545 -0.20120354 -0.19745213 -0.05790581 0.009784361
-0.14734837 0.111710295 -0.18261538 0.07320173 0.014552752 -0.062438987 0.07581847 0.049735308
0.07527316 -0.10770733 0.042820442 0.10332092 -0.13121538 0.15543321 -0.05392069 -0.10836219
-0.16684857 0.09978415 0.22959441 -0.42276457 -0.30519107 0.050025832 -0.2759916 0.21313816
-0.10672021 0.22681785 0.1409908 -0.09097895 -0.02793421 -0.09161712 0.15470709 -0.33700794
-0.12773313 -0.016729422 -0.1927324 0.17002413 0.10425144 0.100096755 -0.09465093 -0.055738516
0.36805427 0.19977525 0.059495945 0.048881862 -0.1262012 -0.23275813 -0.031607177 -0.05673727
-0.18879087 0.16325437 -0.26602522 -0.20459355 0.07665095 0.023833811 -0.11480776 0.030176057
0.026719682 0.21755901 -0.17444722 -0.13146472 0.2058196 0.10926346 0.0025351183 0.08343602
-0.0065070754 0.20319444 -0.047068357 0.16371906 -0.12651865 -0.29669136 0.2110285 -0.036032785
0.21770506 -0.057643376 0.06962568 -0.16579022 0.07440263 0.3751411 -0.38544086 -0.077505946
0.059829865 -0.010426313 -0.2601779 -0.10361231 0.015811529 -0.074706465 -0.16840896 0.07856721
0.028264629 -0.064865224 0.18922815 0.15422496 0.22276619 -0.05154414 -0.03658277 -0.0360549
0.007930477 -0.21444805 0.072689444 0.2514285 -0.10250766 0.2031155 -0.035321042 0.08756843
-0.102083586 0.029957885 -0.09476602 0.06058858 -0.23928733 0.05693908 0.009702984 -0.03656368
-0.20199506 0.12581164 0.17279506 -0.060352284 0.14757398 -0.122096576 -0.018251248 -0.17362049
0.116532266 0.069755256 0.03417356 0.043762606 0.14420028 -0.17417796 -0.14797434 0.028311357
-0.22941647 -0.0077496953 -0.11046869 -0.08126929 -0.045178227 0.11024496 0.23882142 6.465567e-05
-0.19394772 0.1592162 0.15896997 -0.07373247 -0.07724965 -0.11450377 -0.034367044 0.059646472
-0.14687696 0.19398224 -0.02832949 -0.050776083 0.2872863 -0.06413156 0.12894687 -0.035293736
-0.05322473 0.24891992 0.16264415 0.39067736 0.08176794 -0.15720186 0.13304168 0.1890909
0.046909023 0.0720058 0.032411613 -0.06857981 -0.03763046 -0.08665745 -0.019670364 -0.106488384
-0.038908824 0.017434562 -0.22762889 -0.0410243 0.03325924 -0.12623253 -0.0033908095 -0.12341534
-0.060420237 0.2840416 0.3478039 -0.0060133813 0.10077219 0.0118015595 -0.16704446 0.11222789
-0.039861146 0.13811956 0.14907806 0.22616084 0.124265924 0.07697306 -0.03860195 -0.005623508
0.15276301 0.08571685 -0.097952485 -0.11832525 0.0064029 -0.20831808 0.08324905 -0.062632166

bias f4 [64]
00000000: 5baf 143c aaa6 2cba d7c8 7dbc 0d77 89bc
00000010: fb38 30bc 8baa 803c e982 7d3c a522 6cbc
00000020: a224 72bc 8a91 563c 3d4e a4bb 11b1 b33c
00000030: 92ea 51bc ec49 323c 7a8b 5ebc 57f0 99bc
00000040: ece1 363c 7e57 46ba 3658 4d3c 1347 103c
00000050: 0449 16bc 7671 e73b 8371 e0bb ad1f 35ba
00000060: 225d 6d3b 4330 0dbc 267e b63c 307e 143c
00000070: ca76 3dbb 3e30 2bbc 269c 93ba 60f7 80bb
00000080: 2ece 01bc e010 0ebc a430 c13b 4492 04bc
00000090: 0a60 fd3a be08 ccbb b771 303c f011 4e3a
000000a0: 922e b2bc 0668 2dbb 7c13 083c 28f3 dfbb
000000b0: 560f bd3a 6036 5cba 2a33 4cbc c9e2 97bb
000000c0: 2059 e13b 7705 b83b 8c11 4fbb 1ff4 62bb
000000d0: fdcd ae3b c02e e03b c205 27b9 ef8f dbbc
000000e0: 7d52 0abb 3e67 23bb b566 bd3b fb51 013c
000000f0: 62b6 aaba 1a8b babb 3163 773b 08f1 593a
0.009075011 -0.0006586114 -0.0154897785 -0.0167804 -0.010755773 0.015706321 0.015473106 -0.014412557
-0.014779242 0.013096223 -0.0050142095 0.021935018 -0.012812274 0.010881882 -0.0135830585 -0.01879136
0.011162262 -0.0007566138 0.012533238 0.008806008 -0.009172682 0.007063086 -0.006849469 -0.0006909322
0.0036218842 -0.0086174635 0.02227695 0.009063289 -0.0028909915 -0.010448514 -0.0011261746 -0.0039357394
-0.007922692 -0.0086710155 0.005895691 -0.008091513 0.001933099 -0.006226628 0.010769299 0.0007860949
-0.021750722 -0.0026459708 0.008305427 -0.0068344064 0.0014424126 -0.00084004365 -0.01246337 -0.004635189
0.0068770796 0.005615886 -0.0031596152 -0.003463037 0.0053346143 0.0068415105 -0.00015928506 -0.026802031
-0.0021106296 -0.0024933363 0.005780066 0.007893081 -0.0013024325 -0.0056928517 0.0037748332 0.00083138095

weight f4 [64, 64]
00000000: 9209 9abd 8c93 8abd 75a6 08be b206 01bd
00000010: 338a 14be 203c 9e3e d909 26be f269 6abe
00000020: 83c8 9ebe cec9 afbd 4180 c83d 2055 c03d
00000030: 03ad a9bd 1a6c d4bd 5fcb 18be 9837 cd3d
00000040: c62a ae3e fe5a 7a3d e62a 87be d595 99bd
00000050: 5315 fbbe 48e7 4fbe 2e95 903c e120 863d
00000060: 4ccf 6cbe 6235 953c 71c3 e1bd 625e bd3e
00000070: 0deb 453d 071d cebb 9b6f d23d eca7 db3e
00000080: b7ac 85bd 1030 ce3d 97d2 9cbd d3fc 2cbd
00000090: dc8f 253e ec8f 7dbd cc18 b23a 2635 793e
000000a0: 6ed3 ca3a 21cc 633d 667d a33d 55eb c03d
000000b0: 5a65 ac3d e4a4 c7bc cadd 0d3e 8021 4dbe
000000c0: a984 35be 8eeb aebe 692a e03d 064d 103c
000000d0: 8e4f 9a3e 4ec9 ac3d e05d 70be 2dd0 323e
000000e0: efae c13e e836 aabd fae7 08be eecb 11bc
000000f0: e6d7 dabd ccea 15ba 87cb 0f3e 88ac e63d
00000100: 5190 ae3d 32d1 3fbd fdb6 9c3e 8d7a 663e
00000110: 0e35 ba3e 897a 9bbe 6d9d 95bc 9efa e23c
00000120: a0fb 103e 5736 dabd 19ec aa3d 763d 93be
00000130: 9341 2fbd 9945 75bc 030d 0dbd 91e8 2cbe
00000140: 53a4 b63d fcea f6bd 36ef 433e 9469 583e
00000150: 1e46 8ebe d5af 11be ea0b 1a3c ae7b c73d
00000160: 8aa3 8abe 4594 e2bd 7619 b7be ab40 823e
00000170: d10f 80be f327 0ebe 085c 43bd 5b0d 91bd
00000180: 1c20 e13d 92a3 fe3d d413 083e fd91 22bd
00000190: d80b 783c b4d1 843d 652e 9b3d ca16 1f3e
000001a0: 37b4 4c3e f2ee 0bbe 3059 a4bc 6674 d7bd
000001b0: 60fe babd 62e6 21be efb2 1abe 5adc c03d
000001c0: 3a1d 023f a463 7a3c 0be4 3cbe e28a 943e
000001d0: 2375 463e 9065 3e3e 0358 8e3e 3ac5 60bd
000001e0: 0190 9c3d 0ffd 9ebd 97e0 74be b643 063e
000001f0: e124 c33c 7237 fdbc a28b ef3d abea 443e
00000200: 8b39 b03d 1f9b 8cbe a907 d2be 79d9 69bc
00000210: 2cb0 933c 0a86 ccbb 68aa b9bd e8a5 8f3d
00000220: 12e2 37be ca6d f23c 9765 8abe e88b 86be
00000230: 4f57 3b3d 3abc 82be 4b66 bcbc cbda 62be
00000240: 1254 52be b77b 12be 2852 76bd 84ce 4ebe
00000250: f7f5 413e 58d0 52be a1c6 35be c257 0abe
00000260: 3aa8 9b3d a3f7 393e 69f6 ac3d 32e0 92bd
00000270: 49f9 113d 28b0 a5be a06a bc3d 7d8b c33d
00000280: 88f2 0cbe dd82 7d3e 7a0f 873e dff8 3fbd
00000290: 840c 3f3e 2fb1 84be 1ed1 063e 5428 13be
000002a0: e991 953c ec85 03bd 2dc3 e13d 001b e138
000002b0: b9b4 5e3e d179 5fbe f2c4 853d dd6d cd3e
000002c0: 10c0 e539 c6cc 8fbe 223b 363e b1c2 9cbd
000002d0: c3cf 133e 50d0 01be c4ef 603e 451c dabe
000002e0: e143 13be 89d4 363d a331 88bd 6217 353c
000002f0: 6fca a43d 01d5 3f3e c97b 483e a6d6 623d
00000300: 02a7 9dbd 808e dfbd 30ea adbc 3f04 c23e
00000310: 10f0 1b3e 2616 1f3c b832 c33d 799e e63b
00000320: e75d 143d 31d4 ce3c 6c48 713c 8c09 9abd
00000330: edd6 a13e f853 0dbe cf5b 6d3e 68a5 7bbe
00000340: 5aa8 d23d 97ee 923d 234b 52be d599 f3bc
00000350: bf7e 3fbe a538 36be a65a 03bd 5f04 1a3e
00000360: 24d1 7f3d 8715 0f3e 0f5c 993e d54a 753e
00000370: 533b 913d d7cc 83be 00e4 87be 801e 8dbe
00000380: 1401 cd3b cc5e 53be e51f a4be 0d03 543d
00000390: b6d1 2a3b 318d f5bd faae 74be bf40 06be
000003a0: 874f b6bd a742 f5bd 23ae 113f bb48 a8bd
000003b0: 2d25 883c 5bbb 583e 5b5c 67bb 62ad 413e
000003c0: 8ac4 033e bc2c 3a3d a11b c53d 979b 9e3d
000003d0: 2d41 98bd c012 093e ae46 f6bd 9222 8e3d
000003e0: 0de8 613e cacd ae3e 51e8 59bd 97dd c1bd
000003f0: 37a6 1cbe 33b0 f43d f7ae babd 9e88 6dbe
-0.07521357 -0.067664236 -0.13344748 -0.031500526 -0.14505844 0.30905247 -0.16214694 -0.22891977
-0.31012353 -0.08583413 0.097900875 0.09391236 -0.082849525 -0.10372181 -0.1492133 0.10020369
0.3401701 0.061121933 -0.26399916 -0.07499281 -0.49039707 -0.2030307 0.01764926 0.0654924
-0.23125952 0.018213931 -0.110236056 0.3698607 0.048319865 -0.0062900814 0.10275193 0.42901552
-0.06527083 0.10067761 -0.07657354 -0.0422333 0.16168159 -0.061904833 0.0013587712 0.24336681
0.0015474388 0.055614594 0.07982902 0.09419886 0.08417769 -0.024370618 0.13854137 -0.2003231
-0.17726387 -0.3416409 0.10945589 0.008807426 0.3013882 0.08436833 -0.2347331 0.17462225
0.37828776 -0.08311254 -0.13369742 -0.008898718 -0.106857106 -0.00057188864 0.14042483 0.112633765
0.0852362 -0.046830364 0.3060836 0.22507687 0.36368603 -0.30366924 -0.018263543 0.027707394
0.14158487 -0.10654896 0.08345813 -0.28757828 -0.042787146 -0.014970207 -0.034436237 -0.16885592
0.08918061 -0.120565385 0.1913422 0.21134025 -0.2778787 -0.14227231 0.009402255 0.09740387
-0.27077895 -0.110634364 -0.35761613 0.25439963 -0.25012067 -0.13882427 -0.04769519 -0.070826255
0.109924525 0.12433542 0.13288814 -0.039690007 0.0151395425 0.0648531 0.075772084 0.15536037
0.19990622 -0.13665369 -0.02006206 -0.10520248 -0.091305494 -0.1581054 -0.1510732 0.09417029
0.50825846 0.015282545 -0.18446366 0.2901221 0.19380622 0.1859343 0.27801523 -0.05487559
0.07644654 -0.07763111 -0.23913799 0.13111767 0.023821296 -0.030910227 0.11696555 0.19230144
0.086047255 -0.27462098 -0.4102147 -0.014273041 0.018028341 -0.0062415646 -0.090657055 0.07014066
-0.17957333 0.029593367 -0.27030632 -0.26278615 0.04573756 -0.2553423 -0.022997996 -0.22153775
-0.20539883 -0.14305006 -0.060136944 -0.20195967 0.18941484 -0.2058729 -0.17751552 -0.1351004
0.07600446 0.18160872 0.084454365 -0.07171668 0.035638127 -0.3236096 0.092000246 0.0954809
-0.13764393 0.24756952 0.26378995 -0.0468682 0.18657118 -0.2591643 0.1316571 -0.14370853
0.018258052 -0.03211014 0.11023555 0.00010733865 0.21748628 -0.21823813 0.06531705 0.40122882
0.0004382138 -0.28085917 0.17795995 -0.07654322 0.14434724 -0.12677121 0.21966463 -0.42599693
-0.14381362 0.044636283 -0.066500925 0.011052938 0.08046424 0.18733598 0.1957847 0.055380486
-0.0769787 -0.109158516 -0.021229833 0.37893865 0.15228295 0.00970987 0.09531158 0.0070379344
0.036222365 0.025247665 0.014726739 -0.07521352 0.31609288 -0.13801563 0.23179553 -0.24574816
0.10286017 0.07174414 -0.20536475 -0.029736439 -0.18700694 -0.17795046 -0.03206887 0.1504073
0.06245531 0.13973056 0.29953048 0.23954327 0.07091393 -0.25742218 -0.26541138 -0.27562332
0.006256232 -0.20641631 -0.32055584 0.051760722 0.002606494 -0.11989821 -0.23894873 -0.13110636
-0.089018874 -0.119756036 0.56906337 -0.08216997 0.01661929 0.2116522 -0.003530285 0.18913797
0.12867942 0.04545282 0.096244104 0.0774452 -0.07434306 0.13386059 -0.120252 0.069401875
0.22061177 0.3414138 -0.05320007 -0.09466093 -0.15297781 0.1194767 -0.09115403 -0.23196647

bias f4 [64]
00000000: 99b0 363c 66fa 96bb 71c8 aebc fe46 893b
00000010: 4796 a5bc b4ea d5bb 0b07 24bb 9f62 5ebc
00000020: d412 013a ae12 a8bc e8a7 30bd 66cf bdbb
00000030: 7cfe a8bc 5c47 833c 8479 03bc 9247 7bbd
00000040: d494 d3bc 1863 15bd f3eb 38bc e483 f2bb
00000050: c427 81bb 3d7f b4bc ccf9 223d edc8 f7bc
00000060: b4cc ec3c 1e15 f9bb 43a6 56bd 2caa 3b3c
00000070: dc96 fb3b b529 113c 75cd 1b3c 32d3 13bc
00000080: 1c1d 7abc 1387 f83c 375b 95bc b970 f73b
00000090: 9298 553b 5aa1 96ba fc76 c93c be15 e53c
000000a0: 0225 dabb 2181 31bc 30f4 77bc 302c 4a3c
000000b0: 3641 713c 40d7 d2bc a105 2c3d bd82 3bbc
000000c0: 5167 1a3d d983 3ebc 9d62 4abd bb27 97bc
000000d0: 73a4 3f3c 226c 15bb 6d65 f7bc 47a7 40bd
000000e0: c32f 933c 2b80 9bbb 0d3e 163d c252 4ebc
000000f0: 3fcd 37bb 5c17 5839 a8c1 123d 7791 6c3d
0.011150503 -0.0046074865 -0.021335812 0.004189371 -0.02021326 -0.006528223 -0.0025028612 -0.013573318
0.0004923765 -0.02051672 -0.043128878 -0.005792546 -0.02062916 0.016025238 -0.008024577 -0.06134755
-0.025827803 -0.036471456 -0.011286723 -0.0074009765 -0.003941508 -0.022033328 0.039789006 -0.030247176
0.028906204 -0.0076013943 -0.052404653 0.011454146 0.007677896 0.008860041 0.009509434 -0.009022521
-0.015265729 0.030337846 -0.018231971 0.0075512794 0.003259216 -0.0011492178 0.024592869 0.027964469
-0.0066572437 -0.010834009 -0.015133902 0.012339637 0.01472502 -0.025737405 0.041997556 -0.011444745
0.037696186 -0.011628115 -0.04941045 -0.018451562 0.011696923 -0.0022800048 -0.03019973 -0.047034528
0.01796711 -0.0047455034 0.03668027 -0.012592973 -0.002804592 0.00020608067 0.035829216 0.057755914

weight f4 [64, 64]
00000000: c780 d8bd ec58 fdbd 9014 59be 8354 f5be
00000010: 9cf0 813d 8ee0 d53d d5dc 213d 1899 9c3e
00000020: 12b9 34be 6d1e 3bbd 6691 173d e907 f23d
00000030: 96df cebe 490a 123e 0bc4 dd3c 7df1 06be
00000040: 5ef2 4abe a69c 55bd 17af 76bd 09e6 20bd
00000050: 2447 a43e 05c0 7fbe 8ad7 c3bb b510 46be
00000060: a526 ba3c 8cf7 bd3e 5c8b 883e 475b ab3e
00000070: c678 3a3e 5327 85be 7bb7 5b3d e9e5 a7bd
00000080: 4656 9ebd 7bd1 45bc 7916 b13d 1ea9 a03d
00000090: 8ee2 193e fc1f 7f3d 4d28 7f3d 108c 383e
000000a0: 5662 a23d bfc7 24bd c5a8 21be 67fe 673e
000000b0: 8203 e4be 7aeb 2bbe 04a1 6dbe efe1 d63c
000000c0: d440 67be de18 69bd ded5 eeba bdd9 733d
000000d0: 0608 e1bd a6fc 8b3d 63c4 4d3e 6645 44be
000000e0: 0214 7c3d 5bd9 d1bd 377b 72bc 2ded 873d
000000f0: 9694 26bc 5ad2 353e 58c9 173e e1d2 463c
00000100: ceb8 e23d 0356 bebe ce4e aabc 7e80 5c3d
00000110: dcae 53bd 144a 60be 8b00 323e b231 4d3e
00000120: cd50 793e 9328 843d 9bdc ec3c 007c 13bb
00000130: 72e5 0cbb fcb9 89be fd7b 9f3d 3ff6 35be
00000140: a9ab e13c c607 b6be b87a e03d 4982 a5bb
00000150: f86f a13e a305 72bb 62b5 ea3d 05bd dc3c
00000160: 29c2 8c3e c42a 043e fc0c 493e 310a fdbd
00000170: db8a a1be 5ab5 5abe 76ea f33d 70eb b7be
00000180: 6e36 0f3e 101a 28be 2fe6 fcbd e6c0 c6bc
00000190: cae3 fd3d ebb3 9e3e 63e4 1ebe 286b e63c
000001a0: 5f63 30be a33c 6c3e 86db 3f3d 1450 63bd
000001b0: ac8b af3d 0161 10bd 4a79 553e 4498 6cbe
000001c0: 35a6 19be 8511 ea3d e115 d2bd 6cf5 353d
000001d0: 4769 9d3e 44aa cfbd 4956 253e 13c8 413e
000001e0: a469 47be 2a44 d0bd a34d 81bd e6f3 25bd
000001f0: b5d3 f83d 0929 b93d efb1 81be a28d a33e
00000200: 6582 a4be b2be 123e 8168 6e3e 6793 aa3d
00000210: 1e54 34be ee36 18be 1f9c 183e 516e b3be
00000220: 7320 e5bb 912b e1be fd89 973e 6e91 293e
00000230: 1056 bb3c e33f a8bd a751 5e3c 2fca c1be
00000240: 1d5a 0abe b3db 9bbd 8097 8e3e 6612 afbd
00000250: bb53 3b3e 5760 943e 4e33 26bd 91f6 293d
00000260: 73e0 073e 8070 293e 3e11 1cbd ac0f 4d3e
00000270: 75b8 6dbd f8fa 143d a33e d3bd 117a 643d
00000280: 9570 4d3e 88a5 613d 0589 7dbe c553 2c3d
00000290: 1d3a 91be 1f71 63bd 676c 2bbe b860 293e
000002a0: 687a 7ebe d634 bbbc c737 8cbe 3a49 823d
000002b0: dd98 1dbd cc0e a13e 90d3 aabc a382 16bd
000002c0: ddac bc3c 0813 d6bc 9e52 cd3d a709 233e
000002d0: a845 98be 7d82 fdbd 86cf fe3d 9a88 20bb
000002e0: 44b1 d8bd c976 463e 750e 143e 6338 16bd
000002f0: eaa1 223e adc2 163e 74db a9bd c388 6ebe
00000300: 77c7 0dbc 8881 543d 7a1c 9abc 6844 f53d
00000310: f274 67bc 351f 8f3e 16fa 9fbc 6d5d a13c
00000320: f3c7 0bbc d6c4 c73d 700b 0f3e ce94 d73d
00000330: 62c4 383e 6386 83be f9f3 77be 85cc 713e
00000340: 888d cd3d 75dd 4e3d 18d0 55be ea57 8e3e
00000350: 6b6c 043f 7e24 263e 70ed 0e3e f391 263e
00000360: 30c6 44be 456c 5c3d e313 b03e c668 36bd
00000370: b182 923d b036 d93c 4063 793e 7af6 d33e
00000380: f63c 273e 93e4 113e 376c 873d a27a 963e
00000390: 30ba ea3d 72c0 c4bd fe01 37be 6bfa 72bd
000003a0: fc7c 30be e765 b33d e015 afbe 5b49 143e
000003b0: 5d68 01be d630 0bbe 7034 4b3d bb39 88be
000003c0: 429b ff3d 2ca4 7d3b f6c8 3b3e 23e8 ed3c
000003d0: da81 d63d 508c 28be d03e 34be 8f35 5bbd
000003e0: d403 1e3e 7c10 203e 92a4 3ebd 622f 21be
000003f0: 16bf 29ba e081 83be 9fed 2dbe 9e1f 36be
-0.10571437 -0.12370476 -0.2119925 -0.4791604 0.06344721 0.10443221 0.039517242 0.3058555
-0.17648724 -0.045683313 0.037003897 0.11817915 -0.40404958 0.14261736 0.02707102 -0.13178058
-0.19819018 -0.052151345 -0.060225572 -0.03928188 0.32085526 -0.24975593 -0.005976622 -0.1934231
0.022723505 0.37102926 0.26668823 0.33468077 0.18210134 -0.26006564 0.053641777 -0.08198149
-0.07731299 -0.01207387 0.086468644 0.078447565 0.1502783 0.062286362 0.062294293 0.1802218
0.07928912 -0.040229555 -0.15787037 0.2265564 -0.44533926 -0.16789046 -0.23205954 0.02623078
-0.22583324 -0.05690848 -0.0018221696 0.059533823 -0.109878585 0.06835298 0.20094447 -0.19167098
0.06154252 -0.102465354 -0.0147998845 0.066370346 -0.010167262 0.17756024 0.148229 0.012135238
0.11070405 -0.37174997 -0.02078953 0.053833477 -0.05168043 -0.21903259 0.1738302 0.20038489
0.2434723 0.064530514 0.028913787 -0.002250433 -0.0021499065 -0.26899707 0.07787321 -0.17769717
0.027547674 -0.35552806 0.10960907 -0.0050509316 0.31530738 -0.003692963 0.11460377 0.0269456
0.27491882 0.12906939 0.1963386 -0.123554595 -0.3155125 -0.21358243 0.11909954 -0.35921812
0.13985607 -0.16416192 -0.123485915 -0.024261903 0.12396963 0.30996642 -0.1551681 0.028127268
-0.17225407 0.23070006 0.046840213 -0.05549629 0.08571562 -0.03524876 0.2084705 -0.2310496
-0.15004809 0.11429123 -0.10258079 0.044423506 0.30744383 -0.101398975 0.16146196 0.18923979
-0.19473892 -0.10169251 -0.06313636 -0.040515803 0.12149755 0.0904103 -0.25331065 0.31943995
-0.32130733 0.14330557 0.23282053 0.08328896 -0.17610213 -0.14864704 0.14903305 -0.35045102
-0.0069923936 -0.4397855 0.29597464 0.16559383 0.022868186 -0.082153104 0.013569272 -0.37849566
-0.13510938 -0.07610264 0.2784996 -0.08548431 0.1829366 0.2897975 -0.04057627 0.04149491
0.13269214 0.16546822 -0.03810238 0.2002551 -0.05803724 0.036372155 -0.103146814 0.055780474
0.20062478 0.055089504 -0.247593 0.042072076 -0.2836465 -0.055527803 -0.16740571 0.16540802
-0.24851382 -0.022852343 -0.27386305 0.06361623 -0.03847586 0.31456602 -0.020852834 -0.03674568
0.023031646 -0.026132122 0.100255236 0.15921651 -0.29740644 -0.12378404 0.12441926 -0.0024495483
-0.10580686 0.1938125 0.1445864 -0.03667487 0.15882078 0.147227 -0.082938105 -0.23294358
-0.008653513 0.051881343 -0.018812407 0.11975938 -0.014127003 0.27953497 -0.01952843 0.01969787
-0.008531558 0.0975434 0.13969207 0.10526429 0.18043664 -0.25688466 -0.24214162 0.23613174
0.100367606 0.050504167 -0.20880163 0.27801448 0.5172793 0.16224858 0.13957763 0.16266613
-0.19216228 0.05381419 0.34390172 -0.044533513 0.07153834 0.026515335 0.24354267 0.41398984
0.16331849 0.1424735 0.06612437 0.29390436 0.11461294 -0.096070185 -0.17871854 -0.05932085
-0.17235178 0.08759671 -0.34196377 0.14481108 -0.12637468 -0.13592848 0.049610555 -0.26606545
0.12480785 0.003870259 0.1833838 0.029041355 0.10473986 -0.16459775 -0.17602086 -0.053517874
0.15431148 0.15631288 -0.046543665 -0.15740731 -0.00064753124 -0.25685024 -0.16985177 -0.17785498

bias f4 [64]
00000000: 2ff6 1e3c 52c2 df3c 0d73 54bc 91f9 a7bc
00000010: 5677 973b fc3c 1e3d 68d0 84bc 0898 373d
00000020: 3c49 b7bc c36f 01bc 1a5e 4c3d 270c c9bc
00000030: f9eb e5bc e8f1 8f3b 4baf 82bd 6e72 e13b
00000040: 724f 753d 5064 9139 8b52 c6bc e146 fb3c
00000050: 4ae3 0f3d 409b e63b f619 e33c 898e e1bc
00000060: 04a9 22bd 172a fbbb 3ac7 743c 8a3f b3bc
00000070: 94b8 06bc acf7 68bd de14 8a3c a240 8a3d
00000080: 3057 20bd 26cc 15bd 642f bebc dee5 0bbd
00000090: 384d be3b 66e7 5bbc 3cb9 4fbc 52c4 df3b
000000a0: 0242 63bc e75e 813c eaea 05bb ae00 78bc
000000b0: a5d3 7a3b 7973 583c dc51 00bc 3e52 463d
000000c0: 3743 88bc da16 a6bc aa16 cb3b 5047 80bb
000000d0: ff9f 483c a28b 793c 1487 30bd f79b 24bc
000000e0: c83a 2ebd 7ceb adba 8227 e6bc 0a61 dbbc
000000f0: 25c7 833c a62a b7bc 33ca 63bc fc42 82bc
0.009702249 0.027314339 -0.012966883 -0.020504745 0.0046223802 0.038632378 -0.016212657 0.044822723
-0.022373788 -0.007900181 0.04989443 -0.024541928 -0.028066622 0.004392851 -0.06381091 0.006880096
0.059890218 0.00027731294 -0.024209281 0.030673446 0.03512887 0.00703755 0.02772234 -0.027533786
-0.039711967 -0.0076649296 0.014940077 -0.021880884 -0.008222718 -0.056876823 0.016855653 0.06750609
-0.03914565 -0.036571644 -0.023215957 -0.034154765 0.005807545 -0.013421869 -0.012678441 0.006828823
-0.013870718 0.015792323 -0.002043421 -0.015136881 0.0038273123 0.013211125 -0.007832017 0.048418276
-0.016633613 -0.020274568 0.00619777 -0.003914751 0.012245177 0.015231045 -0.04309757 -0.010046951
-0.042536527 -0.0013269032 -0.02809501 -0.02677967 0.01608617 -0.022359204 -0.0139031885 -0.015901081

weight f4 [64, 100]
00000000: ab47 e9bb 4e95 153e 39ac ffbc 9f9e 4fbe
00000010: 418d 8abd 272f 7abe 4548 203e 3ed9 b7bb
00000020: 54a6 9b3d 4bbe 54be 568b 313c 5055 5f3e
00000030: 2138 67bc 6731 49bd 8d7a fabd 722c 9fbc
00000040: 1175 243e a39c 8fbd ed08 a6bd 6093 ca3d
00000050: 78a6 503e 3474 543d 2a03 9a3d 044b 8abd
00000060: df93 1dbe 2b7f 6abe 480b 6abe bc8e f83d
00000070: ca3a 033e a4cb 023e 33a6 5a3e 6677 c93d
00000080: 4523 7a3d 2398 08bd 324d 863c 9ac4 183e
00000090: 3dec 10bd d017 05be b177 d8bd d7a2 413e
000000a0: 9fb9 9a3e dfa4 18be 3caf 11bd 41b5 65be
000000b0: 6785 9cbd 991a ce3c 0c6d 433e d208 64bd
000000c0: 37f1 533d 2982 f83d 7d25 803c c8da 6cbe
000000d0: 593b 58bd 3e3a bebd fcaa 3fbd d55a 043d
000000e0: 5343 6ebe 59fd 063e 9ce6 963d 5509 5d3c
000000f0: e81d 173e 24fc 853c 776e 053d 0d2d afbc
00000100: 7db7 0cbe 8963 a7bd 8eec a6bc 83a7 fbbd
00000110: 183e b73d 14f0 df3d 9e72 afbd 6b30 593e
00000120: ed9f e1bd 1308 b33d 9119 47be b912 863d
00000130: e9cf 813b 8e24 acbe ef27 513e f1ea 23be
00000140: 9c7a a9be 9b13 4b3c e5a0 55be 4e17 7d3e
00000150: 09e0 443b 23b7 8bbe f3b5 8c3d e434 783e
00000160: 56be 12be 41a1 0e3d 9c89 323e 9090 fdbd
00000170: 6fa4 323e ad8e 5dbe dc18 ee3d 70ad 9a3b
00000180: ee4f e23d 160c 1a3e 7180 50bc ca58 c1bd
00000190: 8a77 9ebd 7757 2c3e 1a11 49be 1887 c4bc
000001a0: 287a 0d3d 81eb 05be eeb3 f13b f961 103e
000001b0: 7f98 4cbd 144f 973c 33df 57be b776 593e
000001c0: b051 0fbb 21cf 953d 371d 363d e84f a9bd
000001d0: 7433 1bbc 8b55 1f3c 28e6 4cbe b8e8 2c3e
000001e0: 8814 8ebd 6747 ebbb 0ae2 cb3d 2987 bd3d
000001f0: 2ee3 3cbe bb04 17be f066 b0bd dba3 d9bb
00000200: 095c e73d dfdb 31bc 9abe 3ebe 8abb 46bb
00000210: c3c2 193e 45ca 8b3b 5139 01bf a5b6 20be
00000220: cc12 a7be 7489 93bc 1377 963d f83c 8fbd
00000230: 56cd 10be e340 823e 721b 46be 183f 60bd
00000240: 5745 3bbe fe6b df3c 087f 74bb 058b 6ebe
00000250: 6f8f dfbd 4b24 123e 8c38 ad3b aa2d 283d
00000260: b2f6 163e f30e dd3c f97d 8a3d ff96 d2bd
00000270: a09f a33c cc37 48bd 6158 df3d a0e7 eabc
00000280: 3f37 743d 6b63 1d3e 147c ad3d 5b6f 143c
00000290: 90ef c7bd 59bd 2abe 57ec eebd 5c2a 8f3d
000002a0: 79e0 7c3d df45 8fbd 71b8 11be 327a 95bd
000002b0: bda1 cdbd bdd3 b33e d9f2 233d 78e7 4ebd
000002c0: 6883 a33d 8402 1b3e 6470 ed3d 02db 6f3d
000002d0: cc84 b83c 3969 7a3e 96e6 f93d b396 d53c
000002e0: 72e4 fd3d de4f 063f 9b81 a63d bdbe bd3c
000002f0: f5dc 3dbd 154d 81bd b7c7 eb3d 5530 323e
00000300: b14d 363e eb54 cbbc b8c1 fb3d 811e 58bc
00000310: b6d5 febd 3e66 383c 5abe 823e 054f 07bd
00000320: 5321 bb3d eacf 2dbe e6dc a53d a27d c6bd
00000330: 8227 193e 9b77 82be a90e 76be 6dc4 06be
00000340: 72ef 4dbe 84ac 103e a11c 4fbe a84f 0c3d
00000350: d76b 793d 2d7f 65be ea1b ff3d a6dc 94bd
00000360: 4edf e9bc e5a9 c43d 3445 8bbd c49d a3bd
00000370: 8656 dc3d b006 503e af05 983d 26b5 ff3d
00000380: b7b8 61be 0173 3a3d 43d6 bc3c 2907 87bd
00000390: e60b 91bd 0158 16be 5776 eb3b e83e 0dbe
000003a0: a071 8fbe 2a86 c3bc 0262 833c fba5 f0bb
000003b0: 486a 83bd f2b9 413d 118a 0fbe b274 3dbe
000003c0: b748 223e 15c6 0fbd cef5 27be f054 89be
000003d0: f05d 1d3e f099 50be 74fd bcbd 41c6 323c
000003e0: 78d5 83bc d819 f4bd 224d 8b3d 1ef3 d13d
000003f0: 7333 a73c d5dc af3c 4a4d 93bd cb87 0e3f
-0.007119139 0.14607736 -0.031210052 -0.20275353 -0.06765223 -0.2443205 0.15652569 -0.005610614
0.07600084 -0.20775716 0.010836443 0.21809888 -0.014112503 -0.04911938 -0.12230406 -0.019430373
0.16060282 -0.07012298 -0.08107171 0.09891391 0.20376003 0.051868632 0.07520135 -0.06752589
-0.1538844 -0.22900073 -0.22855866 0.121365994 0.12815395 0.12772995 0.21352462 0.098372266
0.061068792 -0.033348214 0.016394231 0.14918748 -0.035381544 -0.12997365 -0.10569704 0.18909775
0.30219743 -0.14906643 -0.035567507 -0.22432424 -0.07642632 0.025159167 0.19084567 -0.055672474
0.051743712 0.12134201 0.015642876 -0.23130333 -0.052790973 -0.092884526 -0.046793923 0.032313187
-0.2326787 0.13182582 0.07368204 0.013490994 0.14757502 0.016355582 0.03257605 -0.021383787
-0.1374187 -0.08173282 -0.02037647 -0.1228781 0.0894739 0.10934463 -0.08566783 0.21209876
-0.110168315 0.087417744 -0.19443347 0.0654654 0.0039615524 -0.3362164 0.2042539 -0.16007592
-0.33101356 0.012394811 -0.20862158 0.24715921 0.0030040762 -0.2728816 0.068706416 0.24238926
-0.1433042 0.034821752 0.17435306 -0.12381089 0.17445539 -0.21636458 0.11625835 0.0047203824
0.11050402 0.15043673 -0.012725935 -0.09440763 -0.07737644 0.1683024 -0.1963543 -0.023990199
0.034540325 -0.13078119 0.0073761856 0.14099874 -0.04995012 0.018470325 -0.21081237 0.21236692
-0.0021868758 0.07314897 0.044461455 -0.08267194 -0.009472717 0.009724985 -0.20009673 0.1688565
-0.0693751 -0.0071801427 0.09955223 0.092542954 -0.18446037 -0.14747898 -0.08613384 -0.0066418475
0.11296851 -0.010855644 -0.18627396 -0.0030324184 0.15015702 0.0042660558 -0.5047808 -0.15694673
-0.32631528 -0.018009879 0.0734693 -0.06994051 -0.1414083 0.2544013 -0.19346407 -0.05474767
-0.1828817 0.027273174 -0.0037307162 -0.23295219 -0.1091603 0.14271657 0.005286282 0.041059174
0.14742544 0.026984667 0.067623086 -0.102827065 0.019973576 -0.048881337 0.10905529 -0.0286749
0.059623 0.15369956 0.08470932 0.009059752 -0.0976249 -0.16673793 -0.11666172 0.06990501
0.06173751 -0.06995749 -0.14230515 -0.072986975 -0.10040615 0.3512248 0.04002652 -0.050513715
0.07984048 0.15137678 0.115937024 0.05855847 0.02252426 0.24454202 0.12202184 0.026072836
0.12397088 0.5246562 0.08130189 0.02316224 -0.0463533 -0.0631353 0.11512702 0.1740125
0.17803074 -0.024820765 0.12292808 -0.013190866 -0.12443106 0.011254845 0.25535852 -0.033034343
0.091372155 -0.16973844 0.08098774 -0.09691931 0.14956477 -0.25481877 -0.2402903 -0.13160868
-0.20110872 0.1412831 -0.20225765 0.034255654 0.06089386 -0.22411795 0.12456496 -0.07268648
-0.028548863 0.09602717 -0.06800309 -0.07989076 0.107586905 0.20315051 0.07422959 0.12485723
-0.2204312 0.045519833 0.023051387 -0.065931626 -0.070823476 -0.14682008 0.007185738 -0.13793528
-0.28016376 -0.023867685 0.016037945 -0.007344005 -0.06416756 0.047296472 -0.14017512 -0.18501547
0.15848051 -0.035101015 -0.16402361 -0.26822615 0.15367866 -0.20371222 -0.0922803 0.010911525
-0.016093 -0.11918992 0.06801821 0.10251449 0.020410275 0.021467606 -0.07192476 0.55675954

bias f4 [64]
00000000: a818 113b 6656 d93b 2299 e8bb 7ab3 1c3b
00000010: a066 bfbb 612c 0bbc 8156 0d3c 6ce1 0bbc
00000020: fa62 c73b 126f f4bb 2c8c 25bc 915f 06bc
00000030: 4a25 cbbb f87d 853b e93c f23a b542 95bb
00000040: daf3 4ebb 9666 7e3b 59d3 c6bb 4506 543b
00000050: c013 2cbb f3f5 a13b 2986 94bb 7465 0f3c
00000060: aa76 a43a 645c 993b 0157 963a a28e 0e3c
00000070: 7a33 bbbb c383 b5b9 c264 a7b8 b69e 01bc
00000080: 7690 8e3b 7e16 c13a cb63 12bc a087 013c
00000090: c382 09bc 89e7 ed3b 9f18 3e3b dc0e 203c
000000a0: 05d5 303b c93e e5bb faa9 e1bb 9626 0fbc
000000b0: 4d4f 3cbb 9c92 5e3b c4d9 a5bb 51fa 84bb
000000c0: f935 0dbc 6bdf bebb 976a 0ebc ff06 88bb
000000d0: 1676 183b d9df bcb9 5590 e93b 84f0 d4bb
000000e0: 75f6 09bc 5701 cabb 3551 163b 05e7 a9bb
000000f0: e6f7 95bb 9706 c83a 52a0 f0bb 980e 093c
0.002213994 0.006632614 -0.007098333 0.0023910687 -0.0058410913 -0.0084944675 0.008626581 -0.0085376315
0.006084797 -0.0074595297 -0.01010422 -0.008201496 -0.0061995136 0.0040738545 0.0018481287 -0.0045550712
-0.0031578452 0.003881847 -0.006067675 0.003235237 -0.002625689 0.0049426495 -0.0045325947 0.008752216
0.0012547572 0.0046802033 0.0011470021 0.0087009985 -0.0057129236 -0.0003462118 -7.981948e-05 -0.007911375
0.004350717 0.0014731435 -0.008934925 0.007905871 -0.008392992 0.007260267 0.0029006375 0.009769168
0.0026982438 -0.00699601 -0.006886718 -0.008737227 -0.002873379 0.0033961898 -0.00506136 -0.0040581604
-0.008618825 -0.0058249733 -0.008692405 -0.0041512246 0.0023263744 -0.00036024934 0.0071278014 -0.0064983983
-0.008420576 -0.0061647105 0.0022936587 -0.0051850104 -0.004576671 0.0015260753 -0.0073433304 0.008365296

weight f4 [64, 64]
00000000: 2ef9 473e 3ba9 a43e 0621 1d3c 81cf f4bc
00000010: add6 203e 508e d9bd c537 32be d87c 3f3d
00000020: 3516 c3bd 7344 1f3e a305 f0bc caeb 1abe
00000030: 43a4 023e 97f7 8abc 3359 98be 5822 013e
00000040: f1e0 b53c 844a 0bbe f62f a3be a7db c8be
00000050: 8797 40bd 03fc 3a3e 87c5 143e 7cf4 0c3e
00000060: a971 2e3d 4288 163e 361b 1038 4c2d ba3d
00000070: 6cea a4bd 64e3 df3c 5856 413c 774d aa3c
00000080: ace1 2c3e 2874 32be b70e 213e a990 62bb
00000090: 271e b5be 8287 1f3d 5653 2e3d dcd2 c3bd
000000a0: 9d31 4abe d6ca ff3e 0dcd 6dbe 00bb 0bbe
000000b0: 521f 653e 103f ff3d d229 223d 8294 27be
000000c0: a435 f53d 9543 043e 0dfd 03bd 8d0f 55bd
000000d0: 6ced 6dbd 44c2 533e 5632 823e 4202 8abd
000000e0: c518 843a e510 9ebd 7fb6 bebd b850 133e
000000f0: b2e0 b73e eab5 a6be 1068 a4be 7fb5 0f3e
00000100: 07ab 183e a03f cd3d 3234 983d a82e 3b3e
00000110: 7b7c 793e 3a97 803d ec7c 3e3c de6a 9ebd
00000120: c259 31bd 8b11 61be 0831 833d 5dce b9bc
00000130: 0674 373e 4389 adbd 0016 8ebe ff24 be3d
00000140: bb8a 503e 5ca1 d73d 6e71 7dbe 3293 753e
00000150: 5b6e b93b 8f48 4dbe 72ec 723d c5ee ea3e
00000160: 1a7b 953d 90e5 323b 6e2a e5bd bc38 f5bd
00000170: 7f95 083e a51a 74be b657 3bbe 75e9 8c3e
00000180: ee2d 9f3d 8b54 8dbd 7c3d f73d 2cc0 8d3d
00000190: 6e68 803e 41f0 553e 600b b93e c6fe 30bc
000001a0: e58a 8b3d a573 d43d 6b21 703d 9e94 44be
000001b0: 1fee 443c 888f dd3d b711 16be 3a67 943e
000001c0: 90b0 873c d5e8 d2bd 27f0 cf3a 75ed 773e
000001d0: f344 44bd ca80 87be b36f fbbd 1d5d a83e
000001e0: 0ccc 16bc abc6 aabe 4d2f a53e 60bc b9bd
000001f0: 9c30 32be 333e 9c3d 4c08 8cbe 9185 47bd
00000200: 49fd 883e a351 c1bd a5e4 54bd e153 26bd
00000210: f589 5a3e e091 843b 3d67 14bd 755a c5bd
00000220: 0389 89bd 7cd2 7c3e 3b75 cbbd 0aa4 b3be
00000230: d6ec c8bd f22d 2c3e a999 173e f53f e53e
00000240: c53c 6cbe c7d3 d8be f46b 78be cc78 d03e
00000250: b659 5f3e 8a3a 22bd b255 dfbd d107 bebd
00000260: ee27 9bbe 8eb1 06be af3e 71be 9966 e5bd
00000270: 8c88 93bd 29d9 08be 955b b53d 1d90 883d
00000280: d361 863c b23b 073e 81cd d83d 7f43 303b
00000290: 57c1 913d 6eea 3e3e 00be 2c3e 44bb 633d
000002a0: 3058 c6be 1926 eabd 0be5 54be 8d92 64bd
000002b0: a751 98bc f71b 863c 6b98 9abd 3a80 4aba
000002c0: 8b0a 3f3d ba6f cd3d 35b0 273c 6d72 f43d
000002d0: 1ecf 6d3e b781 303e f95a 7b3d bdfc 80be
000002e0: eac7 2c3e ce3b b43d 0f56 0b3e 15e1 c1bd
000002f0: 029a 13bc 90ca ca3c f417 803e b243 61be
00000300: 73f6 acbd 7923 91be 9210 09be 3ad9 91be
00000310: 226b 853d b23f b1bd 10c7 853d 1bac 4ebe
00000320: ea86 233d fd69 563d c792 af3e 4842 41be
00000330: a773 aa3e f989 8ebd c6d8 b0be 59d2 713e
00000340: adf1 f7bd 9adb d2bc ec01 4c3e 18ae 0abe
00000350: dba0 bb3e 719f 6e3e 15fd d1bd 38bb 3e3e
00000360: ff32 313e f070 303e cc78 723a ca6d 96bc
00000370: 3dd1 60be 86eb 193e 5cf3 ecbd e3f7 873d
00000380: 2e24 96bd dc59 453e 0dae a6be efc2 d23e
00000390: 6b7a d33c af4f 2c3e a2c3 d63c dd9c 75be
000003a0: 3320 fc3c 9058 43be f52d 263e 80cf 9c3d
000003b0: 8726 ad3d 7514 c33d d8c0 cfbd c817 bdbd
000003c0: 3b31 6e3e 17f5 fabd a947 9d3d f32d 16be
000003d0: 7de1 d23d 0c4e 863d 25c6 a3be 8da2 01be
000003e0: 73ee 883d fe92 40be 51d8 9abd 9133 ab3c
000003f0: 504a 1c3e cb25 e03d 6e7b 173d 4c00 183e
0.19528648 0.32160363 0.009590393 -0.029884102 0.15706892 -0.10622847 -0.17404087 0.04674992
-0.0952572 0.15553455 -0.029299563 -0.15129009 0.12757973 -0.016963763 -0.29755554 0.12610757
0.022201987 -0.13602644 -0.3187253 -0.3923008 -0.047019508 0.18260197 0.14528476 0.13765138
0.042588864 0.14700416 3.4357618e-05 0.09090671 -0.08052525 0.027330108 0.011800371 0.020788891
0.16882962 -0.17427123 0.1572827 -0.0034571087 -0.35374567 0.03894759 0.042559944 -0.095617026
-0.19745488 0.4995944 -0.23222752 -0.13645554 0.22375229 0.124632 0.039590664 -0.16365245
0.11973122 0.12916405 -0.03222375 -0.052016784 -0.05808775 0.20679575 0.25429028 -0.06738712
0.0010078183 -0.07718066 -0.09312152 0.1438626 0.35913616 -0.32560664 -0.32110643 0.14034079
0.14908992 0.10021901 0.074318305 0.18279517 0.24363892 0.06278844 0.011626463 -0.07735227
-0.04329849 -0.21979348 0.06405836 -0.02268141 0.17915353 -0.08473446 -0.2775116 0.092844
0.20365421 0.10528824 -0.24750301 0.23981932 0.0056589074 -0.2004721 0.059307523 0.45885292
0.072988704 0.0027297474 -0.111897334 -0.11973712 0.13338278 -0.23838289 -0.18295178 0.27521864
0.07772432 -0.06900891 0.12072274 0.069214195 0.25079674 0.20892431 0.3614149 -0.01080293
0.068136014 0.1037362 0.05862562 -0.19197318 0.012019663 0.10818392 -0.14655195 0.28985006
0.016563684 -0.102983154 0.0015864418 0.24211676 -0.047917318 -0.26465446 -0.12277164 0.3288354
-0.009203922 -0.33354697 0.3226265 -0.09069133 -0.17401356 0.07629051 -0.2735008 -0.048711363
0.2675574 -0.09439399 -0.051975865 -0.040607337 0.21341689 0.00404571 -0.03623127 -0.09636394
-0.06715586 0.24689668 -0.09934469 -0.3508609 -0.09810798 0.16814402 0.1480471 0.44775358
-0.23070057 -0.42349073 -0.24259931 0.4071716 0.21811566 -0.03960661 -0.10905017 -0.092788346
-0.303039 -0.13153669 -0.23559068 -0.112012096 -0.072037786 -0.1336409 0.088553585 0.066681124
0.016404068 0.13206366 0.10586072 0.00268957 0.07116955 0.18644115 0.16869354 0.055598512
-0.38739157 -0.11433048 -0.20790498 -0.055803824 -0.018593622 0.016370757 -0.07548603 -0.0007724796
0.046640914 0.10031076 0.010234882 0.119358875 0.2322354 0.17236982 0.061366055 -0.25192824
0.16873136 0.08800469 0.13607047 -0.09466759 -0.009008886 0.024754792 0.25018275 -0.2199848
-0.08445444 -0.28347376 -0.13385227 -0.28486043 0.065145746 -0.08654727 0.06532109 -0.2018284
0.039923586 0.052347172 0.3429167 -0.1887294 0.3329136 -0.0695991 -0.34540385 0.23615398
-0.12106643 -0.02573948 0.19922608 -0.13542974 0.3664616 0.2330301 -0.1025335 0.18626106
0.1730461 0.17230582 0.00092495675 -0.018362898 -0.21954818 0.15031251 -0.115698546 0.066390775
-0.073311195 0.1927256 -0.32554665 0.41164348 0.02581521 0.16827272 0.026216332 -0.2398562
0.030777073 -0.19076753 0.16228469 0.07656765 0.08454614 0.09525386 -0.10144204 -0.092330515
0.23260967 -0.122537784 0.07679684 -0.14665966 0.10296915 0.06557855 -0.3198711 -0.12659664
0.066861056 -0.18806073 -0.0756079 0.020898612 0.15262723 0.109447084 0.036982946 0.14843863

bias f4 [64]
00000000: 128f 233a fd0c 1cbc 3a65 d3bb 54e0 17bc
00000010: a8ec 0f3c 488d 0a3a ba02 18bc 94ee 82bb
00000020: dc19 1d3c 8880 17bc 0780 003c 6058 04bc
00000030: b084 13bc 6711 1dbc 17b5 073c e654 08bc
00000040: a37e fc3b 4849 03bc a955 1c3c c0f3 993b
00000050: 6286 2abc 0501 f83b 82b4 303c eb3f c63b
00000060: 74b6 fcbb 6225 e9bb 8a4d 323c cce4 203c
00000070: f9e1 1f3c a1f1 24bc ca09 253c 3c6f 08bc
00000080: e041 04bc f28e 1ebc 7b04 253c e586 c7bb
00000090: b1d5 ddbb e8e2 17bc a29a 15bc 3b72 eebb
000000a0: 909f dfbb 94d4 76b9 561d 56ba 57fd c2ba
000000b0: 905a 22bc 6572 373c 8c87 babb 0bfe c6bb
000000c0: d2a3 083c ac50 14ba 0660 a33b eff4 17bc
000000d0: 8a8d 21bc 1744 72bb fdf0 26bc 6cb4 1abc
000000e0: 0c33 17bc 10cf 263c d70b 18bc 15fe 153c
000000f0: 03f3 d1bb f081 253c 4ba1 0f3c 6164 133c
0.00062392757 -0.009524581 -0.006451276 -0.009269793 0.008784451 0.0005285335 -0.009277994 -0.003995726
0.009588685 -0.009246953 0.007843024 -0.008077711 -0.009003803 -0.009586669 0.008282921 -0.008321023
0.007705526 -0.008013077 0.009541907 0.0046982467 -0.010408016 0.007568481 0.010785224 0.0060501
-0.00771218 -0.007115052 0.010882745 0.009820174 0.009758466 -0.010067374 0.010073135 -0.008327302
-0.008072346 -0.0096776355 0.010071869 -0.0060890787 -0.0067698588 -0.009270407 -0.009131106 -0.007276801
-0.0068244413 -0.0002353958 -0.00081678235 -0.0014876527 -0.009909287 0.011196707 -0.005692428 -0.0060727648
0.008339839 -0.0005657773 0.004985812 -0.009274705 -0.009860406 -0.0036966854 -0.010189292 -0.00944243
-0.009228479 0.0101812035 -0.009280167 0.009154816 -0.006407143 0.01010178 0.008766483 0.0089961

weight f4 [64, 64]
00000000: 035d 25be e31f 61bd 87d4 1e3d 740d 5dbc
00000010: f9c5 b1be c572 48bd 4268 fdbd a4ef 85be
00000020: 04be 5abe 5ef8 2c3e a7b7 febd a80a 3fbd
00000030: e2a9 5dbe 76e5 c8bd d701 34be a0df abbd
00000040: 2ca3 273e eacf c5bd 6e39 a1bd 3c52 163e
00000050: d52b f23d 4f35 913d b447 c3be 5b18 1fbe
00000060: 1569 e03d a690 e1bd cbb4 86be 9c29 a93b
00000070: 08e3 ac3e 8935 94be 4d2b 303e a501 593d
00000080: c1d1 d63d 4c35 5fbe 4d7b a9be 9501 2dbd
00000090: 9a54 78bd f7d1 5bbd 9179 3ebe 0a1e 5bbe
000000a0: 1999 38be c06f b83e 735c 49be 82ee 8a3d
000000b0: 6e2d 0b3d 5b3a 24be e889 4fbd d672 80be
000000c0: e477 1f3e cdb0 ea3b b7e2 66be f569 813e
000000d0: d094 50bd 96f8 193e 09e9 17bd 8a1a acbe
000000e0: e75a 26be 7e0d 603c a062 563e 85f3 cfbd
000000f0: f13e 5e3e 8250 44bd a9f6 1cbe 0d83 0ebe
00000100: f9f0 893d 8e68 da3d 7336 33be f24e 71bc
00000110: 4950 d43c 098a b23d 6786 56bd d612 3dbd
00000120: 1301 55bd cb90 973e 4b33 46be d0e3 00bd
00000130: aca2 513e 60c0 17be fb78 b33e 6cf1 063e
00000140: 0fee 03be 575b 2f3e 4242 0d3e 77fa 92bd
00000150: 5544 803d 78ce 7d3e 985c 333e 6ad1 abbe
00000160: 2bb8 3d3e d6fd 97bd 6480 cebd cbdd 593e
00000170: e51b 2b3e 2b6f 923e 3404 003e d463 1d3a
00000180: 29e0 8f3c 2028 083a 2c94 3f3e 3af3 ccbe
00000190: 28e6 78bd 35de 423e 2cb1 24bb d210 b03d
000001a0: dd02 8f3d 2e45 05bd 89e2 fcbd c65d 0bbe
000001b0: a0fe 1bbb c6a6 6fbd 49c8 44bd 28c8 45be
000001c0: 7f35 eb3d 4502 c53c e6d6 6abe 0f9e 953d
000001d0: 1237 a8bd fe6b 69bd fcf1 4cbe 45cc 773e
000001e0: e888 e3be d6bb d33c 30d0 93be 51ff 0fbe
000001f0: e0af a83d 2057 e7be 9e04 33bd fa66 923e
00000200: 0cc7 9bbe d478 b13d 7413 3f3e d0af 9e3c
00000210: 56fc 9ebd 8f67 d8bd 6877 8fbe 1c2a 633e
00000220: 4ce0 593b 7552 c9bd 63ae 0c3e 9fda dbbe
00000230: 0f13 903e 0172 babd 6ef1 a0bd 617a a23e
00000240: 7bee 99bd 49e8 f7bd 8e8d a73e 54a1 7bbe
00000250: 9262 07be 5bbd e7bd 62f7 8dbc f380 27bd
00000260: 5d3a 473e b71f 6dbe 0e7c 6ebd 66df ef3d
00000270: 32ec 5cbd e825 76be cea7 693d 3f6f c3bc
00000280: 2a52 dcbe 37e1 f63d a931 a8bd 3629 3bbb
00000290: 61ad 53bd 966e 553e dedc 6c3e 9dcf 0cbe
000002a0: 450c b93d f59c 3e3d 92b9 19bc ff56 3cbe
000002b0: 1a47 f0bd b557 1d3e afb5 0cbe 4754 983d
000002c0: ddaf cabd 5ca3 64be 281c 4bbe 18bf d2bd
000002d0: 0af6 7f3e 3eba f1bd 9cef 73be 3d16 2bbe
000002e0: 3499 17bd 0a73 79be 8e20 a53d efab 413e
000002f0: 320b 9a3e 906f 033e 04b1 643d a457 f73c
00000300: f4cd d0bc 150c 4bbc bfee dfbd 61c0 0f3c
00000310: 7f71 023f f857 8a3e b324 77be 4859 d73d
00000320: 3cb6 debd f0a3 2bbd 0813 133e b530 ebbd
00000330: 3c88 65bc 45d3 f3bd 1031 a8be 51ad 1bbd
00000340: d4cb c4bb aee7 823d 7430 8fbd e979 e93c
00000350: 63f7 893e 650d a2be e68f 86be f1c3 cc3d
00000360: 9991 96be 1775 f43d 8759 56be d239 d03d
00000370: 4ad2 b03d b6a7 5d3d a3d2 69be 16bb 313e
00000380: 9bb2 6c3d 86d9 453e 5831 45be 5c58 5cbd
00000390: 1d65 133e 2bfc 773c 3daf 5cbd 1dc5 0cbe
000003a0: d8ad a7bc 3de9 2bbd 1eaf 453e 2f36 363e
000003b0: 0128 3c3c f874 74bd ed51 37bd 6a31 bd3e
000003c0: 4022 4f3e 4e48 6ebe f1cc 693e 6017 163d
000003d0: 948f 6bbd 77d8 b33d c87d 51be 2fdf d2bc
000003e0: ea52 d0be cd2e 513c db22 8bbe 8818 9bbd
000003f0: e89c 443e 1c19 6cbd e5bb 2abe 0fe6 693e
-0.16148762 -0.05496205 0.0387769 -0.013491977 -0.34721354 -0.048937578 -0.12373401 -0.26159394
-0.21361548 0.1689162 -0.12437373 -0.046641022 -0.21646836 -0.09809391 -0.17578827 -0.083922625
0.16370839 -0.09658797 -0.07872282 0.14679807 0.118247665 0.07090246 -0.38140643 -0.15536635
0.10957543 -0.110139176 -0.2630981 0.005162431 0.3376696 -0.28947094 0.17204018 0.052980084
0.10489226 -0.21797675 -0.33101884 -0.042237837 -0.060627557 -0.053667035 -0.18601061 -0.21398178
-0.18027152 0.36022758 -0.19664173 0.06783773 0.033978872 -0.16037886 -0.050668627 -0.25087613
0.15573078 0.0071621896 -0.22547422 0.2527615 -0.05092317 0.15036234 -0.037087474 -0.33613998
-0.16245614 0.013675092 0.2093606 -0.101538695 0.21703698 -0.04792834 -0.15328468 -0.1391718
0.06735415 0.106644735 -0.1750124 -0.014728295 0.02591719 0.08717734 -0.05237427 -0.04616054
-0.052002978 0.29602656 -0.19355504 -0.03146726 0.2047221 -0.14819479 0.35053238 0.13178033
-0.12883781 0.17124687 0.13794807 -0.07176679 0.06263033 0.24785793 0.1751579 -0.33558208
0.18527286 -0.07421462 -0.10083082 0.21276014 0.1670986 0.2860044 0.12501603 0.000600395
0.017562943 0.00051939674 0.18708867 -0.40029317 -0.06076637 0.19030078 -0.0025130017 0.08596958
0.06982968 -0.032536678 -0.12347896 -0.1360999 -0.0023802891 -0.058508657 -0.04804257 -0.19314635
0.11484813 0.024048934 -0.2293354 0.07305538 -0.08213629 -0.056987755 -0.20014185 0.24199016
-0.4444039 0.025846403 -0.28869772 -0.14062239 0.082366705 -0.4518366 -0.043705575 0.2859419
-0.30425298 0.08665624 0.18659765 0.019370943 -0.07762973 -0.10566627 -0.28020787 0.22184032
0.0033245264 -0.098301806 0.13738398 -0.42940232 0.2813954 -0.09103776 -0.07858549 0.31733993
-0.0751619 -0.12104852 0.32725185 -0.2457326 -0.13221195 -0.113154136 -0.017329875 -0.04089446
0.19455858 -0.2315663 -0.058223777 0.11712532 -0.05393619 -0.24037898 0.057044797 -0.023856757
-0.43031436 0.12054675 -0.08212597 -0.00285585 -0.05167902 0.20842966 0.23131129 -0.13751073
0.09035543 0.046536405 -0.009382622 -0.18392561 -0.117323115 0.15365489 -0.13741182 0.0743795
-0.098968245 -0.22327942 -0.1983496 -0.102903545 0.249962 -0.11803101 -0.23821872 -0.16707702
-0.03701134 -0.2436029 0.0806285 0.18913244 0.30086666 0.12835526 0.055832878 0.030193157
-0.025488831 -0.012393017 -0.10934209 0.008773894 0.5095443 0.2702024 -0.24135093 0.10515076
-0.10874602 -0.04190439 0.14362729 -0.114838995 -0.014009532 -0.11905531 -0.32849932 -0.038007084
-0.0060057435 0.06391846 -0.069916636 0.028500514 0.26946554 -0.31650844 -0.2628166 0.0999831
-0.29407957 0.119363956 -0.2093259 0.10167278 0.086338595 0.05411502 -0.22834258 0.17356524
0.05778752 0.1932126 -0.19257104 -0.053795204 0.1439404 0.015135805 -0.053878058 -0.13747068
-0.020468637 -0.04197048 0.19305083 0.17794107 0.011484147 -0.059681863 -0.044755865 0.36951762
0.20227909 -0.2326977 0.22832085 0.036643386 -0.057509974 0.08781522 -0.20458138 -0.025741188
-0.40688258 0.012767506 -0.2717503 -0.07573038 0.1920048 -0.057641134 -0.16673239 0.22841667

bias f4 [64]
00000000: 00f2 2ebc c41d 2c3c bbd3 233c 9cd8 2cbc
00000010: 1b3f 2a3c 298b 2abc 9932 c73b 1844 20bc
00000020: 1bf0 313c 86c9 24bc e35f 29bc 9b07 2fbc
00000030: ba9c 30bc 50f0 253c 7db3 333c b68a 30bc
00000040: 3e0e 12bc 6848 293c a0a1 2fbc 6b0c 28bc
00000050: 4504 253c d4e4 28bc 6dc4 213c 1e5b 263c
00000060: e704 2ebc 9132 283c 4c43 153c 283e 1e3c
00000070: 1073 383c 8554 1a3c ce4b 1b3c 8c9a 1cbc
00000080: 12e9 2a3c bf33 38bc 8610 293c f638 263c
00000090: 519d 2dbc 7423 19bc 4204 25bc 7765 1e3c
000000a0: a78b 2b3c bc4d 2fbc 3586 0d3c d886 26bc
000000b0: b0b3 1b3c c698 303c 405b 373c 44d3 243c
000000c0: 295b 223c 51ee 243c ee43 2d3c e7f6 313c
000000d0: a4b3 3b3c 70a9 203c 4006 24bc 84e3 243c
000000e0: 6440 273c a7ec 243c 157f 0bbc 3923 16bc
000000f0: 2806 33bc e703 22bc a2ee 3d3c 4c04 1a3c
-0.0106778145 0.010505144 0.009999211 -0.010549691 0.010391022 -0.010409155 0.0060790298 -0.00978186
0.010860468 -0.010057813 -0.010337803 -0.010682966 -0.010779554 0.010128096 0.010968086 -0.010775259
-0.008914528 0.010332204 -0.010719687 -0.010256867 0.010071819 -0.010308463 0.009873492 0.01015356
-0.010621286 0.010265962 0.009110283 0.009658374 0.011257902 0.009419565 0.009478522 -0.009558331
0.010431545 -0.011242806 0.010318881 0.0101454165 -0.010596589 -0.009346832 -0.010071816 0.009667746
0.010470307 -0.010699686 0.0086379545 -0.010163985 0.00950329 0.0107786115 0.011191189 0.010060135
0.00990943 0.010066585 0.010575278 0.010862089 0.011456404 0.009806022 -0.010011256 0.01006401
0.010208223 0.010066188 -0.008514185 -0.009163671 -0.010926761 -0.009888626 0.011592539 0.0094004385

weight f4 [1, 64]
00000000: bb60 3c3c 8b3f d8bc 2064 f3bd 05af 8e3d
00000010: 375f 67bd 8fcc 443d 4c67 dcb9 2168 f53d
00000020: e27c 86be 2185 643e c25a 0a3c 8ab7 f93c
00000030: 044a 173e a9b7 12be 7b7e c3be 46d6 673e
00000040: f3b6 bc3e ef1b 2dbd 9cd0 703e 8879 f93c
00000050: 9bb8 d9bd 82b3 f73d d13d 5bbd 2dd7 02be
00000060: 188e dd3d c540 2dbe a1c0 29be 3663 1cbe
00000070: bd7d 28be 39ff debd d692 1fbe f624 283e
00000080: ab46 19be 6c6b 083e 9dd6 1fbe d932 06bd
00000090: 07e7 2b3e d876 973c 3e95 bb3e cd01 d6be
000000a0: 63ea bebe dc8b 343e 2bae 86bd ea1c 473e
000000b0: b573 50bd bd06 e3bc 74c0 97bc abb3 a6bb
000000c0: 93ab 5dbc 6182 45be 3377 e0bd 989d 88bd
000000d0: cdce 9abc 1d82 5abe ca20 183d 2bc0 53bd
000000e0: edd6 bcbd b368 c9bb 790f 233e aa35 ae3e
000000f0: 92cc 8e3e 4f42 9e3e 5079 05be 7f7c 6abd
0.011497672 -0.026397487 -0.11884332 0.06966976 -0.05648729 0.048046645 -0.00042038632 0.11982752
-0.26267153 0.2231641 0.00844449 0.030483026 0.14774328 -0.14327873 -0.38182434 0.22640333
0.3685833 -0.042262968 0.23517078 0.030453458 -0.10630914 0.12094785 -0.05352575 -0.12777396
0.10818118 -0.16919239 -0.16577388 -0.15272221 -0.16454215 -0.108885236 -0.15583357 0.1642035
-0.14968364 0.13322228 -0.15609212 -0.032763336 0.16787349 0.018489286 0.366373 -0.4179825
-0.37288198 0.17631477 -0.06576189 0.19444624 -0.050891597 -0.027713174 -0.018524386 -0.005087336
-0.013529676 -0.19288017 -0.109602354 -0.066706836 -0.018897438 -0.21338697 0.037140645 -0.051696938
-0.09220681 -0.0061465143 0.15923871 0.34025317 0.2789045 0.30909964 -0.13034558 -0.057247635
