bk_results_109/simple/ppo/seed_1_step_50_ms_alpha_rank_minp2_maxp_2_mina_5_maxa_5_tn_3000_act_10.pt (torch, 133198 bytes, 16 tensors)

weight f4 [64, 100]
0.113770254 0.06949403 0.090851195 -0.009981772 -0.051183723 -0.10698537 0.010207726 -0.033142205
-0.03645781 -0.13018706 0.07940866 0.028442178 -0.14700395 -0.10621793 0.06552699 0.059964377
-0.008113203 -0.16012146 -0.039273065 0.045078017 -0.16374291 -0.027188536 -0.2982912 0.16094385
-0.08550154 -0.05809421 0.07525664 -0.1820353 0.047344025 0.11629231 0.14220226 0.13460158
-0.03382369 0.25726494 -0.17586565 -0.08658414 0.04046929 0.12636021 0.08306128 0.16914742
0.11779682 -0.107708596 0.26989576 0.03921897 0.013047874 -0.04889107 -0.10647409 0.04925053
-0.10105717 0.20229024 -0.21370423 -0.11075059 -0.2458511 -0.23438044 -0.12482519 -0.03944078
-0.13967802 0.12162373 -0.20137292 0.084435105 -0.012614924 -0.076656654 0.044702303 0.029342445
0.03179578 -0.15045345 0.040024202 0.091960475 -0.1627165 0.15830524 -0.010141058 -0.09392949
-0.17686568 0.08999773 0.19168282 -0.39201015 -0.2883772 0.04177292 -0.28302822 0.24615331
-0.066421226 0.24371266 0.18444328 -0.10838261 -0.038854633 -0.08509141 0.1669723 -0.32821608
-0.12501597 -0.027708694 -0.22053932 0.19106576 0.12231077 0.14126016 -0.09160608 -0.08453238
0.30916387 0.18632664 -0.02641526 -0.017507946 -0.084983155 -0.20108935 -0.055815715 -0.10918785
-0.23044996 0.177427 -0.2376071 -0.23074816 0.03157537 0.053097997 -0.13251175 0.040458973
0.06778165 0.24592322 -0.19279663 -0.14581056 0.18392892 0.1254908 -0.031838186 0.07382244
-0.008676195 0.14271618 -0.065112785 0.18255278 -0.114501745 -0.24338159 0.16229244 -0.020781472
0.26370373 -0.054769494 0.026531497 -0.12363516 0.0924169 0.3606577 -0.40071487 -0.08936364
0.08275986 -0.0409934 -0.21604936 -0.08341448 0.00741307 -0.00939273 -0.1432791 0.10370287
0.03327576 -0.08736815 0.22305709 0.15637268 0.2639807 -0.09078659 -0.03018976 -0.07843462
-0.015976956 -0.22787063 0.0876826 0.16751295 -0.1666847 0.16089168 -0.07855702 -0.0052654147
-0.084392086 0.036390126 -0.11942234 0.0926364 -0.24277245 0.030165581 0.010204275 -0.017773373
-0.18384872 0.10545604 0.12741838 -0.09427385 0.12764822 -0.16604385 -0.0288102 -0.10865777
0.15987471 0.09538585 0.083925225 0.11347221 0.11032174 -0.16176604 -0.16170326 0.022617152
-0.24338266 -0.038225867 -0.096425034 -0.10416323 -0.04054163 0.06583128 0.24225548 0.013564554
-0.2156292 0.16677716 0.17964481 -0.107336745 -0.090045646 -0.13209943 -0.038978126 0.04236237
-0.18233466 0.10919067 -0.029192012 -0.092503786 0.2172454 -0.10285255 0.059393886 -0.038610365
-0.04076548 0.3186797 0.13235244 0.3183023 0.08738667 -0.11874278 0.16881378 0.20554297
0.014328265 0.036415398 0.068394065 -0.13887717 -0.018386763 -0.09923852 -0.012787141 -0.04336484
-0.075796 0.042647995 -0.24305783 -0.026698006 0.040936556 -0.09018557 -0.051401574 -0.089651264
-0.06529927 0.32583702 0.30157438 -0.02848159 0.041725706 0.0054137404 -0.16604419 0.056882106
-0.03373728 0.11895406 0.17095406 0.22526145 0.1979695 0.10835786 -0.05746815 0.0012871916
0.15219964 0.04262487 -0.07512542 -0.11347236 0.028844208 -0.16863073 0.052063286 -0.057170093
00000000: 6100 e93d e352 8e3d 3110 ba3d 968a 23bc
00000010: 06a6 51bd 251b dbbd 4e3e 273c 1fc0 07bd
00000020: c954 15bd c24f 05be 02a1 a23d 92ff e83c
00000030: 3488 16be c988 d9bd 0433 863d 359d 753d
00000040: 3ded 04bc e1f6 23be cbdc 20bd baa3 383d
00000050: 39ac 27be 7eba debc a0b9 98be 77ce 243e
00000060: 6e1b afbd 32f4 6dbd 2720 9a3d 7667 3abe
00000070: cfeb 413d aa2a ee3d 789d 113e ffd4 093e
00000080: b68a 0abd 3bb8 833e 2016 34be 0753 b1bd
00000090: 20c3 253d 9264 013e 081c aa3d fb34 2d3e
000000a0: 763f f13d 5396 dcbd c72f 8a3e 12a4 203d
000000b0: c0c6 553c 0142 48bd 160f dabd ecba 493d
000000c0: 10f7 cebd 2c25 4f3e 48d5 5abe 35d1 e2bd
000000d0: 64c0 7bbe 6d01 70be 59a4 ffbd a88c 21bd
000000e0: c107 0fbe dd15 f93d b434 4ebe 50ec ac3d
000000f0: d4ae 4ebc 2afe 9cbd c319 373d 915f f03c
00000100: 4b3c 023d 7810 1abe 6bf0 233d c655 bc3d
00000110: 279f 26be c51a 223e ae26 26bc 1b5e c0bd
00000120: 471c 35be bb50 b83d 8048 443e 8eb5 c8be
00000130: 2da6 93be 151a 2b3d 13e9 90be 9d0f 7c3e
00000140: da07 88bd d08f 793e b3de 3c3e b4f7 ddbd
00000150: 0926 1fbd 6844 aebd c9fa 2a3e f00b a8be
00000160: 3004 00be 58fd e2bc 0fd5 61be bea6 433e
00000170: 127e fa3d 81a6 103e f89b bbbd 501f adbd
00000180: ba4a 9e3e 69cc 3e3e d164 d8bc d36c 8fbc
00000190: a60b aebd 5eea 4dbe 059f 64bd e19d dfbd
000001a0: 13fb 6bbe 6caf 353e 474f 73be 3f49 6cbe
000001b0: 2d55 013d 497d 593d 29b1 07be 4fb8 253d
000001c0: 1bd1 8a3d 4cd3 7b3e 7b6c 45be 5d4f 15be
000001d0: dd57 3c3e a980 003e c268 02bd 3830 973d
000001e0: 9926 0ebc 3124 123e da59 85bd 1eef 3a3e
000001f0: e47f eabd 0639 79be fd2f 263e e83d aabc
00000200: 2d04 873e fa55 60bd 9558 d93c 6e34 fdbd
00000210: 1245 bd3d 20a8 b83e 802a cdbe 4904 b7bd
00000220: 007e a93d b2e8 27bd 0b3c 5dbe 36d5 aabd
00000230: 57e9 f23b f7e3 19bc c2b7 12be 2c62 d43d
00000240: 2a4c 083d 13ee b2bd 1469 643e 2920 203e
00000250: 7a28 873e 52ee b9bd 8450 f7bc 54a2 a0bd
00000260: 1be2 82bc eb56 69be ef92 b33d 8488 2b3e
00000270: 65af 2abe cac0 243e 81e2 a0bd 8089 acbb
00000280: c2d5 acbd d00d 153d b393 f4bd 27b8 bd3d
00000290: 5799 78be cf1d f73c d52f 273c 7799 91bc
000002a0: d742 3cbe 56f9 d73d f779 023e a612 c1bd
000002b0: 37b6 023e 6607 2abe 5e03 ecbc f787 debd
000002c0: 32b6 233e a859 c33d fde0 ab3d 1e64 e83d
000002d0: 5df0 e13d ffa5 25be 8a95 25be 9b47 b93c
000002e0: 4e39 79be ba92 1cbd 7d7a c5bd 8853 d5bd
000002f0: fb0e 26bd 8dd2 863d d211 783e dd3d 5e3c
00000300: e7cd 5cbe a2c7 2a3e cff4 373e 5ed3 dbbd
00000310: da69 b8bd 1345 07be 87a7 1fbd 2a84 2d3d
00000320: f0b5 3abe 5c9f df3d 1624 efbc a072 bdbd
00000330: 9475 5e3e 5ca4 d2bd 0147 733d e725 1ebd
00000340: b4f9 26bd fc29 a33e 6687 073e 85f8 a23e
00000350: c8f7 b23d 6a2f f3bd 85dd 2c3e db79 523e
00000360: 19c1 6a3c 5028 153d 3012 8c3d d135 0ebe
00000370: d69f 96bc 913d cbbd 2881 51bc 559f 31bd
00000380: ef3a 9bbd aaaf 2e3d 27e4 78be c7b5 dabc
00000390: 17ad 273d 36b3 b8bd 758a 52bd 159b b7bd
000003a0: a0bb 85bd 1cd4 a63e f567 9a3e 3952 e9bc
000003b0: 93e8 2a3d bf65 b13b 7d07 2abe 36fd 683d
000003c0: 1a30 0abd 309e f33d 950e 2f3e f0aa 663e
000003d0: 84b8 4a3e baea dd3d b963 6bbd fcb6 a83a
000003e0: 39da 1b3e 6a97 2e3d 5bdb 99bd 3264 e8bd
000003f0: b04a ec3c 89ad 2cbe 5040 553d 302b 6abd

bias f4 [64]
-0.04752618 0.015481326 0.053754676 0.030160518 -0.0365626 -0.05244034 -0.040731475 -0.004556227
-0.008931343 0.018389814 0.014765203 -0.013600993 -0.0031271307 0.00437042 0.025087351 0.027439049
0.0073721507 0.0076366584 0.025029764 0.026536519 0.014883616 -0.030622946 0.0062561748 0.016392201
0.011865535 -0.011066729 -0.0045776414 0.0053597237 -0.03263877 -0.025580544 -0.05338468 0.003436923
-0.020416204 0.013935541 0.030653413 0.028199164 0.042725056 0.031102482 -0.015239342 -0.020807166
0.027109906 -0.046308316 -0.012214312 -0.0135190515 -0.022448134 0.0070616724 -0.008172883 -0.026034268
0.030811684 -0.015236524 0.013087789 -0.00027622317 0.0017214627 0.02752935 0.041056365 -0.029083122
0.026242852 0.012149612 0.003178723 -0.010760143 0.016468225 -0.013821207 0.02640204 0.014244258
00000000: d0aa 42bd 63a5 7d3c dd2d 5c3d 3113 f73c
00000010: aac2 15bd afcb 56bd 0cd6 26bd 674c 95bb
00000020: c554 12bc 3ca6 963c c0e9 713c b3d6 5ebc
00000030: 8cf0 4cbb bd35 8f3b fd83 cd3c dbc7 e03c
00000040: 1592 f13b ef3c fa3b 380b cd3c 1d63 d93c
00000050: 69da 733c f9dc fabc 9900 cd3b f048 863c
00000060: a967 423c 3a51 35bc 0a00 96bb 9fa0 af3b
00000070: 3bb0 05bd 4a8e d1bc e5a9 5abd 003e 613b
00000080: e23f a7bc e551 643c de1c fb3c ef01 e73c
00000090: 7800 2f3d a2ca fe3c 6fae 79bc ca73 aabc
000000a0: 9815 de3c caad 3dbd 8a1e 48bc 037f 5dbc
000000b0: 26e5 b7bc 9a65 e73b 8ee7 05bc d145 d5bc
000000c0: c968 fc3c 9da2 79bc 2a6e 563c 0cd2 90b9
000000d0: b4a2 e13a 3b85 e13c b82a 283d ba3f eebc
000000e0: 40fb d63c 2b0f 473c 1f52 503b 504b 30bc
000000f0: 5fe8 863c 5872 62bc 1749 d83c c060 693c

weight f4 [64, 64]
-0.069025494 -0.045792636 -0.15544945 0.00061601115 -0.17046422 0.30159098 -0.15362419 -0.21646065
-0.26722 -0.076133385 0.097234406 0.12344053 -0.06870313 -0.06340761 -0.1383402 0.09894793
0.3073674 0.05495427 -0.27933502 -0.098898195 -0.48988587 -0.22453111 -0.008099466 0.06797952
-0.22231032 -0.021873632 -0.1071563 0.3516169 0.037606087 -0.07635789 0.071782425 0.42204517
-0.0397312 0.076028146 -0.06007366 -0.030400364 0.1228006 -0.06570499 -0.0065217377 0.25657794
0.03864229 0.058921088 0.109057486 0.104005486 0.11986656 -0.0155023495 0.102842115 -0.19346432
-0.19969456 -0.3752641 0.11388436 -0.026141917 0.29340392 0.064216495 -0.25885108 0.19649768
0.40219954 -0.09172357 -0.09962692 -0.0113358265 -0.1072667 0.0055464846 0.13377953 0.13076526
0.13119236 -0.023657985 0.30040777 0.20176983 0.3476707 -0.31010887 -0.051834736 0.0649974
0.11553165 -0.105372645 0.11542722 -0.27672082 -0.030320587 -0.029507687 -0.063253835 -0.18596727
0.078407295 -0.11938606 0.20274876 0.24041611 -0.2736752 -0.19599506 0.009216806 0.11907304
-0.29848418 -0.14917454 -0.36465764 0.27344212 -0.22504999 -0.12234506 -0.036856953 -0.06258646
0.15962574 0.10948422 0.10409394 -0.04282077 0.028425306 0.032950293 0.11348058 0.16884579
0.17910513 -0.17213625 0.0060171415 -0.09327578 -0.07261899 -0.15750341 -0.17117652 0.09657854
0.46955734 0.020617321 -0.15618774 0.29232717 0.18417351 0.17884785 0.30183852 -0.0820675
0.095437616 -0.097996496 -0.16496475 0.12079793 -0.0032448797 -0.014612373 0.15174752 0.21912715
0.051823266 -0.30167714 -0.42313388 -0.064545654 0.00851105 -0.049835496 -0.14966871 0.04440565
-0.18362145 0.03723105 -0.31406647 -0.2825064 0.025929477 -0.28197077 -0.035613753 -0.18472973
-0.1783172 -0.115644425 -0.08638016 -0.15784156 0.19685516 -0.22259511 -0.16315883 -0.08815286
0.06283572 0.14176044 0.12622564 -0.035705492 0.039923664 -0.3290928 0.118063234 0.09621165
-0.10064915 0.24430552 0.24996626 -0.03633047 0.20420071 -0.22610395 0.12387792 -0.15803492
0.03440172 -0.021998664 0.095018886 -0.03714445 0.24756819 -0.20819104 0.008001432 0.37563828
0.079468764 -0.27985525 0.21398091 -0.08717745 0.15196115 -0.15769075 0.23163503 -0.41820958
-0.10261841 -0.011333231 -0.063637935 0.042464953 0.06935262 0.19121736 0.2215997 0.09076036
-0.06584669 -0.08887634 -0.037140004 0.4005626 0.17182268 0.02296459 0.12329931 0.0257509
0.018075442 0.05033366 0.035628423 -0.117815115 0.3182521 -0.16581818 0.22920093 -0.28297347
0.05537864 0.10516575 -0.1567771 -0.053442582 -0.17921303 -0.15824446 0.009973145 0.12180556
0.084886074 0.17978871 0.2660722 0.23103654 0.057012383 -0.24295247 -0.3113247 -0.29317668
-0.007040418 -0.15899979 -0.30498174 0.05064167 0.00042211293 -0.11335813 -0.22876874 -0.13975216
-0.10601954 -0.12456794 0.56447905 -0.07942171 -0.032310437 0.19726981 0.05702343 0.17667249
0.14082606 0.0676711 0.09281597 0.08697978 -0.07828528 0.15018831 -0.1520073 0.08233961
0.20648775 0.3349048 -0.03469075 -0.12680015 -0.15688258 0.12591782 -0.063600406 -0.21085852
00000000: 3d5d 8dbd 0f91 3bbd 242e 1fbe cf7b 213a
00000010: 2c8e 2ebe 226a 9a3e a94f 1dbe dca7 5dbe
00000020: 0fd1 88be d2eb 9bbd d522 c73d 63ce fc3d
00000030: 3ab4 8cbd d9db 81bd 0ea9 0dbe 36a5 ca3d
00000040: 435f 9d3e bb17 613d 0005 8fbe 238b cabd
00000050: 52d2 fabe 7ceb 65be 9fb3 04bc d938 8b3d
00000060: 51a5 63be 5530 b3bc c374 dbbd 2107 b43e
00000070: d708 1a3d 8761 9cbd aa02 933d 4e16 d83e
00000080: 2fbd 22bd a5b4 9b3d cc0f 76bd 2f0a f9bc
00000090: e27e fb3d 5690 86bd 4db4 d5bb 2f5e 833e
000000a0: 6147 1e3d 3d57 713d 8859 df3d d400 d53d
000000b0: 997c f53d 91fd 7dbc e39e d23d 831b 46be
000000c0: bb7c 4cbe 9e22 c0be 343c e93d 9327 d6bc
000000d0: 0a39 963e f083 833d 2188 84be b036 493e
000000e0: 19ed cd3e 91d9 bbbd 3309 ccbd e7b9 39bc
000000f0: a5ae dbbd 49bf b53b 80fd 083e 54e7 053e
00000100: 4a57 063e 64ce c1bc 0ccf 993e c09c 4e3e
00000110: e501 b23e 97c6 9ebe a950 54bd 5b1d 853d
00000120: dc9b ec3d 9dcd d7bd 1b65 ec3d 5aae 8dbe
00000130: e162 f8bc 1bba f1bc 3a8b 81bd 346e 3ebe
00000140: 0194 a03d ae80 f4bd 5f9d 4f3e a42f 763e
00000150: 281f 8cbe eeb2 48be 1602 173c 91dc f33d
00000160: ebd2 98be 36c1 18be 68b4 babe 9b00 8c3e
00000170: 8173 66be 0c90 fabd 51f7 16bd 542d 80bd
00000180: ee74 233e 4339 e03d 342f d53d d564 2fbd
00000190: 30dc e83c e3f6 063d 8268 e83d e9e5 2c3e
000001a0: 5667 373e 7c44 30be 712b c53b 5f07 bfbd
000001b0: 44b9 94bd 9348 21be e648 2fbe f8ca c53d
000001c0: d269 f03e a8e5 a83c aeef 1fbe e8ab 953e
000001d0: fb97 3c3e e423 373e 948a 9a3e 0113 a8bd
000001e0: cc74 c33d 63b2 c8bd 85ec 28be e864 f73d
000001f0: 0ca8 54bb bc68 6fbc b463 1b3e de62 603e
00000200: a244 543d 6d75 9abe 01a5 d8be 8330 84bd
00000210: ee71 0b3c 4e20 4cbd c142 19be b3e2 353d
00000220: 4307 3cbe 967f 183d 52cd a0be aea4 90be
00000230: 0e6a d43c 795e 90be badf 11bd ca29 3dbe
00000240: c998 36be fcd6 ecbd 15e8 b0bd 38a1 21be
00000250: 6694 493e f9ef 63be 1c13 27be 7d89 b4bd
00000260: 04b0 803d a629 113e 4b41 013e ec3f 12bd
00000270: ff86 233d da7e a8be 23cb f13d 9d0a c53d
00000280: 2421 cebd 3a2b 7a3e 28f7 7f3e 42cf 14bd
00000290: fe19 513e cb87 67be b5b3 fd3d e8d3 21be
000002a0: d1e8 0c3d 8b36 b4bc 4399 c23d c724 18bd
000002b0: 8482 7d3e 0830 55be 7018 033c a953 c03e
000002c0: 85c0 a23d 3049 8fbe d01d 5b3e 178a b2bd
000002d0: b49b 1b3e af79 21be bc31 6d3e 911f d6be
000002e0: 9a29 d2bd 04af 39bc 9b54 82bd bbef 2d3d
000002f0: bf08 8e3d 7cce 433e 08eb 623e 91e0 b93d
00000300: a1da 86bd cc04 b6bd 1e20 18bd 8b16 cd3e
00000310: 49f2 2f3e 3c20 bc3c 5984 fc3d 8df3 d23c
00000320: f312 943c ab2a 4e3d 1cef 113d 0d49 f1bd
00000330: f0f1 a23e 3ecc 29be a6b3 6a3e e6e1 90be
00000340: b6d4 623d 2461 d73d 2d8a 20be 9ce6 5abd
00000350: 9f83 37be d60a 22be 6766 233c 3275 f93d
00000360: c0d8 ad3d 881a 383e 9e3a 883e d894 6c3e
00000370: d185 693d 88c8 78be f365 9fbe 411b 96be
00000380: 4fb3 e6bb d7d0 22be 9126 9cbe a46d 4f3d
00000390: 0a4f dd39 4f28 e8bd 5a42 6abe 311b 0fbe
000003a0: c620 d9bd 7a1d ffbd b381 103f d9a7 a2bd
000003b0: f357 04bd 1901 4a3e 6691 693d a2e9 343e
000003c0: b534 103e 2597 8a3d 4d16 be3d 7422 b23d
000003d0: 0854 a0bd f7ca 193e cda7 1bbe aba1 a83d
000003e0: 8671 533e a478 ab3e e317 0ebd e6d7 01be
000003f0: d4a5 20be 9af0 003e ee40 82bd 4ceb 57be

bias f4 [64]
-0.030575622 0.03209854 0.026120609 0.036414936 0.035728358 -0.005306911 -0.041127123 -0.026010344
-0.016227836 -0.021984734 0.023667652 0.023946134 -0.034530748 -0.0031296369 0.025796233 0.013722674
0.020878118 0.05445957 0.023911305 -0.023457708 0.00868122 -0.00069140765 -0.015314475 0.03771219
-0.023688316 0.0060369535 0.019046457 -0.017016146 0.013759786 0.02645232 -0.017278899 0.033574354
0.018921545 -0.071776845 0.07134478 -0.012298645 0.0048283725 -0.02784597 0.035428256 -0.026020467
-0.051856406 0.013900035 0.010419947 -0.020421863 0.017235145 -0.014446987 -0.050858658 0.012209798
-0.005721483 0.016964294 0.07725855 0.017293798 -0.021188073 -0.041540176 0.027555438 0.012904934
0.02815868 -0.0051411195 0.01277376 -0.028219867 -0.01991221 0.04353946 -0.023299508 -0.030859683
00000000: ba79 fabc c279 033d e3fa d53c d427 153d
00000010: e657 123d 99e5 adbb ea74 28bd a513 d5bc
00000020: 3df0 84bc 5419 b4bc aae2 c13c af2a c43c
00000030: 1d70 0dbd 981a 4dbb 9f52 d33c 11d5 603c
00000040: 9608 ab3c 0011 5f3d a4e1 c33c 612a c0bc
00000050: ad3b 0e3c 953f 35ba 90e9 7abc 1978 1a3d
00000060: 000e c2bc a3d1 c53b 5107 9c3c 7265 8bbc
00000070: ba70 613c 89b2 d83c 7a8c 8dbc 4385 093d
00000080: 5b01 9b3c bdff 92bd 361d 923d 4280 49bc
00000090: 5337 9e3b 3b1d e4bc 381d 113d e028 d5bc
000000a0: 6267 54bd f9bc 633c 6db8 2a3c c04b a7bc
000000b0: b830 8d3c 0eb3 6cbc 2b51 50bd 9b0b 483c
000000c0: 477b bbbb b4f8 8a3c bb39 9e3d b9ab 8d3c
000000d0: 9c92 adbc 0826 2abd f1bb e13c 376f 533c
000000e0: 08ad e63c d676 a8bb 0849 513c 5a2d e7bc
000000f0: ee1e a3bc 6f56 323d 9cde bebc 72cd fcbc

weight f4 [64, 64]
-0.060538817 -0.10790089 -0.21027146 -0.49097183 0.048197992 0.119529955 0.023472607 0.35797146
-0.1712714 -0.008450695 0.018448548 0.099548176 -0.41829056 0.086942494 0.012916239 -0.12691143
-0.23808719 -0.101288415 -0.061552312 -0.030023783 0.3051591 -0.25708616 -0.07542505 -0.19103871
0.04163457 0.37736768 0.29687798 0.28702545 0.17886117 -0.25483462 0.032444555 -0.074909866
-0.07670152 -0.011115391 0.06649202 0.05262533 0.123209335 0.06959679 0.061257653 0.16308418
0.0589475 -0.04507344 -0.17793968 0.22576037 -0.46045655 -0.119074956 -0.2433525 0.010036988
-0.22707982 -0.10075749 -0.0045914706 0.08036847 -0.069487914 0.054277238 0.17301202 -0.1835257
0.09621966 -0.088797055 -0.065451354 0.08322673 -0.011763652 0.15999061 0.17621706 0.005045124
0.061543632 -0.38730487 -0.009776237 0.047175836 -0.04003396 -0.21235052 0.17917292 0.18610047
0.2347146 0.070588134 0.0145659195 -0.021498982 0.007957387 -0.2877692 0.060953595 -0.14609043
0.014328009 -0.37157017 0.10774578 0.02808335 0.3111567 0.04421868 0.13184938 -0.0069124657
0.27764437 0.15066929 0.21282814 -0.11599149 -0.3094686 -0.28485134 0.12537742 -0.36917534
0.11501119 -0.15527794 -0.12869558 -0.0017392179 0.11894928 0.31218863 -0.1469569 0.02822771
-0.14958827 0.20572197 0.054276995 -0.051742896 0.050334588 -0.025966184 0.23146798 -0.23755485
-0.15931506 0.079659775 -0.09596817 -0.002995492 0.34578693 -0.11897922 0.1415393 0.21844122
-0.17765765 -0.11672296 -0.07110058 -0.07548236 0.11155979 0.105038814 -0.2532353 0.28360057
-0.32200256 0.1598883 0.26328662 0.07873651 -0.2024541 -0.13603258 0.109452896 -0.33902767
-0.024583196 -0.45031488 0.27381954 0.18355364 0.025009258 -0.032779813 0.018775072 -0.3898373
-0.121946394 -0.05262548 0.2808124 -0.105902344 0.1920624 0.27389172 -0.015289968 0.07826523
0.14156942 0.14295974 -0.035600677 0.22449104 -0.030866755 0.030073166 -0.09012532 0.037711747
0.27029276 0.083730735 -0.2439078 0.06943679 -0.24660842 -0.06424011 -0.1527145 0.19447753
-0.23898926 0.01169391 -0.3333016 0.07552539 -0.01998804 0.25222653 -0.024327213 -0.016690735
0.006889301 -0.011634892 0.08050296 0.16013913 -0.3450747 -0.12874144 0.12923153 -0.017047813
-0.10403325 0.21099934 0.15631016 -0.01684634 0.18752673 0.14947169 -0.060668588 -0.16025959
0.032488555 0.06937181 -0.039028645 0.13172689 -0.059923917 0.28462952 -0.061407223 0.032096077
-0.011658202 0.10456681 0.093495525 0.06780403 0.18616581 -0.24309278 -0.26733238 0.24734469
0.1236766 0.065276004 -0.1904516 0.28387967 0.4945338 0.1142169 0.16006222 0.168732
-0.18139751 -0.016765889 0.38892937 -0.043725904 0.1069735 0.025429709 0.25424543 0.43488458
0.18155935 0.14015532 0.07880829 0.26812607 0.11785575 -0.055057157 -0.1555811 -0.03974223
-0.15750729 0.10296985 -0.3636417 0.17791697 -0.10519097 -0.15751344 0.03825342 -0.26519644
0.09723786 -0.00012810952 0.19267331 0.014256514 0.05306595 -0.14729375 -0.16592233 -0.03439264
0.15745084 0.121954985 -0.025119638 -0.11809175 0.047826245 -0.27619419 -0.19013812 -0.14274502
00000000: 8df7 77bd 24fb dcbd 6751 57be a960 fbbe
00000010: 426b 453d 1fcc f43d a049 c03c 0948 b73e
00000020: c561 2fbe c974 0abc 6921 973c eadf cb3d
00000030: 2e2a d6be e80e b23d a29e 533c 12f5 01be
00000040: 21cd 73be 4d70 cfbd 471e 7cbd 70f4 f5bc
00000050: d03d 9c3e cca0 83be 7378 9abd a79f 43be
00000060: 0389 2a3d 5636 c13e 6400 983e 00f5 923e
00000070: 6227 373e af79 82be 95e4 043d 586a 99bd
00000080: b015 9dbd 541d 36bc f82c 883d a88d 573d
00000090: 2d55 fc3d c388 8e3d 4ee9 7a3d 8aff 263e
000000a0: ef72 713d ed9e 38bd d235 36be ba2d 673e
000000b0: f6c0 ebbe 92dd f3bd 6631 79be 2e72 243c
000000c0: 9d87 68be f159 cebd 0c74 96bb 3998 a43d
000000d0: ae4f 8ebd cf51 5e3d 102a 313e 29ee 3bbe
000000e0: d00e c53d 3bdb b5bd 5c0b 86bd c772 aa3d
000000f0: 55bc 40bc 94d4 233e 3f72 343e 9151 a53b
00000100: 2d15 7c3d d34c c6be 832c 20bc 733b 413d
00000110: a6fa 23bd 6a72 59be 1b79 373e 1f91 3e3e
00000120: 0659 703e 8390 903d e5a5 6e3c a21e b0bc
00000130: b35f 023c 7c56 93be 7aaa 793d bb98 15be
00000140: 07c0 6a3c 723e bebe d2a9 dc3d 0e0f e63c
00000150: ee4f 9f3e a61e 353d 8603 073e f781 e2bb
00000160: 6727 8e3e 0d49 1a3e 9fef 593e f28c edbd
00000170: ab72 9ebe 09d8 91be f062 003e 8d04 bdbe
00000180: fd8a eb3d 2e01 1fbe c6c8 03be 78f6 e3ba
00000190: ae9b f33d 30d7 9f3e df7b 16be cc3d e73c
000001a0: ab2d 19be c8a8 523e 8e51 5e3d 5cf0 53bd
000001b0: a42b 4e3d 09b7 d4bc f105 6d3e 9441 73be
000001c0: 7d23 23be aa24 a33d f68a c4bd 0450 44bb
000001d0: fc0a b13e 61ab f3bd aeef 103e 0eaf 5f3e
000001e0: e3eb 35be 720c efbd 2e9d 91bd 7f96 9abd
000001f0: 7679 e43d 971e d73d 0fa8 81be 1834 913e
00000200: 85dd a4be c2b9 233e 81cd 863e 9b40 a13d
00000210: 2150 4fbe 204c 0bbe d728 e03d 0995 adbe
00000220: b362 c9bc ac8f e6be 1332 8c3e 7cf5 3b3e
00000230: 37e0 cc3c 2044 06bd 2ece 993c c198 c7be
00000240: 08bf f9bd d18d 57bd a5c6 8f3e 54e3 d8bd
00000250: 01ac 443e 893b 8c3e c682 7abc 8549 a03d
00000260: 93f7 103e 0a64 123e 04d2 11bd fbe0 653e
00000270: 47dc fcbc 005c f63c a093 b8bd a277 1a3d
00000280: d063 8a3e 057b ab3d f7c2 79be e034 8e3d
00000290: eb86 7cbe 5290 83bd 3161 1cbe 1e25 473e
000002a0: 9ab9 74be d097 3f3c 82a6 aabe 0ead 9a3d
000002b0: f5bd a3bc d623 813e dd49 c7bc 02bb 88bc
000002c0: a5bf e13b 46a0 3ebc bcde a43d 83fb 233e
000002d0: a2ad b0be ccd4 03be 4555 043e dba7 8bbc
000002e0: 620f d5bd 3610 583e c50f 203e 5601 8abc
000002f0: 0207 403e 1b0f 193e a07f 78bd 171b 24be
00000300: b812 053d cf12 8e3d 80dc 1fbd 6ae3 063e
00000310: c872 75bd f6ba 913e 2486 7bbd 2d77 033d
00000320: 0b02 3fbc 2027 d63d 957a bf3d d7dc 8a3d
00000330: 40a2 3e3e 50ed 78be cadf 88be ed47 7d3e
00000340: 284a fd3d 6daf 853d bf05 43be ad58 913e
00000350: 8933 fd3e 8dea e93d 5ae7 233e 15c8 2c3e
00000360: 45c0 39be 9e58 89bc c021 c73e ef19 33bd
00000370: ec14 db3d f751 d03c 752c 823e 31a9 de3e
00000380: b2ea 393e e084 0f3e 3e66 a13d d247 893e
00000390: 5b5e f13d 9d83 61bd a750 1fbe c0c8 22bd
000003a0: 9749 21be dbe1 d23d 3f2f babe de2f 363e
000003b0: 5d6e d7bd 344b 21be 9eaf 1c3d d4c7 87be
000003c0: a524 c73d 2355 06b9 274c 453e 2794 693c
000003d0: ae5b 593d 2cd4 16be 8be7 29be 4cdf 0cbd
000003e0: cb3a 213e 89c3 f93d b3c7 cdbc 16da f1bd
000003f0: 74e5 433d 5369 8dbe 91b3 42be c02b 12be

bias f4 [64]
0.0028854923 -0.049983166 0.02946043 0.02810376 -0.00449997 -0.036177706 0.028763313 -0.011080508
0.042981204 -0.024244532 0.005613228 0.0073550562 -0.013478616 0.017870873 -0.018329727 0.0038282236
-0.05406306 0.05516698 -0.0017339363 0.026241574 -0.07460229 0.0021676563 0.019323297 0.032590993
0.0012754111 0.014308863 0.00775894 0.015598682 0.046189368 0.025247643 -0.03472199 -0.0436326
0.059336018 0.03742285 -0.022731598 0.059071805 -0.005908449 0.038480546 0.0015213592 0.0026983551
-0.024634626 -0.025675928 -0.007606547 -0.01765761 -0.011275954 -0.008064961 0.011959712 0.017000195
-0.012223125 0.009761666 0.009687474 0.009806625 -0.035040457 0.010866031 0.04549979 -0.037850335
0.03909882 -0.0151831 -0.0053583677 -0.030409412 -0.019256692 -0.011148681 -0.036517747 0.012339401
00000000: 871a 3d3b 26bb 4cbd 0057 f13c db39 e63c
00000010: 7c74 93bb 132f 14bd 0aa1 eb3c 058b 35bc
00000020: 0f0d 303d 789c c6bc 2bef b73b af02 f13b
00000030: 6ad5 5cbc f065 923c 3928 96bc efe2 7a3b
00000040: 3a71 5dbd c5f6 613d 3f45 e3ba 92f8 d63c
00000050: 16c9 98bd 3d0f 0e3b e44b 9e3c 227e 053d
00000060: b22b a73a b96f 6a3c b53e fe3b 9d91 7f3c
00000070: 1031 3d3d 25d4 ce3c a538 0ebd 19b8 32bd
00000080: 530a 733d b448 193d 9e37 babc 47f5 713d
00000090: aa9b c1bb c79d 1d3d 5868 c73a e3d6 303b
000000a0: 8ece c9bc 5356 d2bc 5740 f9bb b1a6 90bc
000000b0: c7be 38bc e622 04bc abf2 433c fe43 8b3c
000000c0: 8143 48bc 65ef 1f3c 36b8 1e3c f7ab 203c
000000d0: 9586 0fbd 7007 323c fd5d 3a3d f408 1bbd
000000e0: 1626 203d 89c2 78bc 3f95 afbb 291d f9bc
000000f0: 36c0 9dbc f5a8 36bc a293 15bd 332b 4a3c

weight f4 [64, 100]
0.0057167313 0.16392967 -0.062084977 -0.1916348 -0.064737774 -0.2536853 0.16146447 0.016102746
0.09290071 -0.19621426 0.031879354 0.2591971 0.018693225 -0.055567544 -0.14380519 -0.057439372
0.14892909 -0.05959105 -0.109588936 0.14254706 0.2106428 0.06024721 0.10772705 -0.06573313
-0.13787769 -0.2425102 -0.25155178 0.08471435 0.14272271 0.12204076 0.20912059 0.124926515
0.032286014 -0.03125599 0.0023064597 0.11201641 -0.028106654 -0.15588312 -0.07342804 0.18327524
0.2891733 -0.12656532 -0.026289362 -0.18543486 -0.11105924 -0.009107665 0.21552868 -0.039911028
0.039032757 0.13778783 0.019321296 -0.22110537 -0.04999784 -0.07221027 -0.031579163 -0.009291246
-0.2750691 0.09192782 0.025834283 -0.022037804 0.09975646 -0.010821688 -0.0058432263 -0.0401109
-0.17217998 -0.104154184 -0.031327084 -0.13611054 0.06531301 0.09719575 -0.09733062 0.20119111
-0.11498041 0.08417309 -0.19954944 0.09175949 0.036560375 -0.31224197 0.24202323 -0.1441942
-0.31908894 0.012884614 -0.2056756 0.2565756 0.031720746 -0.2687671 0.0781634 0.22986907
-0.14243147 0.026244102 0.16305682 -0.14292033 0.16523245 -0.20025854 0.15121661 0.028921058
0.102553725 0.15296702 -0.009874518 -0.10218015 -0.08262073 0.17798978 -0.1813775 0.015190109
0.0136937685 -0.1258694 -0.030476445 0.12968412 -0.049325973 0.028115438 -0.22256322 0.20125067
-0.0015578418 0.11778326 0.06293396 -0.07658758 -0.055259563 0.028356776 -0.19490793 0.17293346
-0.082026206 -0.015952233 0.08841319 0.13605706 -0.16171695 -0.15704218 -0.05560213 -0.008651735
0.110291466 -0.007641077 -0.15729724 -0.012821914 0.15269732 0.017673269 -0.4895602 -0.12968846
-0.3897857 0.0029131696 0.08578756 -0.018218778 -0.1669318 0.20541805 -0.14728104 -0.07103369
-0.21316339 0.018675046 -0.033590086 -0.2408914 -0.12555243 0.15210387 0.01257987 0.042061593
0.13298585 0.020978604 0.087496944 -0.11504168 0.024420118 -0.041047566 0.10177185 -0.034603525
0.04342713 0.13190515 0.060585994 -0.0041520773 -0.11744729 -0.16064517 -0.10738919 0.043488596
0.046029612 -0.07635777 -0.16823144 -0.09929543 -0.104421355 0.31573984 0.021773864 0.0033441347
0.10803998 0.18138456 0.12279119 0.090109654 -0.010844359 0.21915519 0.07865485 0.015548566
0.09503124 0.54490566 0.097898886 0.009826893 -0.05034564 -0.04092578 0.124413684 0.19006763
0.18388985 -0.011194733 0.11668783 -0.008883847 -0.11603075 0.048424907 0.27411985 -0.018228702
0.059787802 -0.116005465 0.06725688 -0.09632987 0.19972628 -0.23472193 -0.26423708 -0.12416528
-0.2356599 0.15207905 -0.182501 0.034106005 0.07420929 -0.18247642 0.11011463 -0.077895574
0.006240086 0.08802953 -0.06629464 -0.05968186 0.105423965 0.17202464 0.09411641 0.110916324
-0.19322667 0.022925533 0.014991599 -0.048804708 -0.076926686 -0.16353579 0.044262946 -0.14184386
-0.30270612 -0.023254436 0.05394003 -0.006233879 -0.064889595 0.0013341118 -0.14660445 -0.18270779
0.20003553 -0.04828499 -0.17076579 -0.30173513 0.12630826 -0.20731716 -0.08626246 0.01868744
-0.003577208 -0.117850386 0.12213278 0.13391685 0.062425226 0.057563815 -0.02922148 0.53452903
00000000: 6b53 bb3b 2edd 273e d14c 7ebd ea3b 44be
00000010: 3d95 84bd 0ae3 81be f156 253e e8e9 833c
00000020: ba42 be3d 64ec 48be ed93 023d 7bb5 843e
00000030: 8922 993c cb9a 63bd ab41 13be 8c45 6bbd
00000040: de80 183e bf15 74bd 2a70 e0bd dbf7 113e
00000050: bfb2 573e c7c5 763d 00a0 dc3d 179f 86bd
00000060: cf2f 0dbe 9854 78be 65cb 80be b87e ad3d
00000070: e725 123e 82f0 f93d b523 563e 79d9 ff3d
00000080: 573e 043d 4806 00bd f927 173b dc68 e53d
00000090: ed3f e6bc d39f 1fbe 7161 96bd 81ac 3b3e
000000a0: 860e 943e 579a 01be ca5c d7bc a3e2 3dbe
000000b0: 0773 e3bd 5138 15bc 8db3 5c3e bf79 23bd
000000c0: d0e0 1f3d 4118 0d3e b247 9e3c 7269 62be
000000d0: 89ca 4cbd fae2 93bd 2759 01bd 4f3a 18bc
000000e0: dbd5 8cbe a744 bc3d 6ba2 d33c a088 b4bc
000000f0: 1d4d cc3d 734d 31bc 8978 bfbb 544b 24bd
00000100: f34f 30be ca4e d5bd d450 00bd 9060 0bbe
00000110: d4c2 853d 910e c73d 4755 c7bd 0b05 4e3e
00000120: d97a ebbd f162 ac3d b056 4cbe 66ec bb3d
00000130: 55c0 153d 2ede 9fbe f0d4 773e a5a7 13be
00000140: a05f a3be fd19 533c a09c 52be e15d 833e
00000150: 9ded 013d d79b 89be 2214 a03d cc62 6b3e
00000160: 8ed9 11be dffd d63c 5ef8 263e b559 12be
00000170: b232 293e 9310 4dbe 87d8 1a3e dbeb ec3c
00000180: b007 d23d 63a3 1c3e bbc8 21bc d443 d1bd
00000190: 0f35 a9bd f442 363e 06bb 39be efdf 783c
000001a0: d45b 603c e8e3 00be bda9 f9bc eacb 043e
000001b0: 080a 4abd 5952 e63c 9de7 63be a814 4e3e
000001c0: 7f30 ccba 5a38 f13d 85e3 803d f3d9 9cbd
000001d0: da57 62bd 784c e83c f295 47be 7815 313e
000001e0: 5bfd a7bd 42ae 82bc f911 b53d 8b52 0b3e
000001f0: 2199 25be aacf 20be 0fbf 63bd 02c0 0dbc
00000200: 7ee0 e13d 0062 fabb 8712 21be 0113 52bc
00000210: b05c 1c3e 88c7 903c a2a7 fabe 0dcd 04be
00000220: fe91 c7be e0ea 3e3b 63b1 af3d 8c3f 95bc
00000230: 2bf0 2abe 1c59 523e d7d0 16be 1c7a 91bd
00000240: 8147 5abe 69fc 983c c295 09bd 3cac 76be
00000250: d190 00be 1ec1 1b3e cd1b 4e3c c748 2c3d
00000260: 712d 083e 52db ab3c 9931 b33d f99a ebbd
00000270: b30c c83c 7e21 28bd c26d d03d 6dbc 0dbd
00000280: a5e0 313d 2512 073e 0529 783d 260e 88bb
00000290: 3488 f0bd 2b80 24be ddee dbbd 1921 323d
000002a0: 8c89 3c3d 7661 9cbd dd44 2cbe 675b cbbd
000002b0: ddda d5bd a7a8 a13e 1a5f b23c 4529 5b3b
000002c0: 1144 dd3d e0bc 393e f379 fb3d 698b b83d
000002d0: 8aac 31bc 386a 603e cb15 a13d 6abf 7e3c
000002e0: bd9f c23d f07e 0b3f 367f c83d fa00 213c
000002f0: 3b37 4ebd caa1 27bd 9acc fe3d 17a1 423e
00000300: 9f4d 3c3e 1d6a 37bc 07fa ee3d 8e8d 11bc
00000310: 88a1 edbd 3259 463d 7059 8c3e 5c54 95bc
00000320: 0ee4 743d 4694 edbd fabd 893d 9848 c5bd
00000330: 0c85 4c3e f25a 70be 154a 87be 5e4a febd
00000340: d450 71be 9cba 1b3e 8be1 3abe bdb2 0b3d
00000350: 0afb 973d 19db 3abe c783 e13d b787 9fbd
00000360: a379 cc3b d448 b43d 7cc5 87bd f774 74bd
00000370: 85e8 d73d 3a27 303e 1bc0 c03d 1928 e33d
00000380: 36dd 45be 54ce bb3c 539f 753c 72e7 47bd
00000390: bd8b 9dbd ed75 27be 104d 353d 843f 11be
000003a0: 4cfc 9abe 1680 bebc 39f0 5c3d 9145 ccbb
000003b0: d6e4 84bd 5ddd ae3a 7a1f 16be c017 3bbe
000003c0: 1dd6 4c3e 7bc6 45bd 3add 2ebe 077d 9abe
000003d0: f456 013e f34a 54be 5faa b0bd 6716 993c
000003e0: 976f 6abb 8b5b f1bd c020 fa3d 8021 093e
000003f0: 98b1 7f3d 09c8 6b3d e361 efbc e5d6 083f

bias f4 [64]
-0.037072334 -0.004945598 -0.059443276 -0.00634437 -0.029609548 -0.028645704 0.029446218 -0.04703855
0.027788173 -0.01818333 0.0018795712 -0.03732741 -0.021490522 0.004156476 0.01779185 0.0038662835
-0.020464282 -0.005400724 -0.013883546 0.04771955 -0.0038103817 0.028067596 0.015296787 0.047246788
-0.0086415075 0.04059796 0.02222119 0.04132082 -0.026639907 0.016938506 -0.008367135 0.004742694
0.020621568 -0.00597137 -0.018085355 0.021135924 -0.04372797 0.035585824 0.027335672 0.043298002
0.046495616 0.015704894 -0.022697657 0.018481718 -0.04773253 -0.017906232 0.026483694 0.01279989
-0.009059405 -0.042486265 -0.051498193 -0.05209355 0.032037225 0.013709444 0.037051793 -0.0013011547
-0.0036565627 -0.026487969 0.0018353374 -0.01278346 -0.017430179 -0.018550554 -0.0021375124 0.053623844
00000000: 29d9 17bd af0e a2bb cb7a 73bd 6fe4 cfbb
00000010: b98f f2bc 65aa eabc 3239 f13c 7fab 40bd
00000020: 06a4 e33c 35f5 94bc f25b f63a a0e4 18bd
00000030: e40c b0bc 0c33 883b 37c0 913c 7961 7d3b
00000040: b6a4 a7bc 8ef8 b0bb d077 63bc 9375 433d
00000050: 99b7 79bb 04ee e53c 609f 7a3c d985 413d
00000060: 1c95 0dbc 0c4a 263d 3709 b63c 0540 293d
00000070: ef3b dabc 9fc2 8a3c 4f16 09bc 9a68 9b3b
00000080: 90ee a83c 7bab c3bb bd27 94bc 3f25 ad3c
00000090: 1a1c 33bd 71c2 113d 0fef df3c 3f59 313d
000000a0: 3072 3e3d 8da7 803c 70f0 b9bc f966 973c
000000b0: 2f83 43bd 17b0 92bc 55f4 d83c a1b6 513c
000000c0: e66d 14bc 1406 2ebd c5ef 52bd 0c60 55bd
000000d0: 7739 033d 939d 603c 9fc3 173d 828b aaba
000000e0: f1a2 6fbb 4cfd d8bc b48f f03a b871 51bc
000000f0: bcc9 8ebc 55f7 97bc 8215 0cbb ada4 5b3d

weight f4 [64, 64]
0.20499957 0.29924428 0.011830574 -0.036270637 0.14882372 -0.15145746 -0.17590177 0.04378413
-0.08880463 0.09128746 -0.055726524 -0.15195459 0.11797137 -0.037031468 -0.2753579 0.12363567
0.0439929 -0.13613605 -0.3572569 -0.3793138 -0.037865262 0.22140202 0.10786799 0.15000317
0.07330057 0.14632247 -0.010275091 0.12042995 -0.11999598 0.021832867 0.034971513 -0.03463899
0.19649714 -0.15209161 0.15160926 -0.008909022 -0.36441898 0.05051636 0.04120674 -0.072294846
-0.21074948 0.47623336 -0.23310229 -0.15120539 0.20367403 0.12339422 0.02270264 -0.15187433
0.10479409 0.12917781 -0.05960467 -0.086560845 -0.03383091 0.20574465 0.27782696 -0.089246534
0.029320354 -0.09898927 -0.12729202 0.13114122 0.3489749 -0.3144505 -0.336058 0.15650487
0.16714372 0.086458184 0.078777626 0.18651615 0.23031703 0.066191785 0.008832225 -0.064782485
-0.04812218 -0.20807724 0.06020477 0.001712378 0.152328 -0.10229013 -0.29151586 0.07154487
0.2306182 0.11296732 -0.23587646 0.2571895 -0.009067241 -0.20052333 0.021292042 0.4725813
0.07908043 0.0141039705 -0.10744193 -0.1617117 0.13936438 -0.2135367 -0.16931562 0.22636229
0.08500284 -0.09515992 0.14187004 0.08047973 0.2434327 0.17433171 0.3903029 -0.030341173
0.050973143 0.09169382 0.040932916 -0.18665025 -0.0005657434 0.09101157 -0.17857501 0.31617895
0.00076830055 -0.08285217 -0.027635396 0.23847806 -0.05805719 -0.245221 -0.08225989 0.35066184
-0.008493696 -0.3124404 0.32018417 -0.10020221 -0.18697715 0.102969825 -0.26098263 -0.08614452
0.24386673 -0.041176923 -0.056713592 -0.086804844 0.23610665 0.03480936 -0.0764227 -0.0855097
-0.044798464 0.30735257 -0.07302545 -0.35470662 -0.08012586 0.1491782 0.13175027 0.46182197
-0.2085123 -0.40556663 -0.21218437 0.43057543 0.22700663 0.005921539 -0.11758697 -0.114582665
-0.3134607 -0.09717772 -0.24529478 -0.06794459 -0.10481271 -0.11044593 0.071597606 0.073736265
0.002252828 0.13581729 0.06529002 0.011474613 0.06572279 0.17710067 0.18282662 0.080231935
-0.38996163 -0.13511024 -0.19344643 -0.07602675 -0.042588376 0.007783501 -0.102989584 -0.016957175
0.09770112 0.07107172 -0.010840139 0.15316987 0.23653115 0.20730883 0.0693421 -0.26438507
0.17547561 0.10709326 0.15227854 -0.08303005 0.0024449637 -0.015157674 0.24576783 -0.2002356
-0.0381429 -0.28268123 -0.17976956 -0.32038933 0.06179354 -0.042868685 0.1006358 -0.1739532
0.034199473 0.046116665 0.33352298 -0.21581225 0.32461122 -0.091152124 -0.32465827 0.248945
-0.119077116 -0.014291896 0.21410322 -0.13458839 0.35398656 0.2508629 -0.09121283 0.20733364
0.17124379 0.15717521 -0.022672402 -0.014511374 -0.20528556 0.15361288 -0.10411507 0.04694039
-0.08774277 0.19970661 -0.32857656 0.40458438 0.028851017 0.17827371 0.03388406 -0.22610436
0.05135117 -0.17194828 0.140938 0.11352275 0.100963265 0.12640001 -0.11385372 -0.12946135
0.24723718 -0.10117638 0.09217149 -0.13513246 0.08724218 0.07623627 -0.33157575 -0.07694831
0.076490484 -0.15881167 -0.07197562 -0.0062005753 0.15249804 0.13928394 0.024794267 0.1897974
00000000: 68eb 513e 8c36 993e 06d5 413c 8590 14bd
00000010: 3f65 183e aa17 1bbe 981f 34be fd56 333d
00000020: 34df b5bd ebf4 ba3d 7f41 64bd fc99 1bbe
00000030: f99a f13d 4fae 17bd b6fb 8cbe b334 fd3d
00000040: e631 343d 4067 0bbe 60ea b6be 6b35 c2be
00000050: 9b18 1bbd 36b7 623e e5e9 dc3d 6e9a 193e
00000060: 9c1e 963d 8fd5 153e db58 28bc faa3 f63d
00000070: 74c0 f5bd d7da b23c 4a3e 0f3d 9de1 0dbd
00000080: 8c36 493e e7bd 1bbe 753f 1b3e 26f7 11bc
00000090: 2095 babe 3eea 4e3d 66c8 283d 520f 94bd
000000a0: b6ce 57be dcd4 f33e 5eb2 6ebe 96d5 1abe
000000b0: ed8f 503e 1cb6 fc3d e3fa b93c f284 1bbe
000000c0: 499e d63d 3047 043e 0724 74bd d046 b1bd
000000d0: 4892 0abd baae 523e 563f 8e3e e3c6 b6bd
000000e0: 3d31 f03c e3ba cabd d758 02be e249 063e
000000f0: d7ac b23e a8ff a0be cb0f acbe d042 203e
00000100: b927 2b3e fd10 b13d 2a56 a13d 17fe 3e3e
00000110: 3ad8 6b3e 8f8f 873d 09b5 103c aeac 84bd
00000120: c31b 45bd 3312 55be 4799 763d df71 e03a
00000130: dffb 1b3e 7d7d d1bd 9141 95be 1e86 923d
00000140: 2d27 6c3e 695b e73d 9989 71be 58ae 833e
00000150: c48e 14bc fd55 4dbe a66c ae3c 2df6 f13e
00000160: ecf4 a13d 5714 673c 840a dcbd c097 25be
00000170: 89b5 0e3e 5da9 5abe 1361 2dbe 84cb 673e
00000180: f815 ae3d 34e3 c2bd 6146 113e 8fd2 a43d
00000190: 6c46 793e 0384 323e c8d5 c73e 0d8e f8bc
000001a0: 37c9 503d f8c9 bb3d 46a9 273d 3e21 3fbe
000001b0: 664e 14ba 4664 ba3d 5edc 36be 35e2 a13e
000001c0: c767 493a 66ae a9bd a063 e2bc 9833 743e
000001d0: 60cd 6dbd 371b 7bbe e077 a8bd f389 b33e
000001e0: 2529 0bbc 30f8 9fbe 2eef a33e d136 cdbd
000001f0: f076 3fbe d8e1 d23d 849f 85be 8a6c b0bd
00000200: 33b8 793e 22a9 28bd 834c 68bd bdc6 b1bd
00000210: f1c5 713e 4294 0e3d 8183 9cbd b61f afbd
00000220: 987e 37bd 515d 9d3e 5e8e 95bd 1b9c b5be
00000230: 0719 a4bd 2cc2 183e 8be9 063e ee73 ec3e
00000240: 4084 55be 6ea6 cfbe dc46 59be 6274 dc3e
00000250: 6d74 683e 7809 c23b 70d1 f0bd 51aa eabd
00000260: ec7d a0be 1d05 c7bd 8e2e 7bbe 8826 8bbd
00000270: 0ca8 d6bd 7a31 e2bd c4a1 923d 0a03 973d
00000280: 2fa4 133b b013 0b3e c6b6 853d 0400 3c3c
00000290: ac99 863d e159 353e e736 3b3e a450 a43d
000002a0: 0da9 c7be 575a 0abe d216 46be eab3 9bbd
000002b0: 2671 2ebd bd0c ff3b 34ec d2bd c6e9 8abc
000002c0: 8617 c83d 0d8e 913d d79a 31bc 90d8 1c3e
000002d0: 3935 723e c448 543e 3b03 8e3d 7b5d 87be
000002e0: e1af 333e b653 db3d e8ee 1b3e a90b aabd
000002f0: af3b 203b e557 78bc 90aa 7b3e 900a 4dbe
00000300: bb3b 1cbd 98bb 90be 8315 38be 120a a4be
00000310: 391b 7d3d 1397 2fbd 241a ce3d ca20 32be
00000320: bf14 0c3d d4e4 3c3d 86c3 aa3e e3fd 5cbe
00000330: 7133 a63e f7ad babd 9c39 a6be 70eb 7e3e
00000340: b4de f3bd 8e28 6abc e03d 5b3e 8ad1 09be
00000350: ba3d b53e 1a71 803e cbcd babd 454f 543e
00000360: 885a 2f3e 8af2 203e 79bb b9bc 1dc1 6dbc
00000370: 6136 52be b24c 1d3e 483a d5bd 9144 403d
00000380: 7bb2 b3bd e47f 4c3e 303b a8be af25 cf3e
00000390: f858 ec3c 628d 363e 03ca 0a3d e787 67be
000003a0: 9b55 523d 3613 30be 0d52 103e 9e7e e83d
000003b0: d4c5 ce3d 016f 013e 242c e9bd 8491 04be
000003c0: be2b 7d3e 9035 cfbd 68c4 bc3d 2a60 0abe
000003d0: 07ac b23d c321 9c3d 4cc4 a9be 1397 9dbd
000003e0: 0ba7 9c3d 879f 22be f467 93bd 322e cbbb
000003f0: 7228 1c3e 73a0 0e3e 591d cb3c 405a 423e

bias f4 [64]
-0.014550276 -0.00661841 -0.043428097 -0.0067921747 0.034742657 0.004702256 -0.039729137 -0.021246847
0.033157405 0.009694029 0.033209927 0.031363785 -0.021895623 -0.075053304 0.013795265 -0.03244547
0.020026784 0.00084107625 0.03461186 -0.02156944 -0.04412401 0.043795127 0.09541211 0.039610904
0.0055297306 -0.011286454 0.04380752 0.032462656 0.052777875 -0.051594995 0.023393445 -0.043360222
-0.0037478607 -0.06896053 0.043956235 -0.007705751 0.031290058 0.010471656 -0.027201965 0.007322136
0.011744455 0.03482903 0.03632893 -0.03547653 -0.00905139 0.017737867 -0.019679876 -0.011557488
-0.0060043274 -0.01798584 0.06573773 -0.03480148 -0.03292156 -0.0052999514 -0.041480165 -0.03148019
-0.033424705 0.06544862 -0.05604484 0.033862323 0.0021882553 0.031511758 0.018295208 -0.015153316
00000000: 4864 6ebc 3fdf d8bb a9e1 31bd e490 debb
00000010: 514e 0e3d 6215 9a3b 05bb 22bd de0d aebc
00000020: 0fd0 073d b4d3 1e3c 2207 083d 5077 003d
00000030: 735e b3bc 8cb5 99bd 8905 623c 8be5 04bd
00000040: 360f a43c ac7b 5c3a 2ac5 0d3d 65b2 b0bc
00000050: 61bb 34bd 8562 333d 6d67 c33d 0b3f 223d
00000060: be32 b53b d2ea 38bc 846f 333d 90f7 043d
00000070: 9d2d 583d 4655 53bd 9ca3 bf3c 7d9a 31bd
00000080: ab9e 75bb 2e3b 8dbd 740b 343d 8680 fcbb
00000090: 012a 003d 4f91 2b3c a8d6 debc 87ee ef3b
000000a0: d16b 403c e3a8 0e3d a5cd 143d d74f 11bd
000000b0: 484c 14bc 014f 913c b137 a1bc 9e5b 3dbc
000000c0: f3bf c4bb 0a57 93bc 81a1 863d ff8b 0ebd
000000d0: c2d8 06bd 37ab adbb 1be7 29bd 5ff1 00bd
000000e0: 58e8 08bd ed09 863d 468f 65bd 38b3 0a3d
000000f0: d568 0f3b 7912 013d d5df 953c 9d45 78bc

weight f4 [64, 64]
-0.15847978 -0.024821253 0.04359662 -0.005797864 -0.36553732 -0.041195445 -0.07600859 -0.26157585
-0.25075763 0.16843054 -0.14634869 -0.034585003 -0.21811052 -0.06620222 -0.1655105 -0.0544686
0.17100522 -0.07966112 -0.067923315 0.13858294 0.14884518 0.044547014 -0.39479184 -0.1522784
0.107355 -0.104468465 -0.28648973 -0.0027337864 0.30891153 -0.27130914 0.12179222 0.08682118
0.13020301 -0.1848562 -0.33538267 -0.037143245 -0.06121386 -0.028817913 -0.15983817 -0.19777414
-0.16546124 0.3763003 -0.19065894 0.0681748 0.067617625 -0.15481535 -0.058993526 -0.2542538
0.12097247 0.008787166 -0.24167775 0.281888 -0.017891163 0.15930517 -0.01575431 -0.33162105
-0.15257937 -0.024523392 0.21280777 -0.13250084 0.23119068 -0.034529276 -0.16077785 -0.15681618
0.044934705 0.11892338 -0.16536506 0.010638998 -0.012870722 0.10248832 -0.024750408 -0.04594603
-0.055307306 0.30277345 -0.18399943 -0.021103418 0.19178994 -0.14161347 0.35867175 0.15203072
-0.12650847 0.1911068 0.12547584 -0.06855479 0.06079448 0.22953598 0.16896184 -0.32884672
0.1822048 -0.06286776 -0.12550762 0.21186994 0.15201467 0.30171224 0.09564564 0.0029470709
0.02704409 0.01574791 0.1835309 -0.39413548 -0.04738105 0.2073171 0.0041013467 0.08842419
0.067618035 -0.032294776 -0.112468004 -0.13943872 -0.0063254912 -0.061582383 -0.044159632 -0.20417044
0.101011604 0.02876714 -0.24148764 0.08431801 -0.07298761 -0.068991385 -0.19427198 0.25636628
-0.43298823 -0.0067362464 -0.27303615 -0.14742228 0.08931641 -0.44366318 -0.053764474 0.273566
-0.31986696 0.10228679 0.18803076 0.042886842 -0.11225757 -0.106948346 -0.2622482 0.22009176
-0.0220243 -0.0971048 0.13644928 -0.4236634 0.29794443 -0.06646063 -0.06774447 0.3527452
-0.083715074 -0.095186494 0.30676547 -0.23486252 -0.11094228 -0.10457056 -0.023981351 -0.03418456
0.18912056 -0.21541679 -0.07292725 0.13152044 -0.073239096 -0.21961783 0.04378186 -0.00703038
-0.43837783 0.13600674 -0.11391298 0.013020013 -0.05679723 0.19807792 0.24064654 -0.12837702
0.09373489 0.06877422 -0.0112776505 -0.19133516 -0.12388377 0.1623298 -0.15217015 0.07847139
-0.105462946 -0.20918968 -0.20973268 -0.08629984 0.24818984 -0.12930405 -0.22284439 -0.16411617
-0.037388064 -0.28033197 0.07877153 0.15833466 0.28818184 0.13059914 0.03578175 0.034320682
-0.012883826 -0.022077175 -0.09619642 -0.009331894 0.563774 0.2552236 -0.2893141 0.10617671
-0.07303616 -0.040651973 0.13425687 -0.13787454 -0.012019877 -0.13619277 -0.32206237 -0.06432089
-0.012084554 0.055385556 -0.054322917 0.018413724 0.22599912 -0.32203743 -0.24884583 0.09386625
-0.28391558 0.11495095 -0.2116618 0.08940205 0.098957136 0.05741778 -0.21497312 0.1629688
0.051148966 0.16654368 -0.18267831 -0.072472624 0.1383186 0.020948265 -0.03816259 -0.13704394
-0.002785488 -0.06672326 0.18333028 0.16811584 0.022317903 -0.06268641 -0.04449236 0.35519412
0.22887011 -0.24891374 0.2262889 0.03172066 -0.07050584 0.090395495 -0.22333643 -0.039507665
-0.41542208 0.04671189 -0.27102885 -0.04089482 0.17682071 -0.071053594 -0.14757453 0.23435818
00000000: 8648 22be f155 cbbc 5f92 323d 02fc bdbb
00000010: b527 bbbe 8ebc 28bd 64aa 9bbd 45ed 85be
00000020: 4e63 80be 0e79 2c3e 6edc 15be 01a9 0dbd
00000030: 5d58 5fbe 0895 87bd 967b 29be 771a 5fbd
00000040: fe1b 2f3e 5f25 a3bd 611b 8bbd b0e8 0d3e
00000050: df6a 183e ee76 363d 2822 cabe deee 1bbe
00000060: f0dc db3d 90f3 d5bd c8ae 92be 5329 33bb
00000070: a729 9e3e 08e9 8abe 336e f93d 4ecf b13d
00000080: f053 053e f24a 3dbe 47b7 abbe 8423 18bd
00000090: 62bb 7abd 8b13 ecbc 9eac 23be 4e85 4abe
000000a0: ac6e 29be 6faa c03e 193c 43be 3b9f 8b3d
000000b0: 1c7b 8a3d ea87 1ebe 32a3 71bd 8e2d 82be
000000c0: 6ac0 f73d 0cf8 0f3c 5f7a 77be a053 903e
000000d0: 7d90 92bc e520 233e 2f0f 81bc 3cca a9be
000000e0: c43d 1cbe 48e5 c8bc 48ea 593e 4dae 07be
000000f0: 40bd 6c3e 926e 0dbd f3a2 24be 6c94 20be
00000100: 740d 383d 1a8e f33d 7555 29be 314f 2e3c
00000110: b9df 52bc 65e5 d13d 5ec1 cabc e831 3cbd
00000120: ea89 62bd 1f05 9b3e 596a 3cbe 13e1 acbc
00000130: 9564 443e 1f03 11be d3a3 b73e f1ad 1b3e
00000140: 708b 01be 80b1 433e bd7c 003e 7466 8cbd
00000150: a203 793d 7b0b 6b3e 5504 2d3e 995e a8be
00000160: e593 3a3e d0c0 80bd 1285 00be 6ff4 583e
00000170: bca9 1b3e 077a 9a3e dce1 c33d a523 413b
00000180: 918b dd3c c301 813c 86ef 3b3e 20cc c9be
00000190: a212 42bd ef4a 543e 9764 863b be17 b53d
000001a0: 537b 8a3d 8747 04bd a055 e6bd 06c9 0ebe
000001b0: 1146 cfbb cf3d 7cbd bbe0 34bd 0e12 51be
000001c0: 2cdf ce3d 11a9 eb3c 8948 77be ecae ac3d
000001d0: 877a 95bd 5b4b 8dbd 3cef 46be 7142 833e
000001e0: a2b0 ddbe bbbb dcbb 65cb 8bbe def5 16be
000001f0: 86eb b63d d227 e3be 2338 5cbd d810 8c3e
00000200: 9ac5 a3be bd7b d13d 238b 403e 1daa 2f3d
00000210: 4ce7 e5bd bc07 dbbd 6545 86be bc5f 613e
00000220: 4e6c b4bc e2de c6bd 5cb9 0b3e 69ea d8be
00000230: 2c8c 983e 831c 88bd 9dbd 8abd 059b b43e
00000240: cf72 abbd 23f1 c2bd 5d10 9d3e cd7f 70be
00000250: b535 e3bd 1729 d6bd 8a74 c4bc 1c05 0cbd
00000260: d2a8 413e 3896 5cbe e25a 95bd 4bad 063e
00000270: 61fe 95bd 7fe3 60be 9c54 333d 1a5f e6bb
00000280: 0f73 e0be 5a45 0b3e 354b e9bd e551 553c
00000290: 36a4 68bd f0d4 4a3e 0c6c 763e 4475 03be
000002a0: 14f8 bf3d 80d9 8c3d e5c5 38bc 5ded 43be
000002b0: c6b6 fdbd c839 263e 7ed2 1bbe 9cb5 a03d
000002c0: f5fc d7bd d235 56be 2ac4 56be f8bd b0bd
000002d0: 7a25 7e3e 4868 04be 5231 64be 120e 28be
000002e0: 3a24 19bd ac87 8fbe f852 a13d 7b22 223e
000002f0: 928c 933e c8bb 053e e28f 123d d893 0c3d
00000300: af16 53bc 31db b4bc a102 c5bd cde4 18bc
00000310: 7e53 103f abac 823e fa20 94be 2d73 d93d
00000320: fb93 95bd af82 26bd a27a 093e fc2e 0dbe
00000330: 05ef 44bc 1e76 0bbe 5ce5 a4be acba 83bd
00000340: 4bfe 45bc f7db 623d b581 5ebd 61d8 963c
00000350: 506c 673e 17e2 a4be 71d1 7ebe f33c c03d
00000360: 625d 91be 676b eb3d dfbd 58be 6c18 b73d
00000370: 0aaa ca3d e82e 6b3d ea21 5cbe 4be1 263e
00000380: 9481 513d 6d8a 2a3e 0610 3bbe 876c 94bd
00000390: 64a3 0d3e b29b ab3c 6050 1cbd 3f55 0cbe
000003a0: bc8c 36bb 34a6 88bd efba 3b3e 8f26 2c3e
000003b0: 09d4 b63c bc61 80bd 9f3d 36bd 01dc b53e
000003c0: ed5c 6a3e 3ee3 7ebe 47b8 673e 86ed 013d
000003d0: 5e65 90bd 4621 b93d 4eb2 64be cad2 21bd
000003e0: 34b2 d4be f754 3f3d 4bc4 8abe 5481 27bd
000003f0: 7d10 353e 8c84 91bd c71d 17be 97fb 6f3e

bias f4 [64]
0.011077277 0.031334877 0.03335923 -0.053597156 0.05256002 -0.032573026 -0.009732798 -0.02772601
0.047426708 -0.02950449 -0.04003005 -0.05241149 -0.046629287 0.04787142 0.046896372 -0.051961638
-0.029087678 0.046954617 -0.04059093 -0.02379637 0.043657385 -0.022661911 0.035712387 0.06025349
-0.05793918 0.064606644 0.024020663 0.026453016 0.0510969 0.021949831 0.04256957 -0.036365908
0.034761205 -0.06900073 0.033680238 0.03977693 -0.038223185 -0.019050067 -0.017504558 0.05295442
0.042501535 -0.073009275 0.018564345 -0.051993854 0.021024719 0.041676752 0.057113603 -0.0034789236
0.009855309 0.03650312 0.053714044 0.054856185 0.060838755 0.031381037 -0.021204513 0.04333524
0.045702927 -0.0047058044 -0.026710205 -0.02884758 -0.04628368 -0.03444152 0.055729385 0.041140087
00000000: 787d 353c 0059 003d b0a3 083d b188 5bbd
00000010: 2d49 573d 4b6b 05bd 5076 1fbc a821 e3bc
00000020: 8242 423d 66b3 f1bc 8df6 23bd 6ead 56bd
00000030: 5afe 3ebd d214 443d 6916 403d bad5 54bd
00000040: 4849 eebc 7c53 403d ad42 26bd 9bf0 c2bc
00000050: 16d2 323d 79a5 b9bc 2747 123d 5dcc 763d
00000060: a251 6dbd 7d50 843d fbc6 c43c ffb3 d83c
00000070: fc4a 513d 22d0 b33c 6e5d 2e3d 6bf4 14bd
00000080: c461 0e3d 4150 8dbd 4af4 093d 22ed 223d
00000090: ea8f 1cbd e30e 9cbc b865 8fbc bce6 583d
000000a0: 1716 2e3d e385 95bd 4114 983c 82f7 54bd
000000b0: 083c ac3c 3eb5 2a3d f4ef 693d a7fe 63bb
000000c0: 2978 213c 4c84 153d 4203 5c3d e1b0 603d
000000d0: 0f32 793d 6789 003d 16b5 adbc 4b80 313d
000000e0: fe32 3b3d 2633 9abb 5ccf dabc c351 ecbc
000000f0: f593 3dbd 8d12 0dbd 7f44 643d 8282 283d

weight f4 [1, 64]
-0.008099059 -0.015783537 -0.100535154 0.07079681 -0.05530897 0.031148273 -0.008826369 0.11471853
-0.24589743 0.19601288 0.005677335 0.034187756 0.15107198 -0.13513476 -0.34730768 0.19541827
0.31586096 -0.05023542 0.21380074 0.0023828307 -0.10525532 0.11006288 -0.024539588 -0.10772748
0.08827341 -0.14784797 -0.14370577 -0.144108 -0.1394226 -0.09445567 -0.13708186 0.14629562
-0.15047762 0.1230606 -0.15081547 -0.025931066 0.15370555 0.026418535 0.33399856 -0.38650295
-0.34518167 0.16601945 -0.06239674 0.17789768 -0.06861846 -0.04316246 -0.022096677 0.0063467994
-0.015094843 -0.15286711 -0.077961974 -0.06513021 -0.021889297 -0.19104773 0.03781634 -0.031561352
-0.08792568 -0.0025678256 0.15760306 0.30386776 0.2597176 0.26632977 -0.10162229 -0.05278232
00000000: eab1 04bc 7a4c 81bc 60e5 cdbd ebfd 903d
00000010: a98b 62bd aa2a ff3c 7a9c 10bc 8cf1 ea3d
00000020: 89cc 7bbe 9ab7 483e f008 ba3b 7608 0c3d
00000030: 9db2 1a3e c460 0abe 50d2 b1be ba1b 483e
00000040: 87b8 a13e a8c3 4dbd 95ee 5a3e 4429 1c3b
00000050: 1a90 d7bd a668 e13d 3f07 c9bc 3aa0 dcbd
00000060: b1c8 b43d 7565 17be 9b27 13be 0c91 13be
00000070: ccc4 0ebe f971 c1bd 305f 0cbe 85ce 153e
00000080: ce16 1abe 3207 fc3d 5f6f 1abe 636d d4bc
00000090: fd64 1d3e af6b d83c dc01 ab3e b7e3 c5be
000000a0: a7bb b0be 0101 2a3e b993 7fbd cf2a 363e
000000b0: d687 8cbd 1fcb 30bd 1704 b5bc d0f8 cf3b
000000c0: 5c50 77bc 3289 1cbe 87aa 9fbd fd62 85bd
000000d0: 2f51 b3bc 04a2 43be 4ee5 1a3d 7a46 01bd
000000e0: 6112 b4bd f748 28bb b262 213e 8e94 9b3e
000000f0: b5f9 843e 605c 883e 591f d0bd 4632 58bd
