bk_results_109/simple/ppo/seed_1_step_50_ms_ce_minp2_maxp_2_mina_5_maxa_5_tn_3000_act_10.pt (torch, 132838 bytes, 16 tensors)

weight f4 [64, 100]
0.12152592 0.042749252 0.02301803 0.035267547 -0.036534376 -0.1511405 0.09620124 -0.11499895
-0.1085084 -0.06834043 0.13836248 0.008709047 -0.14878137 -0.095377535 0.06899204 0.067042165
0.008238018 -0.17031859 0.03909035 -0.0004815238 -0.2098545 -0.034575846 -0.3635282 0.17108744
-0.09123913 -0.11765542 0.14735684 -0.1505731 0.025102971 0.13926041 0.14217818 0.08494984
-0.034656167 0.20147525 -0.16924262 -0.14268723 0.087956004 0.066185385 0.07155764 0.19999085
0.22332913 -0.044548497 0.17095621 0.07906024 0.040131476 -0.11819704 -0.123428226 0.056894455
-0.10124787 0.12383459 -0.15478796 -0.051771015 -0.18915011 -0.20733742 -0.10934338 -0.054125763
-0.17853202 0.12463223 -0.18132234 0.06414837 -0.006302229 -0.10461539 -0.0012608145 0.022502152
0.049237773 -0.0687135 0.10461193 0.108138606 -0.08626967 0.1774077 -0.01960803 -0.06637882
-0.113308094 0.12894554 0.22113733 -0.4181837 -0.2532798 0.06996955 -0.2574567 0.29445544
-0.15858707 0.23780625 0.15973832 -0.10690624 -0.077167295 -0.04854674 0.18393508 -0.30730996
-0.091701396 0.00033591117 -0.25373247 0.1854276 0.0796942 0.06520899 -0.084884584 -0.028676676
0.3439639 0.22496653 0.030168872 0.053323265 -0.13292126 -0.23148833 -0.028048938 -0.073164254
-0.18895657 0.13746668 -0.27773452 -0.17484264 0.022270381 0.09050778 -0.12565151 0.08267581
0.06923669 0.21001847 -0.1653189 -0.14084083 0.21388315 0.112830095 -0.01832666 0.1004089
-0.0012462551 0.1730957 -0.08233911 0.18478954 -0.11971915 -0.22389902 0.17920151 -0.04092528
0.23078194 -0.0332938 0.044051245 -0.13133955 0.08287644 0.4189758 -0.38265723 -0.045749284
0.101533614 -0.059694525 -0.26698905 -0.14098006 -0.004045085 -0.046635937 -0.12440205 0.09729626
0.054625437 -0.093464665 0.23466812 0.09184357 0.22679123 -0.016494326 -0.007104544 -0.07163961
0.018450992 -0.23031895 0.08425461 0.24102782 -0.116711125 0.22403482 -0.026389614 0.0840177
-0.075050086 0.055152047 -0.12284486 0.086679965 -0.21786368 0.023010014 -0.014536133 -0.043425303
-0.17276584 0.07935618 0.20603696 -0.052202765 0.16507341 -0.12016568 -0.03284952 -0.14293337
0.14011863 0.04535305 0.07555341 0.08542274 0.13443053 -0.16533071 -0.15530133 0.013634343
-0.26001397 0.00883864 -0.08334501 -0.05095071 -0.035727933 0.11388726 0.21181649 -0.03847557
-0.22877598 0.12562415 0.15391634 -0.06885938 -0.055986878 -0.12850289 -0.012966317 0.09178234
-0.22103852 0.1980242 -0.007696181 -0.051057894 0.18618098 -0.110608205 0.099333555 -0.055999275
-0.047617394 0.29581812 0.15353853 0.30628997 0.014669513 -0.13236928 0.15160717 0.123853795
0.052327357 0.020813128 0.117633395 -0.19758527 -0.04396798 -0.102572486 -0.09227017 -0.05470372
-0.021380806 0.05804725 -0.23721486 -0.013546414 0.05290636 -0.15621519 0.05589145 -0.076378495
-0.031188844 0.27304748 0.3337138 -0.008516227 0.06777482 0.05295309 -0.27356946 0.11363883
0.015996927 0.10767353 0.19432165 0.2909401 0.12709586 0.11056399 -0.023142105 -0.012742732
0.14496276 0.047077615 -0.09412632 -0.17556185 -0.023401259 -0.23871118 0.02749747 -0.066391654
00000000: 95e2 f83d d719 2f3d 4f90 bc3c b474 103d
00000010: 12a5 15bd 93c4 1abe 2805 c53d 9284 ebbd
00000020: a739 debd 11f6 8bbd e5ae 0d3e 64b0 0e3c
00000030: 255a 18be 4c55 c3bd b34b 8d3d 674d 893d
00000040: c0f8 063c ff67 2ebe 341d 203d 0875 fcb9
00000050: 19e4 56be 679f 0dbd 5e20 babe 8c31 2f3e
00000060: 95db babd 53f5 f0bd b6e4 163e d62f 1abe
00000070: bfa4 cd3c 489a 0e3e 2897 113e 2ffa ad3d
00000080: a0f3 0dbd 874f 4e3e f04d 2dbe 9a1c 12be
00000090: 4722 b43d 348c 873d d08c 923d 67ca 4c3e
000000a0: 64b0 643e 7c78 36bd 250f 2f3e 56ea a13d
000000b0: e760 243d 4a11 f2bd f0c7 fcbd 290a 693d
000000c0: 0b5b cfbd fd9c fd3d bc80 1ebe d80d 54bd
000000d0: 91b0 41be 4350 54be 6cef dfbd fab2 5dbd
000000e0: 19d1 36be 2f3f ff3d 90ac 39be 3860 833d
000000f0: ee82 cebb 9840 d6bd ea41 a5ba 6f56 b83c
00000100: 8cad 493d aab9 8cbd c83e d63d c677 dd3d
00000110: 27ae b0bd 5daa 353e 05a1 a0bc 9ef1 87bd
00000120: 130e e8bd 4d0a 043e d371 623e 2d1c d6be
00000130: e4ad 81be 324c 8f3d 5dd1 83be ddc2 963e
00000140: a664 22be 7b83 733e 7192 233e a9f1 dabd
00000150: e309 9ebd f2d8 46bd 7a59 3c3e bb57 9dbe
00000160: f1cd bbbd 3c1d b039 39e9 81be bce0 3d3e
00000170: b636 a33d 4a8c 853d f8d7 adbd 59eb eabc
00000180: 091c b03e a05d 663e b624 f73c 7f69 5a3d
00000190: 831c 08be 470b 6dbe e3c6 e5bc 24d7 95bd
000001a0: d57d 41be 11c4 0c3e 3833 8ebe f309 33be
000001b0: 6070 b63c 255c b93d caaa 00be ef51 a93d
000001c0: f7cb 8d3d 150f 573e 5c49 29be 9438 10be
000001d0: 2f04 5b3e 7713 e73d cb21 96bc 2ea3 cd3d
000001e0: 6259 a3ba 0040 313e 68a1 a8bd 7839 3d3e
000001f0: 502f f5bd c945 65be 9a80 373e 44a1 27bd
00000200: 1a52 6c3e 145f 08bd 146f 343d e07d 06be
00000210: 1fbb a93d ff83 d63e a6eb c3be 9a63 3bbd
00000220: dbf0 cf3d 3f82 74bd cab2 88be 145d 10be
00000230: a28c 84bb 5305 3fbd 81c6 febd 4343 c73d
00000240: ecbe 5f3d 676a bfbd d74c 703e 7b18 bc3d
00000250: f63b 683e 1c1f 87bc 3ccd e8bb cab7 92bd
00000260: 8926 973c bbd8 6bbe ae8d ac3d ffcf 763e
00000270: 3e06 efbd 6269 653e 082f d8bc 7911 ac3d
00000280: dcb3 99bd 1de7 613d 1696 fbbd 4485 b13d
00000290: a817 5fbe 7f7f bc3c f628 6ebc bbde 31bd
000002a0: 87e9 30be 7e85 a23d 5afb 523e 91d2 55bd
000002b0: 0109 293e 6d19 f6bd 388d 06bd 205d 12be
000002c0: 427b 0f3e 1fc4 393d bfbb 9a3d 1ef2 ae3d
000002d0: 28a8 093e 744c 29be 5007 1fbe 9462 5f3c
000002e0: 8d20 85be f1cf 103c cab0 aabd b1b1 50bd
000002f0: 7457 12bd b93d e93d 6ce6 583e 8f98 1dbd
00000300: 4044 6abe 9ea3 003e 3f9c 1d3e 2606 8dbd
00000310: 7f52 65bd 4396 03be ad70 54bc 61f8 bb3d
00000320: ec57 62be dbc6 4a3e 3f30 fcbb 1522 51bd
00000330: 3aa6 3e3e 8e86 e2bd 646f cb3d 7f5f 65bd
00000340: 750a 43bd 7975 973e 3439 1d3e 0ad2 9c3e
00000350: 6658 703c d08b 07be e93e 1b3e 0fa7 fd3d
00000360: 3655 563d 4b80 aa3c c7e9 f03d cb53 4abe
00000370: c517 34bd 8611 d2bd 25f8 bcbd 0211 60bd
00000380: cd26 afbc f4c2 6d3d 74e8 72be c7f1 5dbc
00000390: 57b4 583d e0f6 1fbe 6fee 643d 546c 9cbd
000003a0: bf7f ffbc e1cc 8b3e 89dc aa3e a587 0bbc
000003b0: 86cd 8a3d 57e5 583d 4c11 8cbe 7abb e83d
000003c0: fd0b 833c f183 dc3d 41fc 463e 1af6 943e
000003d0: 6b25 023e 606f e23d 8394 bdbc e4c6 50bc
000003e0: 1e71 143e 75d4 403d 4dc5 c0bd 7cc6 33be
000003f0: ffb3 bfbc b470 74be 6042 e13c 59f8 87bd

bias f4 [64]
0.022053083 0.017293526 -0.0061251367 -0.0063338773 0.0014954503 0.0036873529 -0.0038451054 0.011839047
0.0032988193 -0.0029747281 0.013902785 0.0031298331 0.0034231103 -0.014701304 0.0015678129 0.0006486946
-0.0036396245 0.010115423 0.00011572824 0.009060624 0.009161097 0.009260237 0.0150297955 -0.010072288
0.028859433 -0.0040971916 0.0038046066 0.03160214 0.008144851 0.0021804692 0.011493054 0.0020689222
-0.005489887 0.020179193 -0.016182013 -0.0029827238 -0.0008904072 0.019940898 0.022179801 0.007550118
-0.0023657836 -0.015334416 0.017005919 0.001412085 -0.024906905 -0.004384797 0.0145884035 -0.0046604
0.00040688342 0.00070325297 0.007064117 0.011633842 0.00607624 0.011344805 0.0033840816 0.0040528914
-0.004496254 -0.0031557526 0.018626768 0.006409144 -0.0020457387 0.0101697985 -0.020377757 -0.0024794242
00000000: aba8 b43c 27ab 8d3c 5fb5 c8bb 6a8c cfbb
00000010: fc02 c43a 84a7 713b 2afe 7bbb 90f8 413c
00000020: 0131 583b a8f3 42bb 82c8 633c e31d 4d3b
00000030: 4356 603b bddd 70bc 127f cd3a 280d 2a3a
00000040: c486 6ebb 29bb 253c 20b3 f238 0373 143c
00000050: 6d18 163c 40b8 173c 883f 763c 3d06 25bc
00000060: 9e6a ec3c bc41 86bb b556 793b 3f71 013d
00000070: fb71 053c 34e6 0e3b 5d4d 3c3c c196 073b
00000080: 83e4 b3bb d64e a53c 2490 84bc cd79 43bb
00000090: 376a 69ba 185b a33c 6ab2 b53c fb66 f73b
000000a0: 430b 1bbb 343d 7bbc ff4f 8b3c b615 b93a
000000b0: 9109 ccbc 58ae 8fbb 3304 6f3c 45b6 98bb
000000c0: f852 d539 825a 383a 1c7a e73b df9b 3e3c
000000d0: 321b c73b 90df 393c 78c7 5d3b 1ece 843b
000000e0: 5055 93bb bed0 4ebb 2a97 983c cc03 d23b
000000f0: cd11 06bb 3a9f 263c 41ef a6bc d67d 22bb

weight f4 [64, 64]
-0.089410536 -0.057077974 -0.14240386 -0.03439656 -0.16183646 0.29250678 -0.14276628 -0.23489195
-0.30088925 -0.045618176 0.093882814 0.06584349 -0.07697603 -0.104974255 -0.14228621 0.09013876
0.30079108 0.04574417 -0.21141307 -0.09916322 -0.5178329 -0.20262232 0.00874225 0.073351756
-0.22274701 -0.021348376 -0.11355746 0.3678295 0.03368898 -0.019388737 0.110179245 0.4281767
-0.0837683 0.028079245 -0.021196049 -0.039675754 0.11287695 -0.09795099 0.013799137 0.19465616
0.019178487 0.039695635 0.068155825 0.14420015 0.08690038 -0.04244308 0.10687458 -0.2098437
-0.20236431 -0.32561132 0.086166546 0.0339477 0.30524594 0.09790346 -0.271075 0.18842103
0.42299896 -0.10342603 -0.101907074 0.052851997 -0.08859813 0.0014202704 0.16598564 0.12475581
0.15228859 -0.055005647 0.29566818 0.20440036 0.3938247 -0.3341249 -0.036734167 0.054990526
0.13070099 -0.07540209 0.105373845 -0.29348314 -0.007559291 -0.02006172 -0.03766284 -0.16819601
0.068605594 -0.1137259 0.17514029 0.19720565 -0.2984838 -0.19200313 0.003928087 0.07386974
-0.28054392 -0.106831744 -0.32279772 0.22914457 -0.19322388 -0.11177535 -0.032222014 -0.05908563
0.15752748 0.13501523 0.14717855 -0.049000952 0.038981494 0.112832285 0.108224295 0.15580578
0.18045154 -0.10603147 -0.036772788 -0.07129566 -0.07576356 -0.13334085 -0.16591236 0.10019497
0.51453364 0.026894294 -0.1690452 0.33237737 0.1970944 0.17683326 0.2648743 -0.05293231
0.12545356 -0.078104764 -0.19367664 0.12105315 -0.013091732 -0.059641805 0.11436084 0.21509515
0.052142866 -0.294202 -0.4135941 -0.078998774 0.033305004 -0.0067971544 -0.11052125 0.068023756
-0.14801683 0.030694319 -0.27558365 -0.23886125 0.008319173 -0.27444056 -0.017779354 -0.22981356
-0.15263939 -0.14295888 -0.07399303 -0.15803833 0.20167665 -0.21020873 -0.15285082 -0.10598949
0.11813489 0.18304528 0.07587542 -0.026065094 0.04422441 -0.3340739 0.13238841 0.09925687
-0.11182434 0.24549949 0.24549767 -0.04693155 0.20428044 -0.23721424 0.11466725 -0.14461932
0.059703663 -0.032503027 0.14294752 0.0052204276 0.25597128 -0.2301889 0.04083583 0.35425052
0.015014482 -0.27088892 0.20896246 -0.06506991 0.15929085 -0.14555143 0.18799867 -0.42877856
-0.13835274 0.011024704 -0.069474034 0.07880116 0.02859156 0.21058719 0.18201354 0.056240644
-0.06360563 -0.10128785 -0.0069242525 0.37802625 0.16506621 0.031362925 0.09354063 0.043756723
0.034702774 0.016208593 0.022692401 -0.08027071 0.305066 -0.13591817 0.24376693 -0.24255928
0.08643893 0.095702775 -0.18724988 -0.041167792 -0.15334655 -0.1887861 -0.0015795885 0.17346884
0.07527188 0.18120006 0.29872903 0.2617769 0.07321538 -0.26186496 -0.2799641 -0.27805305
-0.040834285 -0.1489382 -0.3367277 0.06379623 -0.0021397986 -0.11914604 -0.23682514 -0.1654655
-0.103498876 -0.17006786 0.56222737 -0.073764384 0.022068901 0.19655146 0.03582297 0.14879689
0.08675398 0.084680915 0.12688528 0.08265132 -0.07005973 0.12265882 -0.088840485 0.14186378
0.18846099 0.3108325 -0.026254632 -0.14210607 -0.16317843 0.09353005 -0.05433809 -0.2369643
00000000: df1c b7bd 98ca 69bd 51d2 11be 68e3 0cbd
00000010: 75b8 25be 73c3 953e 5331 12be 8487 70be
00000020: 280e 9abe 20da 3abd a245 c03d f4d8 863d
00000030: 9ca5 9dbd befc d6bd 7ab3 11be ac9a b83d
00000040: 4a01 9a3e 3d5e 3b3d ab7c 58be 1616 cbbd
00000050: b290 04bf 3a7c 4fbe a73b 0f3c 7239 963d
00000060: cb17 64be cae2 aebc d090 e8bd 2654 bc3e
00000070: 75fd 093d 21d5 9ebc a8a5 e13d fa39 db3e
00000080: b78e abbd 7206 e63c 56a3 adbc 0b83 22bd
00000090: 082c e73d 879a c8bd c715 623c f253 473e
000000a0: 341c 9d3c e497 223d 4895 8b3d 34a9 133e
000000b0: d4f8 b13d ccd8 2dbd 0fe1 da3d 44e1 56be
000000c0: 9738 4fbe 87b6 a6be 1678 b03d be0c 0b3d
000000d0: 3249 9c3e 9c81 c83d 58ca 8abe 71f1 403e
000000e0: 5293 d83e 07d1 d3bd a8b4 d0bd 567b 583d
000000f0: f072 b5bd 5e28 ba3a 24f8 293e f97f ff3d
00000100: 8af1 1b3e 9a4d 61bd d261 973e 544e 513e
00000110: 64a3 c93e 6b12 abbe 9176 16bd bf3d 613d
00000120: 7bd6 053e 696c 9abd 3ece d73d 6c43 96be
00000130: eeb3 f7bb 7a58 a4bc 5a44 1abd 933b 2cbe
00000140: 1781 8c3d 20e9 e8bd fa57 333e 47f0 493e
00000150: ded2 98be 789c 44be 2fb7 803b 0549 973d
00000160: 74a3 8fbe 9aca dabd be45 a5be e0a4 6a3e
00000170: 7bdc 45be 7aea e4bd 3bfb 03bd c603 72bd
00000180: e24e 213e 6f41 0a3e f9b5 163e 39b5 48bd
00000190: 0fab 1f3d 9d14 e73d b3a4 dd3d 8d8b 1f3e
000001a0: 4ac8 383e 0727 d9bd 109f 16bd 7603 92bd
000001b0: ed29 9bbd 818a 08be eee4 29be 0533 cd3d
000001c0: 7ab8 033f 6c51 dc3c 2f1a 2dbe 5e2d aa3e
000001d0: 1dd3 493e c713 353e 9b9d 873e 8dcf 58bd
000001e0: e676 003e 64f5 9fbd 2b53 46be b7ea f73d
000001f0: b47e 56bc f74a 74bd 0436 ea3d e741 5c3e
00000200: c293 553d a5a1 96be 9bc2 d3be 1cca a1bd
00000210: d46a 083d aaba debb f758 e2bd 0a50 8b3d
00000220: b991 17be a772 fb3c 4d19 8dbe 0b98 74be
00000230: 244d 083c 7983 8cbe 02a6 91bc 3f54 6bbe
00000240: 804d 1cbe d063 12be a889 97bd cdd4 21be
00000250: 5384 4e3e f540 57be ed84 1cbe 0511 d9bd
00000260: b5f0 f13d 3970 3b3e 9264 9b3d 7786 d5bc
00000270: a824 353d bc0b abbe d490 073e 3047 cb3d
00000280: 2904 e5bd 3864 7b3e be63 7b3e 4c3b 40bd
00000290: e42e 513e 4ae8 72be aad6 ea3d 1617 14be
000002a0: d48b 743d e521 05bd d660 123e 1f10 ab3b
000002b0: ab0e 833e a4b6 6bbe 7943 273d 5360 b53e
000002c0: 4dff 753c f4b1 8abe 41fa 553e 5f43 85bd
000002d0: 241d 233e 6f0b 15be b982 403e dd88 dbbe
000002e0: 57ac 0dbe f6a0 343c 6748 8ebd 8162 a13d
000002f0: d938 ea3c 2ba4 573e c261 3a3e 975c 663d
00000300: ab43 82bd 0170 cfbd d7e4 e2bb a88c c13e
00000310: 1e07 293e 6976 003d 3b92 bf3d 403a 333d
00000320: 7f24 0e3d e2c7 843c 6ae5 b93c f864 a4bd
00000330: 9c31 9c3e 222e 0bbe 0a9e 793e 7661 78be
00000340: e506 b13d d1ff c33d 6fbe 3fbe 8f9f 28bd
00000350: e106 1dbe 2551 41be 320a cfba d1a1 313e
00000360: 2528 9a3d 828c 393e 03f3 983e 9f07 863e
00000370: f2f1 953d 2a13 86be 7457 8fbe f85c 8ebe
00000380: da41 27bd 4183 18be 9367 acbe 99a7 823d
00000390: dd3b 0cbb d702 f4bd 4a82 72be ca6f 29be
000003a0: 38f7 d3bd 4526 2ebe 22ee 0f3f c811 97bd
000003b0: d7c9 b43c c944 493e 1bbb 123d 365e 183e
000003c0: 12ac b13d 306d ad3d 37ee 013e 1845 a93d
000003d0: 7a7b 8fbd 8c34 fb3d 00f2 b5bd bd44 113e
000003e0: ebfb 403e 7025 9f3e f413 d7bc 4184 11be
000003f0: 3f18 27be af8c bf3d 9e91 5ebd c5a6 72be

bias f4 [64]
0.01685567 0.029043248 -0.047492996 -0.039494142 -0.047624316 0.009630262 -0.01863017 0.0063290275
-0.029581709 0.010990578 -0.021379203 0.020656208 0.005660897 0.0024410533 -0.02142471 -0.029797802
0.03201252 -0.0027213553 -0.0047269147 -0.010597079 0.022670945 0.010081322 -0.008345686 0.017043263
0.03945761 0.033511788 -0.0028234962 -0.010248974 0.025112802 0.011854283 -0.016841695 -0.025483437
0.029720344 -0.040535543 -0.020702796 0.036220264 0.005579312 -0.075181045 -0.016179256 0.00032885539
0.013494078 0.0048060087 -0.049710378 -0.027272424 0.009274668 0.0005654556 -0.031764854 -0.03380859
-0.0011651965 -0.015815798 -0.027347928 0.01037993 -0.050570335 -0.0013242218 -0.0080765085 -0.030141925
0.00023860025 0.0012179575 0.046082035 -0.026245091 0.031237941 -0.0030909555 0.051236484 0.046197705
00000000: e714 8a3c 1bec ed3c 0488 42bd 9cc4 21bd
00000010: b711 43bd 3fc8 1d3c 4c9e 98bc bb63 cf3b
00000020: 5755 f2bc d311 343c 7023 afbc 3537 a93c
00000030: 0c7f b93b 14fa 1f3b e082 afbc 851a f4bc
00000040: 8f1f 033d c458 32bb 3ce4 9abb 5f9f 2dbc
00000050: 6bb8 b93c 212c 253c 58bc 08bc 509e 8b3c
00000060: 4e9e 213d a843 093d 680a 39bb 50eb 27bc
00000070: 5db9 cd3c 7738 423c 98f7 89bc a4c2 d0bc
00000080: 1478 f33c 9908 26bd e998 a9bc b35b 143d
00000090: a9d2 b63b 85f8 99bd 5c8a 84bc 396a ac39
000000a0: 4416 5d3c b97b 9d3b 1c9d 4bbd 6b6a dfbc
000000b0: c7f4 173c 153b 143a dd1b 02bd e07a 0abd
000000c0: 82b9 98ba 2290 81bc c308 e0bc 9510 2a3c
000000d0: d722 4fbd 8391 adba 5553 04bc 33ec f6bc
000000e0: c430 7a39 dfa3 9f3a 84c0 3c3d f2ff d6bc
000000f0: b6e6 ff3c a191 4abb 59dd 513d ce39 3d3d

weight f4 [64, 64]
-0.11836115 -0.09888363 -0.20636477 -0.51838666 0.075708695 0.107571 0.06846189 0.29298156
-0.15083563 -0.031887855 0.030955419 0.12895264 -0.40922487 0.0987201 0.014926907 -0.1321992
-0.17026712 -0.053309884 -0.0765695 -0.0201975 0.28885093 -0.23389493 -0.03687765 -0.17763396
0.020008657 0.36339432 0.27961025 0.30466786 0.19129255 -0.2461996 0.03293967 -0.047370978
-0.04535147 0.00041337498 0.09117026 0.06755488 0.14664167 0.05329754 0.05676815 0.1877972
0.058020156 -0.04971162 -0.16798276 0.21609093 -0.4492918 -0.19241825 -0.2480405 0.031884726
-0.20890634 -0.07935661 0.039981775 0.061190747 -0.11623525 0.07775372 0.22299223 -0.24176958
0.061390743 -0.10557583 -0.009964161 0.05317843 -0.025892533 0.15294303 0.16615652 -0.024881871
0.10845282 -0.3426225 -0.036587268 0.026736936 -0.08767032 -0.19666828 0.1781471 0.20044702
0.21188146 0.08737417 0.024854872 -0.048089772 0.008807613 -0.27851412 0.050256357 -0.17365585
0.04531179 -0.35070184 0.086902186 0.013602011 0.3315259 0.002001925 0.14204766 0.0224537
0.27716282 0.13951543 0.20891792 -0.10986187 -0.30647302 -0.25008422 0.12377199 -0.34674034
0.11215487 -0.15536693 -0.1495246 -0.0068424144 0.12117681 0.2969345 -0.17268726 0.01867969
-0.15418282 0.2293724 0.03103145 -0.026320536 0.09186109 0.0035214573 0.22973603 -0.23055124
-0.14063872 0.108419694 -0.108895704 0.027182586 0.3026567 -0.14348239 0.18856868 0.195484
-0.20161538 -0.11930047 -0.05707057 -0.06396395 0.11303837 0.06683218 -0.25097555 0.3051691
-0.28970432 0.13840589 0.28794417 0.09749171 -0.21748753 -0.1567707 0.13879643 -0.31447628
0.0033463642 -0.4442849 0.34729582 0.20155871 0.058788147 -0.031917997 0.009531613 -0.3765603
-0.1893783 -0.017195383 0.28221247 -0.1433335 0.20409371 0.2922112 -0.07512519 0.03238273
0.11899168 0.16747256 -0.10927323 0.17432728 -0.036987267 0.014087313 -0.11555755 0.062006414
0.20684008 0.06918456 -0.23358859 0.068076044 -0.28101024 -0.07725113 -0.192768 0.23087607
-0.23036268 -0.044177454 -0.27612507 0.036484633 -0.06096292 0.34996024 -0.027885268 -0.038835112
-0.03129465 -0.035044424 0.049079847 0.1822355 -0.25793427 -0.15581904 0.14922263 0.019955989
-0.11713248 0.15051585 0.08474111 -0.020212708 0.12664673 0.15095551 -0.08583898 -0.21554963
0.01922938 0.04189671 -0.019610785 0.13381325 -0.019766007 0.27233437 0.0019903472 0.013176585
-0.02077552 0.08755476 0.14069706 0.10729717 0.18685797 -0.23934914 -0.24151988 0.24044523
0.10323396 0.065072134 -0.22051108 0.25924703 0.5083985 0.17110334 0.12958886 0.13280545
-0.19199876 0.042784657 0.32396793 -0.028364478 0.0799346 0.011382392 0.24667096 0.44911945
0.15637544 0.17436855 0.04371739 0.2797662 0.10758718 -0.09249086 -0.19609012 -0.021113425
-0.16335586 0.062410608 -0.33044535 0.13131216 -0.13088904 -0.16767724 0.006925673 -0.2904484
0.11696337 -0.030322907 0.19024093 0.032727364 0.13679804 -0.12505399 -0.1491633 -0.023920497
0.17090222 0.11795006 -0.059829783 -0.14402851 0.00078031793 -0.26290613 -0.21445426 -0.1769144
00000000: 5567 f2bd 8083 cabd 4951 53be fdb4 04bf
00000010: 290d 9b3d 2f4e dc3d bf35 8c3d ae01 963e
00000020: a874 1abe d79c 02bd 3896 fd3c 290c 043e
00000030: ec85 d1be c42d ca3d fc8f 743c 3a5f 07be
00000040: 815a 2ebe 775b 5abd 78d0 9cbd 3a75 a5bc
00000050: 45e4 933e 2782 6fbe 050d 17bd ade5 35be
00000060: 32e9 a33c d20e ba3e 1329 8f3e 6dfd 9b3e
00000070: 32e2 433e bf1b 7cbe bfeb 063d 1208 42bd
00000080: 77c2 39bd 40ba d839 79b7 ba3d 375a 8a3d
00000090: 3c29 163e 854e 5a3d b885 683d e94d 403e
000000a0: 8ba6 6d3d 699e 4bbd ac03 2cbe f146 5d3e
000000b0: 9309 e6be 4a09 45be 54fe 7dbe 8f99 023d
000000c0: 8beb 55be b885 a2bd eec3 233d 26a3 7a3d
000000d0: bf0c eebd 583d 9f3d 1358 643e 7292 77be
000000e0: dc74 7b3d 2438 d8bd b840 23bc a0d1 593d
000000f0: 941c d4bc 199d 1c3e ef24 2a3e 11d5 cbbc
00000100: 831c de3d 376c afbe 88dc 15bd 6b07 db3c
00000110: 7f8c b3bd 6963 49be 326c 363e fc41 4d3e
00000120: 74f7 583e 3bf1 b23d 729c cb3c c8f9 44bd
00000130: ce4d 103c 6799 8ebe 9cd9 4d3d d7d2 31be
00000140: db98 393d 318f b3be c6f9 b13d f8da 5e3c
00000150: c3bd a93e ba32 033b f174 113e d2f0 b73c
00000160: 49e8 8d3e 22dd 0e3e 94ee 553e 43ff e0bd
00000170: 08ea 9cbe 0a0b 80be 2b7c fd3d f387 b1be
00000180: 74b1 e53d 8218 1fbe fa1c 19be 5536 e0bb
00000190: 8c2b f83d cc07 983e eed4 30be 2606 993c
000001a0: 1ae2 1dbe 99e0 6a3e ab35 fe3c 2a9e d7bc
000001b0: ab21 bc3d 40c8 663b ec3f 6b3e a015 6cbe
000001c0: 9903 10be 250b de3d b604 dfbd 04ae de3c
000001d0: d2f5 9a3e 0ced 12be 2618 413e f52c 483e
000001e0: 4374 4ebe ce53 f4bd d4c2 69bd 88ff 82bd
000001f0: a980 e73d 4fdf 883d de7f 80be 203f 9c3e
00000200: 2054 94be 46ba 0d3e 6b6d 933e bca9 c73d
00000210: 0db5 5ebe 8088 20be a720 0e3e 0903 a1be
00000220: ad4e 5b3b 4f79 e3be c2d0 b13e 6865 4e3e
00000230: d7cb 703d 72bc 02bd 7c2a 1c3c 83cc c0be
00000240: 63ec 41be 55dd 8cbc 277e 903e 04c6 12be
00000250: f1fd 503e b59c 953e 3cdb 99bd c1a3 043d
00000260: e9b1 f33d ed7d 2b3e a5ca dfbd da82 323e
00000270: f67f 17bd 79ce 663c 70a9 ecbd 70fa 7d3d
00000280: e3cd 533e a2b0 8d3d d931 6fbe 746b 8b3d
00000290: 93e0 8fbe d735 9ebd f964 45be c76a 6c3e
000002a0: 32e4 6bbe 6bf3 34bd 4460 8dbe e970 153d
000002b0: 41b4 79bd fd2d b33e a56f e4bc 9111 1fbd
000002c0: d22e 00bd be8a 0fbd f307 493d f19b 3a3e
000002d0: f60f 84be 078f 1fbe d1cd 183e be7a a33c
000002e0: 27e3 efbd d420 1a3e bf8c ad3d 1f95 a5bc
000002f0: aeaf 013e 1594 1a3e 59cc afbd 0bb9 5cbe
00000300: ef86 9d3c e29b 2b3d cca6 a0bc 5706 093e
00000310: 52ec a1bc 696f 8b3e 7c70 023b 9ae2 573c
00000320: 6c31 aabc e94f b33d e412 103e 9ebe db3d
00000330: b257 3f3e f117 75be fd50 77be 4637 763e
00000340: 546c d33d 8a44 853d a8cd 61be 07bc 843e
00000350: 6726 023f b735 2f3e f1b2 043e 27fe 073e
00000360: 539b 44be f73e 2f3d 20df a53e 9f5c e8bc
00000370: c0b4 a33d 367d 3a3c 5097 7c3e fcf2 e53e
00000380: e220 203e ab8d 323e 0211 333d 843d 8f3e
00000390: ab56 dc3d d96b bdbd d9cb 48be 10f6 acbc
000003a0: c246 27be 44a2 7f3d 2230 a9be b276 063e
000003b0: c707 06be 95b3 2bbe c2f0 e23b a7b5 94be
000003c0: 7e8a ef3d bf67 f8bc 85ce 423e 210d 063d
000003d0: c914 0c3e 270e 00be 44be 18be ebf4 c3bc
000003e0: fe00 2f3e cd8f f13d 1310 75bd 367c 13be
000003f0: 408e 4c3a a29b 86be e699 5bbe 0c29 35be

bias f4 [64]
0.039984155 0.026407791 0.049490545 -0.004732295 -0.025699826 0.06844335 0.011129674 0.020591103
0.005996535 0.019963546 0.010270833 -0.0055520874 -0.0265999 0.0033803077 -0.06848349 0.05262466
-0.014937133 0.0078402255 -0.01858313 0.0055882605 0.005791533 -0.0012433503 0.023967143 -0.023279706
-0.0013339233 -0.04336751 0.026207503 0.001552375 -0.0071977703 -0.030201435 0.05479589 0.0074222577
-0.009724186 0.008865553 -0.0043876204 -0.038327433 0.002922318 0.006417427 -0.0043043876 0.02541432
-0.03414031 -0.02282166 -0.024795039 -0.011120418 0.0077874893 0.0061738254 0.010109474 0.07727131
-0.008267576 0.012340798 -0.028286343 0.017270235 -0.048078068 0.00089784677 0.008755601 -0.011191843
-0.02575108 -0.034411304 -0.024418825 -0.029876756 0.028820083 -0.011188011 -0.025738712 0.03135833
00000000: 6dc6 233d 2755 d83c 99b6 4a3d 5e11 9bbb
00000010: 7188 d2bc 072c 8c3d 3c59 363c acae a83c
00000020: 957e c43b 978a a33c ff46 283c 49ee b5bb
00000030: 09e8 d9bc 2788 5d3b 1241 8cbd f58c 573d
00000040: e0ba 74bc 4a74 003c a63b 98bc ba1d b73b
00000050: e6c6 bd3b eaf7 a2ba be56 c43c 15b5 bebc
00000060: 0ad7 aeba 21a2 31bd 1eb1 d63c 1079 cb3a
00000070: 46db ebbb 0069 f7bc a871 603d 6936 f33b
00000080: 3152 1fbc d340 113c 07c6 8fbb 3afd 1cbd
00000090: 5c84 3f3b 4849 d23b d20b 8dbb b131 d03c
000000a0: b6d6 0bbd 7df4 babc f71e cbbc 6a32 36bc
000000b0: 322e ff3b cd4d ca3b 35a2 253c 6c40 9e3d
000000c0: ba74 07bc 0f31 4a3c c3b8 e7bc 4f7a 8d3c
000000d0: 82ed 44bd 7a5d 6b3a a773 0f3c fe5d 37bc
000000e0: eef3 d2bc def2 0cbd fd09 c8bc 19c0 f4bc
000000f0: 1818 ec3c eb4d 37bc fed9 d2bc 9871 003d

weight f4 [64, 100]
-0.009112334 0.14572877 -0.029290728 -0.20148139 -0.07129084 -0.24997903 0.15889335 -0.0020340001
0.071988374 -0.21336997 0.01029272 0.21396413 -0.015831834 -0.051216327 -0.120478846 -0.0190192
0.15546814 -0.07379717 -0.07698433 0.092202306 0.2085986 0.05045218 0.07310273 -0.06627994
-0.15097885 -0.22621474 -0.22904527 0.1261509 0.12665984 0.13289632 0.21268503 0.09806438
0.05986419 -0.032958966 0.013509389 0.15228483 -0.037692025 -0.1281936 -0.10317606 0.18573669
0.30262154 -0.15071484 -0.0430974 -0.22628924 -0.075522795 0.024655515 0.1925077 -0.059131227
0.04516633 0.12631261 0.019486943 -0.22542751 -0.04701812 -0.08813538 -0.0438326 0.03401528
-0.2268615 0.13456456 0.07443924 0.017770095 0.14231865 0.011105614 0.029716576 -0.026680876
-0.14392479 -0.08250387 -0.021243615 -0.12494337 0.088388555 0.11007581 -0.088917 0.20922446
-0.11219954 0.08423036 -0.19755328 0.0654649 0.0045346 -0.3380333 0.20640722 -0.1582257
-0.33260748 0.011071566 -0.2117199 0.24675213 -0.0007102901 -0.27525747 0.063039705 0.23668467
-0.14635855 0.030285506 0.17223142 -0.12032803 0.17403227 -0.2161165 0.11766657 0.0071596242
0.108510874 0.15042934 -0.014537645 -0.093467444 -0.07393857 0.1639881 -0.18952294 -0.02833251
0.03066602 -0.12771428 0.01350212 0.13987881 -0.056298118 0.017155323 -0.21271282 0.21181686
-0.0018261462 0.0759658 0.042907033 -0.07929603 -0.009470486 0.010942731 -0.20189779 0.16395459
-0.07586336 -0.0068605044 0.10015046 0.08610502 -0.18691069 -0.1419326 -0.08419914 0.002583762
0.11187758 -0.011734332 -0.18644631 -0.003436363 0.15588012 0.00047638777 -0.5097891 -0.1473609
-0.33220586 -0.018589014 0.07019684 -0.065754615 -0.13852373 0.25276035 -0.19606541 -0.04829759
-0.18859245 0.031760555 -0.0034287344 -0.23638901 -0.10913877 0.14399293 0.0022662582 0.040771812
0.14537062 0.028159808 0.065730095 -0.10222308 0.018669844 -0.050085887 0.10600621 -0.032753557
0.06566345 0.16036725 0.09404746 0.01577159 -0.09178892 -0.16525392 -0.11699632 0.07205581
0.06256596 -0.06542217 -0.14885211 -0.076041795 -0.10100322 0.34580714 0.035137754 -0.049402732
0.081007905 0.15264617 0.11776622 0.06298518 0.020661183 0.24271531 0.12349761 0.025430232
0.11797797 0.520682 0.0768684 0.020152865 -0.048105758 -0.06675231 0.11815514 0.1777426
0.18613 -0.01833235 0.12974572 -0.008476055 -0.12230551 0.011454754 0.2572067 -0.028731454
0.08923424 -0.17037329 0.08318633 -0.10196407 0.14475088 -0.25455287 -0.24119379 -0.13378924
-0.2065494 0.14454415 -0.20372462 0.031180728 0.059457224 -0.22409947 0.12412 -0.06560783
-0.028706666 0.093180016 -0.06933719 -0.07343864 0.10143897 0.20485798 0.075331226 0.122401334
-0.22456917 0.047502782 0.020650005 -0.06758588 -0.06501168 -0.14968967 0.0051544844 -0.13640063
-0.2834817 -0.025246322 0.016445996 -0.009170598 -0.06273396 0.047793146 -0.13369095 -0.19038965
0.15890056 -0.031591367 -0.15913649 -0.26710793 0.15731746 -0.20618212 -0.09028753 0.016655043
-0.023647202 -0.119790435 0.064197645 0.100870185 0.017519437 0.020301573 -0.07472916 0.5572953
00000000: e64b 15bc ec39 153e 1cf3 efbc 2351 4ebe
00000010: ef00 92bd 81fa 7fbe f0b4 223e dc4c 05bb
00000020: a46e 933d a87d 5abe cca2 283c 6a19 5b3e
00000030: c3b1 81bc 36c8 51bd 9dbd f6bd 27ce 9bbc
00000040: 0a33 1f3e f822 97bd f6a9 9dbd 90d4 bc3d
00000050: df9a 553e f2a6 4e3d e2b6 953d c7bd 87bd
00000060: 339a 1abe d6a4 67be d88a 6abe b42d 013e
00000070: 1eb3 013e f915 083e 1bca 593e fad5 c83d
00000080: 2734 753d fbff 06bd 7c56 5d3c 8ef0 1b3e
00000090: f462 1abd 2f45 03be f84d d3bd c231 3e3e
000000a0: 36f1 9a3e fe54 1abe e686 30bd 5eb8 67be
000000b0: b2ab 9abd 5dfa c93c bd20 453e 9633 72bd
000000c0: 5400 393d 1858 013e 15a3 9f3c 78d6 66be
000000d0: 1296 40bd 5280 b4bd d089 33bd 9b53 0b3d
000000e0: 624e 68be 4bcb 093e 9a73 983d 9792 913c
000000f0: fbbb 113e 52f4 353c 2d70 f33c da91 dabc
00000100: 0561 13be caf7 a8bd 1707 aebc 4fe2 ffbd
00000110: 0f05 b53d 6d6f e13d 1e1a b6bd f03e 563e
00000120: dfc8 e5bd f880 ac3d 684b 4abe 7612 863d
00000130: fb96 943b b312 adbe 6a5c 533e eb05 22be
00000140: 874b aabe 8365 353c 1acd 58be 97ac 7c3e
00000150: c332 3aba 8cee 8cbe f61a 813d 775d 723e
00000160: 04df 15be 4f19 f83c 6f5d 303e 8b6e f6bd
00000170: 8435 323e a54d 5dbe 2cfb f03d 489b ea3b
00000180: f33a de3d 260a 1a3e 4d2f 6ebc dc6b bfbd
00000190: 1b6d 97bd 7fec 273e 4d12 42be 9419 e8bc
000001a0: 4e37 fb3c 88c7 02be ff37 5d3c 643c 0f3e
000001b0: db98 66bd 5289 8c3c 64d1 59be 85e6 583e
000001c0: 4c5b efba f593 9b3d 49bf 2f3d f565 a2bd
000001d0: 192a 1bbc 2449 333c 4bbe 4ebe b6e3 273e
000001e0: 405e 9bbd 15ce e0bb af1b cd3d d457 b03d
000001f0: 8465 3fbe c856 11be 9970 acbd 5554 293b
00000200: 1320 e53d 5b41 40bc c8eb 3ebe 9b34 61bb
00000210: 0a9f 1f3e afc3 f939 8a81 02bf c7e5 16be
00000220: e316 aabe fd47 98bc 5cc3 8f3d 5baa 86bd
00000230: 2ad9 0dbe ce69 813e 5fc5 48be b2d3 45bd
00000240: 611e 41be 5b17 023d 9eb4 60bb f60f 72be
00000250: 2684 dfbd e272 133e 8185 143b 5800 273d
00000260: 09dc 143e 66af e63c 809d 863d 565a d1bd
00000270: 80f1 983c dc26 4dbd c919 d93d 9828 06bd
00000280: 8f7a 863d 5037 243e f49b c03d 6c33 813c
00000290: d4fb bbbd 5338 29be c49b efbd ff91 933d
000002a0: 9522 803d 0ffc 85bd b06c 18be cdbb 9bbd
000002b0: c7da cebd a20d b13e 9bec 0f3d 855a 4abd
000002c0: 79e7 a53d 474f 1c3e 6a2f f13d 60fe 803d
000002d0: a441 a93c 5d8a 783e 51ec fc3d 1053 d03c
000002e0: 6f9e f13d 6a4b 053f 2e6d 9d3d 9f17 a53c
000002f0: 8b0a 45bd 6fb5 88bd 52fb f13d 2802 363e
00000300: dd98 3e3e b92d 96bc 10dc 043e 27df 0abc
00000310: 507b fabd b8ac 3b3c 99b0 833e 3a5e ebbc
00000320: 71c0 b63d 5676 2ebe 985d aa3d 8ad2 d0bd
00000330: 9339 143e c154 82be 81fb 76be 0c00 09be
00000340: b081 53be 6203 143e 309d 50be ba6e ff3c
00000350: 6b89 733d 557a 65be a032 fe3d 665d 86bd
00000360: 3e2a ebbc 2ad5 be3d a800 8ebd ff66 96bd
00000370: 3cbf cf3d 4ac6 513e 4247 9a3d 8dad fa3d
00000380: 76f5 65be 4792 423d 332a a93c 776a 8abd
00000390: d824 85bd 4048 19be f3e6 a83b 9bac 0bbe
000003a0: 8324 91be 60d1 cebc c1b9 863c 4740 16bc
000003b0: aa7a 80bd bfc2 433d 48e6 08be 81f5 42be
000003c0: d4b6 223e f365 01bd adf4 22be 5fc2 88be
000003d0: d417 213e 6821 53be abe8 b8bd 2870 883c
000003e0: c7b7 c1bc b054 f5bd 0e7a 833d 0795 ce3d
000003f0: ec84 8f3c 7c4f a63c 9a0b 99bd e8aa 0e3f

bias f4 [64]
2.3931978e-05 0.0037179808 -0.0052910014 0.000102872466 -0.0038563118 -0.0036145565 0.006246202 -0.0034618129
0.005248995 -0.003248547 0.002799611 -0.0058732447 -0.002412788 0.00618083 0.001866801 -0.001190351
-0.0032298667 -0.0033246074 -0.0065920064 0.0058881505 -5.7470417e-05 0.0047969534 -0.0060449187 0.003935223
0.0013884311 0.000101160505 0.0041751456 0.0063955775 -0.0042476915 -0.0023986215 -0.0026474756 -0.0075097797
0.0050591924 0.0006953697 -0.008331457 0.0056699505 0.0021900295 0.0057072914 -0.0018600597 0.009297817
0.0054351203 -0.0008876546 -0.0036355658 -0.0016235055 -0.0010127547 0.00021563206 -0.0023462353 -0.001915228
-0.0065644956 -0.00042256704 -0.008816028 -0.005003246 0.0020476547 -0.0028715087 0.00686612 -0.0041897814
-0.008288255 -0.003914069 -0.002296239 -0.003984646 0.0008784533 -0.0006333255 -0.0061966516 0.0021905252
00000000: 88c1 c837 5ea9 733b 2360 adbb 3cbd d738
00000010: 2dba 7cbb 32e2 6cbb f1ac cc3b 95df 62bb
00000020: c3ff ab3b 93e5 54bb ae79 373b 5974 c0bb
00000030: de1f 1ebb 8f88 ca3b 72af f43a 8d05 9cba
00000040: 2cac 53bb a8e1 59bb c201 d8bb 63f1 c03b
00000050: 640c 71b8 c32f 9d3b 7414 c6bb 0bf3 803b
00000060: 04fc b53a 2226 d438 a9cf 883b fe91 d13b
00000070: 3830 8bbb 3132 1dbb 4581 2dbb 9914 f6bb
00000080: 95c7 a53b 7849 363a aa80 08bc feca b93b
00000090: 9986 0f3b 3b04 bb3b 3fcd f3ba df55 183c
000000a0: 1819 b23b 7eb1 68ba ac42 6ebb cecb d4ba
000000b0: 69be 84ba 4a1b 6239 4cc3 19bb 6308 fbba
000000c0: fb1a d7bb fd8b ddb9 1a71 10bc 45f2 a3bb
000000d0: f231 063b ec2f 3cbb 30fd e03b 6f4a 89bb
000000e0: 76cb 07bc 9741 80bb 7f7c 16bb a291 82bb
000000f0: 0148 663a c105 26ba 480d cbbb ea8e 0f3b

weight f4 [64, 64]
0.1955483 0.32004622 0.011890894 -0.026720887 0.15671189 -0.10448691 -0.17892052 0.04078025
-0.09741488 0.15996698 -0.03848761 -0.15321098 0.13103159 -0.020284941 -0.29861513 0.12602945
0.024742575 -0.13445485 -0.32177114 -0.39348325 -0.04197183 0.1864843 0.14001858 0.13987447
0.04138556 0.14921795 -0.0034709512 0.09490125 -0.08350896 0.028712943 0.010934906 0.017033849
0.17009534 -0.17180532 0.1506749 -0.0039853645 -0.3454956 0.04126781 0.042110562 -0.09726514
-0.19979705 0.4990115 -0.23141561 -0.13950284 0.22250184 0.1246471 0.040498864 -0.1656029
0.11927326 0.12517413 -0.035835817 -0.051577285 -0.059425976 0.21022122 0.26090178 -0.073570155
-0.004887562 -0.076730326 -0.102149285 0.14263794 0.35825488 -0.3280427 -0.32077742 0.14060685
0.15013659 0.09872271 0.07657862 0.1836665 0.24037409 0.06328644 0.0067629865 -0.08083224
-0.044896286 -0.22175041 0.06749721 -0.024608418 0.1738826 -0.084111385 -0.2771312 0.092994876
0.20288663 0.10968547 -0.24604452 0.24064887 0.009365401 -0.19914824 0.057520222 0.46170422
0.07071622 0.00077590795 -0.11156061 -0.11675085 0.13281503 -0.2342358 -0.18423603 0.2789889
0.0710749 -0.06565241 0.11950383 0.07318181 0.2459017 0.20738176 0.35792223 -0.009977058
0.06373605 0.10337786 0.057196483 -0.19279762 0.011228502 0.11190318 -0.14784127 0.2901834
0.019155659 -0.10066256 0.0021915552 0.24406488 -0.05277595 -0.26479647 -0.122394815 0.32538745
-0.012049154 -0.33222392 0.3287207 -0.092192926 -0.1727314 0.07679887 -0.26884404 -0.054375555
0.27066386 -0.09302651 -0.052109946 -0.038008176 0.21119122 0.002245323 -0.041388575 -0.100931615
-0.06767082 0.24021703 -0.100301564 -0.3546725 -0.100592375 0.16788527 0.14072205 0.44433618
-0.22935756 -0.41483986 -0.24243136 0.40931478 0.21506906 -0.041301932 -0.11360045 -0.09992331
-0.30157092 -0.12815645 -0.2353292 -0.11109793 -0.07910266 -0.13150446 0.09158186 0.06828528
0.016823746 0.13155337 0.10720563 0.0057039033 0.07041866 0.18381244 0.16709256 0.055429295
-0.38351968 -0.11673361 -0.21195216 -0.0524621 -0.01801271 0.012985812 -0.07891976 -0.0022871029
0.05406216 0.10051688 0.014057094 0.12706478 0.23046036 0.1743879 0.0668447 -0.2538117
0.18005131 0.09064276 0.1399221 -0.08953706 -0.009701157 0.025432887 0.25031537 -0.22349234
-0.08335187 -0.28313056 -0.12942295 -0.282638 0.06714802 -0.08861021 0.06739015 -0.20867564
0.040597823 0.04960577 0.34192166 -0.18329732 0.33305782 -0.06792332 -0.34725958 0.2385287
-0.12135044 -0.020066932 0.19859762 -0.13561668 0.36782488 0.23408432 -0.10668609 0.18789195
0.17658344 0.1723417 0.0014985232 -0.011894031 -0.22552016 0.14736116 -0.112737946 0.062850155
-0.07403103 0.1925116 -0.32566598 0.41131964 0.026012156 0.1672248 0.025434466 -0.23750469
0.03722972 -0.18619172 0.16116655 0.077286474 0.085226886 0.092842914 -0.10233782 -0.09186816
0.2344067 -0.12231608 0.07772236 -0.14205131 0.09852657 0.06451621 -0.32134596 -0.12567842
0.06703063 -0.1901274 -0.07115489 0.022654286 0.15608259 0.11294802 0.03788285 0.1448042
00000000: d03d 483e 19dd a33e 06d2 423c c3e5 dabc
00000010: 1579 203e 3cfd d5bd f136 37be 3109 273d
00000020: 7481 c7bd 62ce 233e 2fa5 1dbd 57e3 1cbe
00000030: 252d 063e 9b2c a6bc 15e4 98be dd0d 013e
00000040: f1b0 ca3c 88ae 09be 30bf a4be a376 c9be
00000050: a7ea 2bbd bef5 3e3e 0861 0f3e 413b 0f3e
00000060: e883 293d 97cc 183e e678 63bb 965b c23d
00000070: bf06 abbd 6837 eb3c 5228 333c 928a 8b3c
00000080: 792d 2e3e bced 2fbe 854a 1a3e a997 82bb
00000090: cde4 b0be 6f08 293d 207c 2c3d f232 c7bd
000000a0: 9997 4cbe 6f7e ff3e 37f8 6cbe d5d9 0ebe
000000b0: 86d7 633e fb46 ff3d 23e2 253d ce93 29be
000000c0: 8a45 f43d a62d 003e 94c8 12bd b442 53bd
000000d0: a768 73bd 3b44 573e eb94 853e f3ab 96bd
000000e0: d727 a0bb ca24 9dbd a533 d1bd ae0f 123e
000000f0: 2f6d b73e 36f5 a7be f03c a4be 3efb 0f3e
00000100: 68bd 193e 222f ca3d 40d5 9c3d 1213 3c3e
00000110: a024 763e 529c 813d 0b9c dd3b 608b a5bd
00000120: 2be5 37bd 8a12 63be fa3b 8a3d 9897 c9bc
00000130: 480e 323e 9742 acbd 24e4 8dbe 1974 be3d
00000140: 83c1 4f3e c7a2 e03d 18f3 7bbe a86c 763e
00000150: 5771 193c 84ed 4bbe 539a 6b3d 7f64 ec3e
00000160: aad3 903d 4d66 4b3a e479 e4bd 121b efbd
00000170: aa00 083e 82db 6fbe 5fa8 3cbe a2d7 8e3e
00000180: b88f 913d c574 86bd 6dbe f43d 58e0 953d
00000190: a8cd 7b3e e25b 543e 9541 b73e d076 23bc
000001a0: 0c88 823d c5b7 d33d dc46 6a3d bd6c 45be
000001b0: c0f7 373c 7f2d e53d b463 17be eb92 943e
000001c0: 54ec 9c3c 2c28 cebd 32a0 0f3b 25ec 793e
000001d0: 982b 58bd 6793 87be 22aa fabd 2f99 a63e
000001e0: d169 45bc 4119 aabe 144e a83e a5cf bcbd
000001f0: 80e0 30be ba48 9d3d eda5 89be e7b8 5ebd
00000200: 7494 8a3e af84 bebd 3d71 55bd 76ae 1bbd
00000210: 8342 583e 4526 133b 1187 29bd 3cb5 cebd
00000220: 0097 8abd 74fb 753e e86a cdbd a297 b5be
00000230: 6003 cebd 1eea 2b3e 7119 103e 0880 e33e
00000240: b5dc 6abe e465 d4be ed3f 78be b591 d13e
00000250: 103b 5c3e 372c 29bd 5aa7 e8bd 98a4 ccbd
00000260: 8167 9abe 723b 03be 23fa 70be 5087 e3bd
00000270: 9300 a2bd 1ba9 06be 458f bb3d 27d9 8b3d
00000280: f4d1 893c edb5 063e a08e db3d cfe7 ba3b
00000290: a937 903d 5439 3c3e 501a 2b3e d409 633d
000002a0: b15c c4be 0812 efbd fd09 59be 80e2 56bd
000002b0: 648f 93bc 71c2 543c afa0 a1bd 38e3 15bb
000002c0: 4970 5d3d cbdb cd3d ba4f 663c 451d 023e
000002d0: cdfd 6b3e be92 323e e0e5 883d 9bf3 81be
000002e0: 5f5f 383e e9a2 b93d bd47 0f3e 355f b7bd
000002f0: 9af1 1ebc a158 d03c 5629 803e 2ddb 64be
00000300: 63b4 aabd 7df6 90be 7387 04be eeb5 90be
00000310: e784 893d 4579 b5bd d903 8a3d 11af 55be
00000320: e749 263d 6b2f 4b3d 5b10 af3e 4bb2 3bbe
00000330: 8e86 aa3e 621b 8bbd 02cc b1be de40 743e
00000340: 9486 f8bd 6863 a4bc 2d5d 4b3e 19df 0abe
00000350: 8b53 bc3e cdb3 6f3e 3d7e dabd bf66 403e
00000360: 4ad2 343e 587a 303e 186a c43a 2fdf 42bc
00000370: c2ee 66be d8e5 163e 27e3 e6bd 95b7 803d
00000380: 959d 97bd c321 453e b1bd a6be 7d98 d23e
00000390: 7217 d53c fa3c 2b3e f15b d03c 6e34 73be
000003a0: 317e 183d 0ba9 3ebe d808 253e 5f48 9e3d
000003b0: 6f8b ae3d 6d24 be3d 7e96 d1bd 6025 bcbd
000003c0: 4f08 703e da80 fabd e72c 9f3d e675 11be
000003d0: 4cc8 c93d 1321 843d 7587 a4be d8b1 00be
000003e0: 5b47 893d c2b0 42be a8b9 91bd 7b95 b93c
000003f0: 1dd4 1f3e 4b51 e73d 0c2b 1b3d 8d47 143e

bias f4 [64]
-0.0020492843 -0.006290318 -0.0011118861 -0.007505165 0.012199396 -0.0031120921 -0.0071940674 -0.0022268859
0.0098679615 -0.009165346 0.0098693855 -0.0071740644 -0.0062235156 -0.0059638876 0.00818336 -0.0072944234
0.008819918 -0.006006884 0.0086803 0.0042848764 -0.009005805 0.0089049 0.01209076 0.0052360166
-0.0075386344 -0.009351329 0.008716164 0.0048473473 0.007969025 -0.010578014 0.006882328 -0.008873631
-0.0021463106 -0.010605355 0.009924451 -0.00886601 -0.0064192354 -0.0049742945 -0.008061773 -0.0052914917
-0.0015707726 -0.0004895331 0.005114208 0.004293551 -0.005994354 0.0075912597 -0.0012367318 -0.0020869765
0.004145577 -0.004295861 -0.0006991495 -0.0055010812 -0.008774008 -0.004377457 -0.0081127435 -0.008066909
-0.008327386 0.010498042 -0.0077994005 0.008163474 0.0010939181 0.009182045 0.011419219 0.0046584704
00000000: 494d 06bb 031f cebb b5bc 91ba e3ed f5bb
00000010: fadf 473c 3ef4 4bbb 36bc ebbb f2f0 11bb
00000020: 3bad 213c 3f2a 16bc 34b3 213c 6a14 ebbb
00000030: a2ee cbbb b76c c3bb 8013 063c 0f06 efbb
00000040: 6b81 103c 65d5 c4bb d137 0e3c 2668 8c3b
00000050: 158d 13bc dce5 113c 5318 463c e492 ab3b
00000060: a606 f7bb 5136 19bc 3ece 0e3c 7fd6 9e3b
00000070: 8390 023c 684f 2dbc 2785 e13b b562 11bc
00000080: 1ea9 0cbb 15c2 2dbc 2a9a 223c be42 11bc
00000090: 7358 d2bb 68ff a2bb 8715 04bc 4064 adbb
000000a0: 62e2 cdba 0354 00ba 1695 a73b ebb0 8c3b
000000b0: 496c c4bb 1ac0 f83b d519 a2ba a8c5 08bb
000000c0: 9fd7 873b 4bc4 8cbb 2147 37ba 6a42 b4bb
000000d0: dbc0 0fbc c570 8fbb 50eb 04bc 122b 04bc
000000e0: 976f 08bc fbff 2b3c 1d92 ffbb 17c0 053c
000000f0: cd61 8f3a 4a70 163c ad17 3b3c 15a6 983b

weight f4 [64, 64]
-0.1576871 -0.05125457 0.039135516 -0.010742121 -0.3449657 -0.051214714 -0.122938216 -0.2600702
-0.21004298 0.16738115 -0.12441699 -0.048540886 -0.213194 -0.10140525 -0.17563432 -0.0825984
0.16072594 -0.09657694 -0.07858523 0.14666438 0.1196095 0.071607694 -0.3793722 -0.15460269
0.11286919 -0.11127529 -0.2708179 0.0035743827 0.33772454 -0.28982309 0.17179258 0.05087429
0.10920247 -0.218046 -0.32978263 -0.042285886 -0.06433765 -0.051329374 -0.18530872 -0.21474858
-0.1801083 0.36041102 -0.1984619 0.06549313 0.036875173 -0.15945907 -0.05117587 -0.24981147
0.1538412 0.0096101435 -0.2248946 0.2556029 -0.04752953 0.15251632 -0.037090648 -0.33777395
-0.16774587 0.016869618 0.2118505 -0.099904194 0.21368042 -0.046319965 -0.14974391 -0.13885531
0.06367232 0.106316485 -0.17322357 -0.016416803 0.027981602 0.089583986 -0.0519298 -0.04807146
-0.054702904 0.29768556 -0.19377775 -0.028347777 0.20177056 -0.1505248 0.35351714 0.13384986
-0.12871172 0.17523387 0.13708496 -0.06978191 0.06096596 0.24977781 0.1739639 -0.33826867
0.18525657 -0.07191224 -0.09387454 0.2136897 0.1648626 0.2873433 0.12217351 0.0030859965
0.016443025 -0.00023207163 0.1892349 -0.400662 -0.056166638 0.18803369 -0.0029653537 0.087530375
0.07118566 -0.03259325 -0.12114933 -0.12936962 -0.004463253 -0.059642367 -0.044373922 -0.19705735
0.112683564 0.020529091 -0.23023452 0.07113861 -0.08752105 -0.061679147 -0.19890504 0.243549
-0.44121268 0.019429578 -0.29036623 -0.13971582 0.08266288 -0.45410323 -0.04492632 0.2855062
-0.30725336 0.08720384 0.18695849 0.018230956 -0.07792109 -0.10461767 -0.28137356 0.2218296
-0.00095367455 -0.10095881 0.13689671 -0.42870462 0.27722383 -0.091102935 -0.07673696 0.31765923
-0.073117904 -0.11758034 0.32826757 -0.2452566 -0.13101988 -0.11449205 -0.01966185 -0.04048996
0.19163151 -0.2300684 -0.052393835 0.11737823 -0.055841602 -0.2396095 0.057937656 -0.02094417
-0.43276405 0.119384244 -0.07930535 -0.0046415078 -0.04812789 0.20496328 0.23253503 -0.13748573
0.09421917 0.046739113 -0.008277867 -0.18013567 -0.120443314 0.15254371 -0.13303486 0.073121145
-0.09885147 -0.22618362 -0.19833139 -0.10540274 0.24508053 -0.12128226 -0.23945086 -0.16792832
-0.032637313 -0.24917482 0.07868084 0.18733245 0.30342585 0.12804234 0.054140273 0.029403063
-0.024886236 -0.013883504 -0.10839196 0.008171416 0.50851077 0.2681568 -0.24149594 0.10452576
-0.104434505 -0.042752028 0.14327817 -0.117538705 -0.010483295 -0.12001872 -0.32806978 -0.036699373
-0.008493276 0.063635446 -0.070527546 0.025778446 0.26913407 -0.31553248 -0.2628478 0.099519804
-0.29415196 0.11828093 -0.21537782 0.10202457 0.08860691 0.053140722 -0.22683287 0.17052738
0.060534503 0.1930396 -0.19255821 -0.05217531 0.14231008 0.016130581 -0.055443466 -0.13859794
-0.018869976 -0.041459866 0.19066213 0.17155148 0.013277881 -0.057072483 -0.048435267 0.37008992
0.20239447 -0.23219164 0.22869942 0.038195886 -0.05284256 0.090569146 -0.2048933 -0.025915436
-0.40896678 0.018576518 -0.2695042 -0.073204495 0.19234997 -0.055071227 -0.16579334 0.23033278
00000000: ba78 21be 50f0 51bd 904c 203d b9ff 2fbc
00000010: 589f b0be 85c6 51bd 08c7 fbbd ec27 85be
00000020: 8215 57be f765 2b3e 56ce febd cfd2 46bd
00000030: 874f 5abe 8ead cfbd 7cd9 33be 5a29 a9bd
00000040: 5795 243e 21ca c5bd 4bf1 a0bd 302f 163e
00000050: d3f5 f43d 0ea7 923d 133d c2be 2b50 1ebe
00000060: f627 e73d 4de4 e3bd a5a8 8abe 3140 6a3b
00000070: 3bea ac3e b163 94be 65ea 2f3e 8f61 503d
00000080: 8ba5 df3d 7347 5fbe 45d9 a8be f733 2dbd
00000090: 75c3 83bd c03e 52bd 92c1 3dbe 0de7 5bbe
000000a0: 4f6e 38be cb87 b83e 9939 4bbe 4321 863d
000000b0: 6c0a 173d 3d49 23be ca9d 51bd 94ce 7fbe
000000c0: 8c88 1d3e dd73 1d3c c54a 66be 62de 823e
000000d0: 53ae 42bd 3d2d 1c3e 5dec 17bd b5f0 acbe
000000e0: 93c5 2bbe 2732 8a3c 56ef 583e 929a ccbd
000000f0: 0acf 5a3e 01ba 3dbd 7856 19be 1630 0ebe
00000100: a266 823d 75bc d93d 8561 31be 887c 86bc
00000110: ac39 e53c cf77 b73d 58b4 54bd 94e6 44bd
00000120: 2710 60bd 3e6a 983e ad6d 46be 9939 e8bc
00000130: f19c 4e3e 2c23 1abe 3300 b53e f00f 093e
00000140: 01cd 03be 8270 333e 0060 0c3e d1e9 8ebd
00000150: 71b7 793d c1c5 7f3e 9823 323e 8d31 adbe
00000160: e6b3 3d3e b946 93bd 4b41 c0bd 79d1 5a3e
00000170: bed1 283e a91e 933e 1b36 fa3d 6e3e 4a3b
00000180: 86b3 863c 4158 73b9 cbc6 413e 9223 cdbe
00000190: fd0e 66bd e78b 403e 6156 42bb 2043 b33d
000001a0: cac9 913d 8080 05bd 241d f8bd 7879 04be
000001b0: 7b40 92bb 8e4b 74bd 6ec1 35bd 67c9 49be
000001c0: a4c6 e63d a02c a83c 99c2 6bbe 1fb1 913d
000001d0: 3c3e b3bd 46a3 7cbd c3ad 4bbe e964 793e
000001e0: a1e6 e1be c72a 9f3c e2aa 94be aa11 0fbe
000001f0: 284b a93d 3880 e8be a904 38bd de2d 923e
00000200: 5050 9dbe ed97 b23d 0c72 3f3e 1659 953c
00000210: 1895 9fbd ca41 d6bd 3210 90be 4c27 633e
00000220: 0400 7aba 7ec3 cebd a72e 0c3e 2c7f dbbe
00000230: 48f0 8d3e 2d94 babd 4428 9dbd 3ba4 a23e
00000240: d7be 95bd f6cd f0bd b012 a83e 8c24 7bbe
00000250: 132a 06be cf7a eabd e311 a1bc cdd8 25bd
00000260: 0d3b 443e 0d97 6bbe eb9a 56bd ff63 f03d
00000270: 2aba 64bd 315c 75be 0950 6d3d 1c93 abbc
00000280: 4093 ddbe ba7f f43d d86a a2bd ca17 98bb
00000290: c021 45bd e5e1 513e aa1d 6e3e 0fc9 0cbe
000002a0: fbf5 c03d 8371 3f3d e49f 07bc 7c75 38be
000002b0: fcaa f6bd 6b34 1c3e 4a3a 08be 8ac0 953d
000002c0: a472 cabd ae9c 67be 6217 4bbe 64dd d7bd
000002d0: 64f6 7a3e d562 f8bd 9b32 75be 67f5 2bbe
000002e0: b4ae 05bd af27 7fbe 6c23 a13d 14d4 3f3e
000002f0: a25a 9b3e 881d 033e 31c2 5d3d b1de f03c
00000300: 38de cbbc a377 63bc 9bfc ddbd 67e1 053c
00000310: c32d 023f d94b 893e b64a 77be 9a11 d63d
00000320: c2e1 d5bd c01c 2fbd 83b7 123e 22b8 f0bd
00000330: 20c2 2bbc 60cc f5bd c3f8 a7be 1552 16bd
00000340: 6227 0bbc 4d53 823d bf70 90bd 522d d33c
00000350: f1cb 893e 798d a1be fd93 86be 0ad1 cb3d
00000360: 169b 96be 463d f23d 018c 5cbe 42f2 d03d
00000370: 8a77 b53d 16aa 593d e046 68be bb9e 2e3e
00000380: 07f3 773d 2cac 453e fb2d 45be c7b5 55bd
00000390: bcb9 113e 4824 843c b018 63bd 9eec 0dbe
000003a0: 3595 9abc d2d1 29bd ef3c 433e 31ab 2f3e
000003b0: 788b 593c d6c4 69bd 0f64 46bd 6d7c bd3e
000003c0: 7f40 4f3e a5c3 6dbe 2e30 6a3e 4a73 1c3d
000003d0: 7171 58bd 517c b93d 8dcf 51be 9c4c d4bc
000003e0: 1864 d1be c82d 983c 74fc 89be 3dec 95bd
000003f0: 64f7 443e 5e92 61bd bbc5 29be 5bdc 6b3e

bias f4 [64]
-0.010227302 0.0085749915 0.010889132 -0.012463337 0.01065354 -0.010163237 0.0041014575 -0.012481563
0.011917124 -0.008256401 -0.010640575 -0.008990295 -0.0109275 0.009611365 0.01054448 -0.010448922
-0.009616131 0.010681761 -0.009983884 -0.010492837 0.0090768505 -0.0121464385 0.0077220183 0.011956997
-0.011893616 0.011427996 0.007519016 0.010168447 0.009949323 0.007181857 0.009374466 -0.009101208
0.008354591 -0.012746823 0.011592002 0.011942688 -0.009262559 -0.009388665 -0.008073373 0.011228123
0.0091697015 -0.013399114 0.0072864993 -0.009454634 0.008906672 0.010450045 0.010604272 0.009673216
0.0077804863 0.009952739 0.010364452 0.011327977 0.011617554 0.011859015 -0.010223743 0.0111095635
0.009751161 0.01014594 -0.008978253 -0.008624554 -0.009400868 -0.009184985 0.010834288 0.008335806
00000000: 6a90 27bc 1f7e 0c3c 5468 323c 0633 4cbc
00000010: 2f8c 2e3c b583 26bc 8565 863b 787f 4cbc
00000020: 0a40 433c db45 07bc ce55 2ebc 084c 13bc
00000030: 4209 33bc fd78 1d3c c1c2 2c3c f531 2bbc
00000040: fa8c 1dbc 8e02 2f3c 7293 23bc 26ea 2bbc
00000050: 12b7 143c db01 47bc fc08 fd3b 48e7 433c
00000060: 71dd 42bc 7d3c 3b3c 1462 f63b 8f99 263c
00000070: 7c02 233c c855 eb3b 5c97 193c 3c1d 15bc
00000080: b2e1 083c 0dd8 50bc 61ec 3d3c 44ab 433c
00000090: fdc1 17bc ead2 19bc 2e46 04bc 29f6 373c
000000a0: 843c 163c f587 5bbc 96c3 ee3b 9ce7 1abc
000000b0: 4aed 113c aa36 2b3c 8abd 2d3c 697c 1e3c
000000c0: 73f3 fe3b d010 233c aacf 293c fb98 393c
000000d0: 8e57 3e3c 504c 423c 7c81 27bc e304 363c
000000e0: 55c3 1f3c 283b 263c 8619 13bc 004e 0dbc
000000f0: 1906 1abc 9f7c 16bc 4c82 313c e892 083c

weight f4 [1, 64]
0.009128444 -0.025926359 -0.11543809 0.06935697 -0.05510545 0.04703442 -0.0013238501 0.120267875
-0.25749797 0.22377726 0.010978719 0.028729552 0.15032251 -0.1472104 -0.3779417 0.22656505
0.3679793 -0.043959126 0.23396273 0.034604825 -0.106090605 0.123655155 -0.046942774 -0.12942809
0.108182125 -0.16439787 -0.15944552 -0.15319623 -0.16487056 -0.11177685 -0.15998809 0.16925564
-0.1491523 0.13415205 -0.15755877 -0.030766495 0.16293368 0.023653114 0.36782214 -0.4152381
-0.37187487 0.17941861 -0.06834012 0.19315735 -0.050014835 -0.026723893 -0.016529135 -0.002332426
-0.014701769 -0.19373396 -0.10732242 -0.06797386 -0.014702044 -0.21332034 0.038477056 -0.048019797
-0.09252618 -0.006688978 0.15725519 0.33630848 0.279979 0.30315584 -0.12710328 -0.05998904
00000000: 788f 153c 8463 d4bc ce6a ecbd 070b 8e3d
00000010: 41b6 61bd 2aa7 403d 0a85 adba 014f f63d
00000020: c6d6 83be de25 653e 16e0 333c 3d5a eb3c
00000030: 25ee 193e 53be 16be 9381 c1be ab00 683e
00000040: c867 bc3e 7c0e 34bd ed93 6f3e cabd 0d3d
00000050: 0846 d9bd ea3e fd3d 1147 40bd cc88 04be
00000060: 978e dd3d ea57 28be b045 23be 79df 1cbe
00000070: d4d3 28be 43eb e4bd ebd3 23be 5a51 2d3e
00000080: 61bb 18be 285f 093e 1657 21be 040a fcbc
00000090: 16d8 263e 2dc4 c13c 2f53 bc3e 179a d4be
000000a0: 6266 bebe 83b9 373e e8f5 8bbd 0acb 453e
000000b0: 5bdc 4cbd 11ec dabc 1c68 87bc 9ddb 18bb
000000c0: b0df 70bc 3262 46be dbcb dbbd e135 8bbd
000000d0: d8e0 70bc a670 5abe 1e9a 1d3d 68b0 44bd
000000e0: 5e7e bdbd 372f dbbb 8107 213e a030 ac3e
000000f0: 6859 8f3e 3e37 9b3e 5d27 02be 11b7 75bd
